model-doom.pth (torch, 110383 bytes, 8 tensors)

weight f4 [8, 1, 6, 6]
0.07963333 -0.096583195 -0.110791676 -0.012402209 0.06460545 -0.08553861 -0.1166844 0.043109108
-0.05856808 -0.029893825 0.055720363 0.14492536 0.0965364 0.055012252 -0.15269923 0.14509183
0.10325596 0.14281082 -0.016909363 0.14380123 0.14788288 -0.06442687 0.09464999 0.02606753
-0.14599551 0.016655583 -0.091719404 -0.11471937 0.05568009 0.0033726466 -0.11088332 -0.048317757
0.06502244 -0.06699796 0.05006883 -0.08313901 0.08360016 0.1654612 -0.016462985 0.035373203
0.08123836 0.15166713 0.11194391 -0.13966821 -0.015133438 0.1281667 -0.034861404 0.027737232
-0.016859334 0.009991193 -0.06977541 0.12202595 0.08335903 0.14603248 0.12750572 -0.017389534
-0.06850238 -0.123633556 0.051070236 -0.090755455 0.118960805 0.13530107 -0.14112377 0.0037586677
-0.03518435 0.01323168 0.042414814 -0.029415406 -0.08970692 0.03232548 -0.04607608 0.092492715
0.04439189 -0.05061256 0.13074431 -0.12752803 -0.12968196 0.11998971 -0.12922981 0.15832743
0.09085245 0.11610047 0.16170363 0.16624247 -0.14208904 0.12788828 -0.0011854328 0.087700196
0.08223205 0.14621711 -0.021108158 -0.07712093 -0.044617053 -0.13576438 -0.075216815 0.0899983
-0.1440173 -0.15487905 0.06253556 -0.045890134 0.0272447 -0.10482207 0.06953742 -0.056452688
-0.082565084 -0.16296847 -0.036246285 -0.058316454 -0.03733276 0.02532959 -0.08074492 -0.053544365
0.13674654 -0.09381527 -0.10643339 0.019677475 0.1106561 -0.025264919 0.06662999 -0.11394231
-0.10389744 -0.10460524 0.14038248 0.06647913 -0.12523615 0.037496313 -0.1043189 -0.13796405
-0.037366346 0.02875501 0.105958596 -0.10382243 -0.012515783 0.15387349 0.040403903 -0.1398136
0.014603421 0.06601465 0.02430892 -0.06505402 0.05777526 -0.09430876 -0.024563193 0.07528253
-0.04013059 0.06406128 0.031473126 -0.022109514 -0.048788764 0.039236832 -0.06465342 0.10142281
-0.07767646 -0.015417349 0.15739946 0.15435037 0.044809666 -0.1233807 -0.040990822 -0.02257337
-0.14343543 -0.089833006 -0.1212734 0.15113182 -0.12111715 -0.05927452 0.05359502 0.09754585
0.0012081147 0.13952778 0.024120562 0.10543906 0.111186266 0.11165263 -0.075523235 0.01968805
-0.06361189 -0.15613173 -0.054412197 0.07795096 -0.0016593299 -0.13779606 0.107763045 0.003616951
0.042555396 0.037106458 -0.08904426 0.08848944 -0.033790257 -0.03587842 0.13696568 0.032526236
0.046648268 -0.031127825 0.12902464 -0.037133805 -0.0013019381 -0.04233381 -0.055418752 0.045612264
-0.054777417 0.07792107 -0.047773086 0.07885193 -0.018575603 0.13944334 -0.08220575 0.084124915
0.04444298 -0.031079061 0.008856858 0.09302562 0.119529456 -0.11126848 0.11797126 -0.0986195
-0.099412404 0.06958376 -0.062085375 0.06451668 -0.11952895 0.009278595 -0.099340916 0.12035711
0.002044037 0.08103834 -0.036840096 0.012335554 0.08535685 -0.14007884 -0.018541768 0.031527102
0.12347503 -0.11810897 -0.10383648 -0.06401543 0.068614826 -0.1035106 -0.1264387 0.05948019
-0.081444465 0.097760156 -0.047012627 -0.057952307 0.07570036 -0.099098325 -0.06986594 0.051228702
0.011024162 0.15306006 -0.0052663833 0.15686606 0.084053256 -0.010341677 0.09254524 0.040288907
00000000: cd16 a33d 69cd c5bd bfe6 e2bd a332 4bbc
00000010: dd4f 843d de2e afbd 3bf8 eebd 2d93 303d
00000020: 15e5 6fbd e5e3 f4bc 093b 643d 5067 143e
00000030: e0b4 c53d 8754 613d 305d 1cbe f492 143e
00000040: dc77 d33d 003d 123e 8185 8abc a140 133e
00000050: 9c6e 173e 3cf2 83bd dbd7 c13d 938b d53c
00000060: d97f 15be 4a71 883c 62d7 bbbd fdf1 eabd
00000070: ce10 643d 9f07 5d3b cb16 e3bd d7e8 45bd
00000080: 7c2a 853d 3a36 89bd f914 4d3d c944 aabd
00000090: 9036 ab3d a96e 293e 62dd 86bc 7ee3 103d
000000a0: 4c60 a63d a14e 1b3e d942 e53d 2f05 0fbe
000000b0: 3df2 77bc 223e 033e d5ca 0ebd 3139 e33c
000000c0: 961c 8abc 1ab2 233c 69e6 8ebd bee8 f93d
000000d0: 24b8 aa3d 8a89 153e dc90 023e 7f74 8ebc
000000e0: fa4a 8cbd 9733 fdbd 062f 513d ffdd b9bd
000000f0: b9a1 f33d 5d8c 0a3e c082 10be fb53 763b
00000100: 771d 10bd b0c9 583c 28bb 2d3d 94f8 f0bc
00000110: 43b8 b7bd b967 043d 46ba 3cbd d26c bd3d
00000120: 45d4 353d 1e4f 4fbd d6e1 053e b596 02be
00000130: 59cb 04be 2abd f53d d254 04be 9620 223e
00000140: d910 ba3d 15c6 ed3d a395 253e 773b 2a3e
00000150: ca7f 11be 25f5 023e 8660 9bba 299c b33d
00000160: 4769 a83d f0b9 153e 04eb acbc 94f1 9dbd
00000170: 5fc0 36bd d105 0bbe 460b 9abd 0751 b83d
00000180: 4579 13be 9d98 1ebe a512 803d 4bf7 3bbd
00000190: 4730 df3c f4ac d6bd a369 8e3d ef3a 67bd
000001a0: e217 a9bd 35e1 26be fc76 14bd 3cdd 6ebd
000001b0: 3cea 18bd 0080 cf3c 985d a5bd 5651 5bbd
000001c0: 4907 0c3e 3822 c0bd c0f9 d9bd a832 a13c
000001d0: aa9f e23d 60f8 cebc 4e75 883d 965a e9bd
000001e0: 2ec8 d4bd 463b d6bd 6dc0 0f3e 3626 883d
000001f0: e83d 00be bc95 193d 26a5 d5bd 7346 0dbe
00000200: 740d 19bd a08f eb3c d200 d93d dba0 d4bd
00000210: 000f 4dbc 0391 1d3e 907e 253d 4c2b 0fbe
00000220: 3043 6f3c b032 873d 8023 c73c 0b3b 85bd
00000230: c0a5 6c3d f324 c1bd c038 c9bc ba2d 9a3d
00000240: f95f 24bd 8f32 833d f7e9 003d 031f b5bc
00000250: bad6 47bd cdb6 203d 0369 84bd c3b6 cf3d
00000260: d614 9fbd 0c99 7cbc 532d 213e 060e 1e3e
00000270: 578a 373d 05af fcbd fee5 27bd caeb b8bc
00000280: bde0 12be 5efa b7bd 305e f8bd 4dc2 1a3e
00000290: 450c f8bd d7c9 72bd 7486 5b3d 1ec6 c73d
000002a0: 9a59 9e3a 5fe0 0e3e 7c98 c53c 6ff0 d73d
000002b0: a0b5 e33d 22aa e43d edab 9abd d548 a13c
000002c0: f346 82bd ffe0 1fbe 53df 5ebd c1a4 9f3d
000002d0: df7d d9ba 691a 0dbe dfb2 dc3d 5e0a 6d3b
000002e0: 914e 2e3d f1fc 173d d65c b6bd f439 b53d
000002f0: a767 0abd 40f5 12bd bb40 0c3e 3b3a 053d
00000300: 4112 3f3d c8ff febc 091f 043e 9e19 18bd
00000310: cba5 aaba 3866 2dbd c6fe 62bd edd3 3a3d
00000320: 495e 60bd 1595 9f3d b6ad 43bd 1f7d a13d
00000330: dd2b 98bc 3cca 0e3e 7d5b a8bd af49 ac3d
00000340: d809 363d 8499 febc 5b1c 113c 3784 be3d
00000350: dccb f43d bbe0 e3bd ea9a f13d 05f9 c9bd
00000360: bb98 cbbd ee81 8e3d 3c4d 7ebd 5221 843d
00000370: 98cb f4bd 4005 183c 4073 cbbd ca7d f63d
00000380: 40f5 053b 6ef7 a53d a4e5 16bd 101b 4a3c
00000390: 92cf ae3d d470 0fbe e8e4 97bc 9022 013d
000003a0: 7ae0 fc3d 1ee3 f1bd 38a8 d4bd 861a 83bd
000003b0: ee85 8c3d 5efd d3bd 2679 01be 80a1 733d
000003c0: 5bcc a6bd 7a36 c83d 5090 40bd 665f 6dbd
000003d0: ca08 9b3d 10f4 cabd e015 8fbd 30d5 513d
000003e0: b09e 343c c7bb 1c3e a091 acbb 7fa1 203e
000003f0: 1d24 ac3d 2370 29bc 5c88 bd3d fb05 253d

bias f4 [8]
-0.08609852 0.13035482 0.016555859 -0.14169197 0.007743379 -0.08541282 -0.06743191 -0.13971794
00000000: 6c54 b0bd bc7b 053e 27a0 873c b317 11be
00000010: 2cbc fd3b ebec aebd be19 8abd 3812 0fbe

weight f4 [8, 8, 3, 3]
-0.020379702 -0.02936222 -0.10462543 0.08330056 0.054685812 -0.101746805 0.0777963 0.0021685879
-0.10822305 0.112014316 0.07473412 0.09520517 -0.007127991 -0.11013255 0.055456523 -0.019885812
0.091807894 0.0084677 0.051432908 -0.07878878 -0.092335105 0.07194442 0.076198615 -0.0027791264
0.022146055 0.029898997 0.020233175 0.110333465 0.11395132 0.024096496 0.08702522 -0.053593874
0.08585086 0.109806664 -0.023717426 0.076908804 0.040479053 -0.03226305 0.038260426 -0.077414766
-0.069662035 -0.036790214 -0.116063364 -0.06845765 -0.057928033 0.013795326 0.033586413 0.08698979
-0.059406616 0.088744186 -0.014776357 -0.044779275 0.007734319 -0.059243653 0.021341674 0.07516334
-0.086997434 0.021253131 -0.08660223 0.04286123 -0.111209534 -0.09432282 -0.073936254 -0.04749205
-0.10671579 -0.08527807 -0.046340443 0.1154304 0.013077111 -0.047351215 -0.032004453 -0.046162028
-0.039804175 0.0022353455 0.10654763 -0.0682478 0.089254044 0.06252935 -0.103593655 -0.05664611
-0.01913876 0.006988369 -0.04006426 0.07834368 0.04245589 -0.078388184 0.007347472 0.06832289
0.02538719 -0.035711646 0.03130693 -0.018100895 0.02882772 -0.10640624 -0.012411781 0.09872616
0.065991126 0.003676258 0.025446095 -0.106222615 -0.051841058 -0.018746957 -0.104487725 -0.08585621
0.10702596 -0.047241613 -0.11697458 0.09957761 -0.06557 0.039634235 0.06853462 0.012971781
-0.07815005 0.033327974 -0.107968286 -0.013162546 -0.048037387 -0.09962307 -0.0705832 -0.05565986
-0.05615639 -0.10793464 -0.117381796 0.006940268 0.10275646 -0.016412698 0.09913889 0.0628861
0.11165591 -0.0797293 0.084117465 -0.08564 0.07085463 0.1103322 -0.05122938 0.110906966
-0.09434107 -0.10284501 0.097187825 -0.046690673 0.0057008415 0.03371603 -0.0006197989 -0.01648955
0.050571587 0.06950702 -0.060483113 0.08492149 0.022523955 -0.021003902 -0.05680766 0.016641773
-0.012141658 0.077950515 0.012958774 -0.0017280515 0.11786978 0.059971135 -0.09026897 -0.046891015
0.0018416978 0.12439753 -0.01751146 0.047517568 -0.08999075 -0.009813471 -0.046519212 0.08894412
0.10204359 -0.10796114 0.0009677192 -0.0705865 -0.07162924 -0.08361508 0.08424049 0.02744057
-0.1021817 -0.04578373 0.019964106 0.0731635 0.10673297 0.07351108 0.11786456 -0.110311285
-0.10599672 -0.11165063 0.02007344 0.027151678 -0.02385882 0.05437582 0.098767586 0.09884178
0.06074383 0.07971826 0.00017352377 0.06239161 0.07527978 -0.09260909 -0.05289164 0.09263245
-0.080940604 -0.071749754 -0.04706251 0.06173525 -0.039695248 0.073425196 0.0688814 -0.05614329
-0.07526652 0.11564089 0.015921924 -0.08177698 -0.055150475 -0.06871436 0.025166946 -0.018198606
0.028912742 -0.025453722 -0.060216434 0.11032087 0.04767274 -0.027319916 -0.114955984 -0.06554202
0.08380707 0.08227108 -0.030660633 0.013036722 -0.01340925 0.031869527 -0.018669562 -0.013591358
-0.022118492 0.049940884 -0.024659444 0.06409392 -0.011308759 0.037645042 0.012908314 -0.10641183
0.015748598 0.057938322 0.038452476 0.005933307 -0.035509236 0.11781385 -0.008472264 -0.06902519
-0.08455931 -0.080432236 -0.053367123 0.009467475 -0.027882386 0.08110711 -0.023891918 -0.075168945
00000000: 55f3 a6bc 0a89 f0bc dc45 d6bd 7c99 aa3d
00000010: 3bfe 5f3d a160 d0bd ab53 9f3d de1e 0e3b
00000020: 0ca4 ddbd c367 e53d 340e 993d eefa c23d
00000030: ec91 e9bb 2d8d e1bd 6126 633d 92e7 a2bc
00000040: c705 bc3d 1cbc 0a3c 50ab 523d 035c a1bd
00000050: 301a bdbd 9957 933d 050e 9c3d 0122 36bb
00000060: a56b b53c beee f43c 0bc0 a53c 83f6 e13d
00000070: 4f5f e93d 0466 c53c 473a b23d 4085 5bbd
00000080: 93d2 af3d 51e2 e03d 0c4b c2bc 5d82 9d3d
00000090: 5dcd 253d 4326 04bd f7b6 1c3d a28b 9ebd
000000a0: f8aa 8ebd 56b1 16bd a1b2 edbd 8633 8cbd
000000b0: f245 6dbd cb05 623c e891 093d b427 b23d
000000c0: 5a54 73bd 83bf b53d 8918 72bc 796a 37bd
000000d0: 2c70 fd3b 79a9 72bd bcd4 ae3c 3def 993d
000000e0: b62b b2bd 0c1b ae3c 835c b1bd 428f 2f3d
000000f0: d3c1 e3bd 532c c1bd e46b 97bd 0687 42bd
00000100: cf8d dabd 45a6 aebd 7acf 3dbd c666 ec3d
00000110: 6141 563c 59f3 41bd 1a17 03bd 6514 3dbd
00000120: b409 23bd e07e 123b a535 da3d 81c5 8bbd
00000130: d3ca b63d 630f 803d e928 d4bd c005 68bd
00000140: e4c8 9cbc b0fe e43b 6c1a 24bd a772 a03d
00000150: 3ae6 2d3d fc89 a0bd 10c3 f03b dfec 8b3d
00000160: ccf8 cf3c 6046 12bd b23b 003d 5448 94bc
00000170: 1c28 ec3c 84eb d9bd c85a 4bbc f130 ca3d
00000180: 5b26 873d 60ed 703b 5474 d03c 3e8b d9bd
00000190: 4a57 54bd 3893 99bc a9fd d5bd 61d5 afbd
000001a0: 6d30 db3d 6c80 41bd 5e90 efbd 59ef cb3d
000001b0: 9049 86bd 8257 223d e15b 8c3d 9887 543c
000001c0: 220d a0bd ea82 083d 7a1e ddbd b8a7 57bc
000001d0: dac2 44bd 2e07 ccbd ed8d 90bd 98fb 63bd
000001e0: 3e04 66bd d60c ddbd de65 f0bd 306b e33b
000001f0: fb71 d23d ec73 86bc 5509 cb3d 6dca 803d
00000200: dbab e43d 1e49 a3bd c745 ac3d 0664 afbd
00000210: 3b1c 913d d9f5 e13d e6d5 51bd 3123 e33d
00000220: e435 c1bd 68a0 d2bd 690a c73d b83e 3fbd
00000230: 20ce ba3b d219 0a3d 007a 22ba 1815 87bc
00000240: 2724 4f3d b259 8e3d 24bd 77bd 51eb ad3d
00000250: 2884 b83c 6010 acbc 26af 68bd 5454 883c
00000260: ceed 46bc 85a4 9f3d 0a51 543c c97f e2ba
00000270: b665 f13d 4ba4 753d f0de b8bd cb10 40bd
00000280: 2065 f13a 22c4 fe3d 3274 8fbc c8a1 423d
00000290: 124d b8bd aec8 20bc ee8a 3ebd 5628 b63d
000002a0: 3bfc d03d bb1a ddbd 89ae 7d3a a88f 90bd
000002b0: 5ab2 92bd 623e abbd 4786 ac3d 0ccb e03c
000002c0: a444 d1bd b887 3bbd c48b a33c bfd6 953d
000002d0: d196 da3d fa8c 963d f962 f13d e2ea e1bd
000002e0: cf14 d9bd 16a9 e4bd 0e71 a43c 326d de3c
000002f0: 9273 c3bc 2eb9 5e3d a946 ca3d 8f6d ca3d
00000300: 86ce 783d 5443 a33d eff3 3539 588e 7f3d
00000310: 492c 9a3d d6a9 bdbd e8a4 58bd 15b6 bd3d
00000320: 30c4 a5bd 89f1 92bd 9ec4 40bd 1ade 7c3d
00000330: 7c97 22bd f35f 963d b111 8d3d 82f6 65bd
00000340: 5525 9abd 22d5 ec3d b26e 823c b07a a7bd
00000350: 77e5 61bd 1dba 8cbd e92a ce3c 3e15 95bc
00000360: 6ada ec3c 5384 d0bc 82a5 76bd e9ef e13d
00000370: 7e44 433d 04ce dfbc 0b6e ebbd e53a 86bd
00000380: 0ba3 ab3d bd7d a83d 022c fbbc fa97 553c
00000390: 79b2 5bbc 9f89 023d e9f0 98bc 4aae 5ebc
000003a0: d731 b5bc d08e 4c3d 9a02 cabc ac43 833d
000003b0: 6048 39bc b031 1a3d 657d 533c 72ee d9bd
000003c0: 3403 813c bc50 6d3d 5880 1d3d 306c c23b
000003d0: 2272 11bd 6348 f13d 40cf 0abc 145d 8dbd
000003e0: 6e2d adbd a8b9 a4bd 7c97 5abd 781d 1b3c
000003f0: 9a69 e4bc 7c1b a63d fcb8 c3bc 2df2 99bd

bias f4 [8]
-0.0992344 -0.117455415 0.11901658 0.04817449 -0.06321146 -0.059809808 0.07591991 -0.019832723
00000000: 683b cbbd 778c f0bd f7be f33d 9d52 453d
00000010: 0375 81bd 21fb 74bd e67b 9b3d 3c78 a2bc

weight f4 [128, 192]
0.055570215 -0.04544086 0.0661273 0.029513367 -0.03585692 -0.009950854 0.058630932 0.0051756348
-0.012959354 0.057996016 -0.0034764186 -0.019409066 -0.06311805 0.06681605 0.032221943 0.012680799
0.034390267 0.044890635 -0.0033672005 0.011639856 0.032497957 -0.026173595 0.045573432 0.05154893
0.036295906 -0.06589101 0.053625092 0.04634858 0.04525882 0.04326406 0.04734724 0.012936056
-0.056624755 -0.05968064 -0.06168258 0.04678642 0.021756358 -0.011976577 -0.052106686 0.07214905
0.040415652 0.0442961 -0.052744836 0.070541665 0.028286308 -0.008995593 -0.050758988 0.05189828
0.03740317 0.06001143 -0.070201345 -0.02498551 0.021071367 0.025951093 -0.030161936 -0.06321758
0.028900541 0.003534086 0.022529026 -0.013142702 -0.04657775 -0.0004010599 -0.053241648 -0.047849342
0.047270298 0.0039742356 0.0419427 0.02664752 -0.038578622 -0.07202123 0.011417327 0.0044576223
0.013380801 -0.025261635 0.019744858 -0.033829242 0.046881627 0.0024374747 -0.03223387 0.03853684
-0.06039769 0.06751772 -0.026035376 0.0053893076 -0.03518036 -0.0394373 -0.017877005 0.06723925
0.051364418 -0.06344558 0.015798002 -0.031615276 -0.013948261 -0.023300417 -0.06655505 -0.05158213
0.0019019768 -0.041533783 -0.054978937 -0.02799987 -0.0147264935 -0.03373506 -0.06041908 -0.0642912
-0.06907686 -0.006262012 -0.032995228 -0.063719824 0.031103313 -0.06732702 -0.013187185 -0.035725035
0.012149036 0.025106825 -0.04476875 -0.020698447 0.015909798 -0.009490661 0.022396915 0.051663473
0.03904537 -0.015366819 0.03767862 -0.068526305 -0.05405351 0.05559835 0.04506688 0.0017245114
-0.05933696 -0.0009044185 -0.04961144 -0.029592399 0.024419926 0.060730785 -0.008876845 -0.002423972
0.0671325 7.531047e-05 -0.035156544 -0.029748745 -0.052123833 -0.031474657 -0.005954176 -0.02317731
-0.05956793 0.040263083 -0.028146954 -0.047008812 -0.022087371 0.014161063 -0.047203474 0.03411959
-0.054841783 0.0015349262 -0.008606612 0.019773472 -0.06877378 -0.039369926 -0.0058817514 0.0630012
-0.053245313 -0.06801485 0.071097344 0.06429773 -0.0034189636 0.0089426255 -0.03960923 0.024081575
-0.04581082 -0.008990735 0.0070064515 0.008779243 -0.0046297386 -0.05947169 -0.025638811 0.029538982
0.050639026 0.024838284 -0.024129622 -0.0005472675 -0.05833923 -0.004136689 -0.05775635 0.06691636
-0.03382627 -0.01426677 0.026281081 -0.06338889 0.021524966 0.018415771 -0.03299254 -0.041035004
-0.008519076 0.07059604 0.030743085 0.0055349767 -0.0125852525 -0.052161723 0.06768571 0.032066695
0.05614941 -0.045578476 -0.05408013 0.023533046 -0.0134294 -0.032033056 -0.0274094 -0.048142903
0.0022910088 -0.011131581 -0.04041898 0.012879983 0.06917088 -0.053917304 0.05503586 0.033047967
-0.007397361 -0.033846993 -0.040503185 -0.070254005 0.00041992962 0.0108630285 -0.020744722 -0.0027525127
-0.014174055 -0.020523302 0.043506563 -0.023016956 0.011939295 -0.041107297 -0.04230147 0.017765835
0.03406311 0.0037615225 -0.067343295 -0.024723973 -0.062136594 0.06412992 -0.01765684 0.062876076
0.028807946 0.05706495 -0.021311734 0.025936477 0.014977396 0.064435124 -0.019750066 0.04013171
0.02565483 0.06947942 0.043767348 -0.050374005 -0.0076856688 -0.008526184 -0.05070989 0.016448982
00000000: 989d 633d 3220 3abd c06d 873d 04c6 f13c
00000010: b5de 12bd e808 23bc fd26 703d 5f98 a93b
00000020: 7853 54bc 3b8d 6d3d a0d4 63bb c3ff 9ebc
00000030: 0944 81bd dad6 883d 28fb 033d 20c3 4f3c
00000040: cfdc 0c3d 3edf 373d 40ac 5cbb 18b5 3e3c
00000050: 941c 053d 026a d6bc 35ab 3a3d f924 533d
00000060: 04ab 143d def1 86bd fca5 5b3d 02d8 3d3d
00000070: 5061 393d a835 313d 2eef 413d c0f1 533c
00000080: 5cef 67bd b073 74bd dfa6 7cbd 1ea3 3f3d
00000090: 643a b23c 6839 44bc d26d 55bd e2c2 933d
000000a0: e28a 253d d46f 353d f80a 58bd 2678 903d
000000b0: b0b8 e73c 4062 13bc a8e8 4fbd 4a93 543d
000000c0: 1134 193d 8cce 753d b9c5 8fbd 6aae ccbc
000000d0: dc9d ac3c 6397 d43c 2a16 f7bc 3878 81bd
000000e0: d4c0 ec3c 209c 673b cb8e b83c 7d54 57bc
000000f0: 50c8 3ebd 5945 d2b9 ea13 5abd acfd 43bd
00000100: 809e 413d 4e3a 823b 1ccc 2b3d e64b da3c
00000110: 9e04 1ebd de7f 93bd be0f 3b3c 3f11 923b
00000120: 263b 5b3c 7df1 cebc f8bf a13c 8890 0abd
00000130: f306 403d 0abe 1f3b aa07 04bd ced8 1d3d
00000140: 9163 77bd bb46 8a3d 2448 d5bc ca98 b03b
00000150: 4819 10bd 0289 21bd cc72 92bc bbb4 893d
00000160: 7f63 523d c2ef 81bd d06a 813c 057f 01bd
00000170: 3f87 64bc 84e0 bebc 044e 88bd c947 53bd
00000180: c04b f93a 541f 2abd 9831 61bd fc5f e5bc
00000190: 6447 71bc c62d 0abd ff79 77bd 1bab 83bd
000001a0: 2b78 8dbd 9031 cdbb 0126 07bd 8a7f 82bd
000001b0: 60cc fe3c c0e2 89bd 100f 58bc 6a54 12bd
000001c0: c00c 473c d4ac cd3c 705f 37bd ca8f a9bc
000001d0: 4455 823c b87e 1bbc bc79 b73c 149d 533d
000001e0: 0aee 1f3d 1cc5 7bbc e654 1a3d 8557 8cbd
000001f0: 3767 5dbd 18bb 633d 0c98 383d 0009 e23a
00000200: 500b 73bd 8016 6dba 5e35 4bbd c26b f2bc
00000210: 4c0c c83c d8c0 783d 3070 11bc 80db 1ebb
00000220: c47c 893d 00f0 9d38 4f00 10bd a4b3 f3bc
00000230: cd7f 55bd 92eb 00bd 401b c3bb 58de bdbc
00000240: 80fd 73bd e7ea 243d 7194 e6bc 508c 40bd
00000250: 93f0 b4bc ce03 683c 6e58 41bd fcc0 0b3d
00000260: c7a1 60bd 942f c93a bf02 0dbc fafb a13c
00000270: 44d9 8cbd 5c42 21bd b5bb c0bb c606 813d
00000280: c217 5abd 5f4b 8bbd 7c9b 913d 87ae 833d
00000290: b110 60bb 1784 123c 4a3d 22bd b946 c53c
000002a0: 20a4 3bbd e04d 13bc 6096 e53b d0d6 0f3c
000002b0: 10b5 97bb 9698 73bd 7c08 d2bc bcfb f13c
000002c0: de6a 4f3d a879 cb3c 7cab c5bc 8076 0fba
000002d0: 1ef5 6ebd 108d 87bb ec91 6cbd 720b 893d
000002e0: 6a8d 0abd 2cbf 69bc 6c4b d73c 09d2 81bd
000002f0: 2055 b03c acdc 963c 3023 07bd 5214 28bd
00000300: 9893 0bbc a894 903d ecd8 fb3c c05e b53b
00000310: 6032 4ebc 88a7 55bd ce9e 8a3d 5e58 033d
00000320: ecfc 653d 7fb0 3abd 2083 5dbd 60c8 c03c
00000330: fc06 5cbc 1835 03bd ae89 e0bc 7e31 45bd
00000340: c024 163b 3c61 36bc 5f8e 25bd 9006 533c
00000350: 76a9 8d3d 64d8 5cbd 486d 613d 4e5d 073d
00000360: 9065 f2bb 25a3 0abd abe6 25bd 55e1 8fbd
00000370: 002a dc39 d8fa 313c d6f0 a9bc 8063 34bb
00000380: 4c3a 68bc 7c20 a8bc f033 323d 0e8e bcbc
00000390: 089d 433c 2060 28bd 4e44 2dbd a889 913c
000003a0: c285 0b3d e083 763b 48eb 89bd ee89 cabc
000003b0: f182 7ebd 8c56 833d 14a5 90bc 2cc5 803d
000003c0: a4fe eb3c f0bc 693d f295 aebc bc78 d43c
000003d0: c063 753c 90f6 833d e4ca a1bc 2661 243d
000003e0: 142a d23c 3a4b 8e3d 6445 333d f954 4ebd
000003f0: 10d8 fbbb 68b1 0bbc 2cb5 4fbd 04c0 863c

bias f4 [128]
0.052785546 -0.06289867 0.033211138 0.033968087 0.02957403 0.048407853 0.06261528 0.00842072
0.089098066 -0.035897393 -0.0036333874 0.029815242 -0.013371473 -0.050859783 -0.009936407 0.053831976
0.005015262 0.028772203 -0.047918208 -0.018729135 0.059621643 0.008394897 -0.017428067 0.037308484
0.047086675 0.044598535 0.0252278 -0.012631798 -0.05865239 -0.050845854 -0.015349973 -0.033742793
0.081083946 0.031174501 -0.009416747 0.014451868 -0.010679636 0.0045603104 0.005200862 -0.01495469
-0.049827125 0.068966985 0.059970066 0.050088476 0.08093045 -0.013636425 -0.08317149 -0.035222936
-0.02074872 -0.0705384 0.0023936185 -0.024586752 -0.06668667 -0.03613668 0.018965656 -0.044847943
0.009655178 0.012798965 -0.03410236 -0.051008284 0.04795591 -0.029909408 -0.04027681 0.037482813
-0.03626516 0.012415476 -0.04729033 0.07964383 0.052359086 -0.018658578 -0.03337529 -0.028884893
0.04428924 -0.06570368 0.036009826 0.00039442928 -0.05424697 -0.05359131 0.08233458 -0.030482221
0.04061254 0.065050855 -0.051485337 -0.052353933 -0.015371025 -0.02343741 -0.03876992 -0.004319458
-0.050126337 -0.024349116 0.0014589205 -0.049372993 0.023496093 0.024499439 0.025636205 -0.0073183477
0.032545447 -0.025724534 -0.03762602 0.016851723 -0.06347243 0.03785087 -0.057389174 -0.008233936
0.026958289 0.03522224 0.0751609 -0.011481845 -0.065909505 0.010472439 0.008434646 -0.02773054
0.05184558 0.048547365 -0.054775912 -0.01792868 0.018018316 0.022387272 0.010408133 0.091253325
0.046413075 -0.017584952 -0.07208876 0.012358889 -0.04004771 0.06731365 -0.042656742 0.05107217
00000000: a835 583d 05d1 80bd 6708 083d 1f22 0b3d
00000010: 3c45 f23c 5047 463d 713c 803d 0ff7 093c
00000020: 0c79 b63d 2509 13bd 201e 6ebb 183f f43c
00000030: 0614 5bbc 5952 50bd 50cc 22bc eb7e 5c3d
00000040: 1157 a43b afb3 eb3c e245 44bd d86d 99bc
00000050: d335 743d c08a 093c 4ec5 8ebc c8d0 183d
00000060: f5dd 403d f4ac 363d 88aa ce3c 9af5 4ebc
00000070: 7d3d 70bd be43 50bd 747e 7bbc e235 0abd
00000080: 570f a63d ab61 ff3c b348 1abc 87c7 6c3c
00000090: a4f9 2ebc a86e 953b fe6b aa3b 8404 75bc
000000a0: 8717 4cbd 903e 8d3d 2ca3 753d 9329 4d3d
000000b0: ddbe a53d 506b 5fbc d055 aabd ed45 10bd
000000c0: 38f9 a9bc 7076 90bd 41de 1c3b 286a c9bc
000000d0: 0593 88bd 0e04 14bd dd5d 9b3c 7ab2 37bd
000000e0: c030 1e3c c0b2 513c ebae 0bbd 10ee 50bd
000000f0: 6b6d 443d 9304 f5bc 4cf9 24bd 9487 193d
00000100: c78a 14bd 486a 4b3c 81b3 41bd 4e1c a33d
00000110: 7b76 563d e0d9 98bc 87b4 08bd 03a0 ecbc
00000120: a268 353d a78f 86bd 0a7f 133d 67cb ce39
00000130: 1232 5ebd 9082 5bbd 089f a83d dab5 f9bc
00000140: 5659 263d 6239 853d 4ae2 52bd 1471 56bd
00000150: c0d6 7bbc d0ff bfbc 35cd 1ebd 3d8a 8dbb
00000160: 4651 4dbd cc77 c7bc 4039 bf3a 563b 4abd
00000170: e17a c03c 0cb3 c83c 0503 d23c c0ce efbb
00000180: 604e 053d 42bc d2bc be1d 1abd a00c 8a3c
00000190: d5fd 81bd 8409 1b3d e910 6bbd a1e7 06bc
000001a0: a1d7 dc3c 3245 103d f5ed 993d 591e 3cbc
000001b0: 90fb 86bd 9894 2b3c 7831 0a3c 282b e3bc
000001c0: 085c 543d 9ad9 463d b55c 60bd 2bdf 92bc
000001d0: 269b 933c 8365 b73c e086 2a3c 06e3 ba3d
000001e0: a31b 3e3d 510e 90bc 46a3 93bd f07c 4a3c
000001f0: 1109 24bd bddb 893d d6b8 2ebd 0d31 513d

weight f4 [8, 128]
0.08393733 0.043294303 -0.037651308 -0.07540921 -0.009451181 -4.901576e-05 0.025772974 -0.0338672
-0.057089016 -0.05684537 0.034419894 0.034023784 0.043730248 0.04516337 -0.00871858 -0.08409165
0.059335284 -0.057567667 0.06013418 -0.047222592 -0.043159276 0.0036356896 -0.027841967 -0.014879197
-0.058790624 -0.0058756783 -0.0743199 -0.019808667 0.02519843 0.08160604 0.00033313036 -0.027682472
-0.08593361 0.005167648 -0.046273563 -0.07803033 -0.062146716 0.083268605 0.020240815 0.07585896
0.00012619793 -0.08241537 0.06989113 0.012390706 0.030479189 -0.07644865 0.04271465 -0.010972403
-0.09036254 -0.07454969 0.053695995 -0.07110634 -0.031328175 0.057181895 -0.013759649 0.04814624
0.018304072 0.0691177 -0.046030205 -0.03425365 0.073874354 0.03494947 -0.035905227 0.085789345
-0.08729644 0.0015439317 -0.07425519 -0.044088084 -0.09351203 0.043504544 0.0880383 -0.00792838
0.07470844 0.011631191 -0.06309817 -0.037369575 0.077691235 0.024348632 -0.084786095 -0.03444634
0.0032408258 -0.023497738 -0.054892372 -0.007877886 0.080585785 -0.052483983 -0.07500635 -0.016099347
-0.08453011 -0.077654496 -0.060061894 0.084201455 -0.03691301 0.043445352 0.05465566 -0.008484572
-0.014714726 -0.024273675 0.026712112 -0.05475706 -0.038566332 0.08005752 -0.055351425 0.04930031
-0.09777339 -0.024992306 -0.035471275 -0.010886221 0.010880321 0.08526077 0.06684654 0.033791155
0.021790525 -0.04782714 -0.0689997 -0.048236955 0.020337231 -0.027082581 0.021815427 -0.04752317
0.03792303 0.06661024 -0.062328547 0.053959556 -0.063137054 -0.055582117 0.07172737 -0.058315337
0.043717504 0.043034725 -0.054901045 -0.042801045 -0.08396501 0.07946247 0.010307416 -0.06612064
-0.03130888 -0.066578165 0.055773593 -0.03430314 0.016170371 -0.02843514 0.029500678 0.022344716
0.0116363745 -0.010442661 -0.07604838 -0.041825783 0.036634818 -0.041725546 0.07369103 0.060769774
-0.0026533613 0.06559257 -0.029274113 0.047299646 0.071861856 -0.047576204 -0.027594268 0.016303636
0.061867956 0.07959504 0.017386628 0.08134146 0.038949855 -0.008048373 0.017736614 0.04073637
-0.0024244562 -0.07586597 0.08309721 -0.033385422 -0.06674163 0.025538296 -0.08783873 -0.030244663
0.013089187 0.01820799 -0.079789996 0.043594874 -0.037456114 0.04702315 -0.016489105 -0.07008736
-0.041135892 -0.024365509 -0.049809366 0.05364909 0.04233799 -0.018574823 -0.025699697 0.0066709737
-0.044737656 0.01646711 -0.056813825 0.011490343 -0.07552557 0.06282493 -0.022359781 -0.0748212
0.040109973 -0.029201739 0.08789242 -0.0399237 -0.0676827 -0.062066525 -0.06127697 -0.06766571
-0.054241832 -0.022680352 -0.04525445 -0.0559515 0.061829362 -0.025717394 -0.07220818 0.04943157
-0.041299496 0.07828092 0.08194659 0.040743783 -0.015294163 -0.0063011604 0.0020497518 -0.018269122
-0.07256927 -0.06829196 -0.05912774 0.081656985 -0.074965686 0.032800008 0.071313225 -0.040952772
0.03129336 0.048213653 0.035001315 0.048817616 -0.049184717 -0.07100845 0.07732207 0.03460914
-0.04096415 0.028301619 -0.021750621 -0.04824599 -0.06665414 -0.017286489 0.051119156 -0.051286884
0.04324565 0.063251115 -0.06854002 -0.07332467 -0.022338167 -0.082433514 -0.07677401 0.031490553
00000000: 56e7 ab3d 5e55 313d 4238 1abd 2570 9abd
00000010: 20d9 1abc 4696 4db8 d821 d33c 55b8 0abd
00000020: 2cd6 69bd b1d6 68bd e0fb 0c3d 865c 0b3d
00000030: 7d1e 333d 3afd 383d 60d8 0ebc 3e38 acbd
00000040: 8e09 733d 13cc 6bbd 424f 763d 7a6c 41bd
00000050: c8c7 30bd c044 6e3b d614 e4bc e0c7 73bc
00000060: 70ce 70bd c388 c0bb 0835 98bd c945 a2bc
00000070: f06c ce3c 1121 a73d 00a8 ae39 5ac6 e2bc
00000080: f6fd afbd 6055 a93b 5989 3dbd 5ece 9fbd
00000090: 8e8d 7ebd bb88 aa3d 11d0 a53c f15b 9b3d
000000a0: 0054 0439 64c9 a8bd 1523 8f3d 6302 4b3c
000000b0: 7eaf f93c 1c91 9cbd 8ff5 2e3d 98c5 33bc
000000c0: ff0f b9bd 82ad 98bd 55f0 5b3d 33a0 91bd
000000d0: f951 00bd 9037 6a3d 2770 61bc fe34 453d
000000e0: 6cf2 953c 958d 8d3d 2b8a 3cbd 8e4d 0cbd
000000f0: 704b 973d 2d27 0f3d 5c11 13bd 53b2 af3d
00000100: 7ac8 b2bd c05d ca3a 1b13 98bd b595 34bd
00000110: 3c83 bfbd d231 323d 6d4d b43d 09e6 01bc
00000120: bd00 993d c090 3e3c 9d39 81bd d710 19bd
00000130: 951c 9f3d c876 c73c 55a4 adbd 9b17 0dbd
00000140: 0964 543b 547e c0bc d3d6 60bd 4012 01bc
00000150: 290a a53d 72f9 56bd ee9c 99bd c7e2 83bc
00000160: 1f1e adbd 5209 9fbd 7603 76bd d071 ac3d
00000170: 1932 17bd c1f3 313d 9dde 5f3d e002 0bbc
00000180: 0916 71bc 96d9 c6bc 5cd3 da3c f048 60bd
00000190: bbf7 1dbd 32f5 a33d 2db8 62bd 1fef 493d
000001a0: 6a3d c8bd aabc ccbc 544a 11bd 1f5c 32bc
000001b0: 6043 323c 339d ae3d d7e6 883d 9868 0a3d
000001c0: 0b82 b23c 64e6 43bd b74f 8dbd 1d94 45bd
000001d0: 449a a63c 4adc ddbc 44b6 b23c a8a7 42bd
000001e0: 2e55 1b3d f36a 883d 384c 7fbd b204 5d3d
000001f0: 004e 81bd 13aa 63bd cde5 923d 10dc 6ebd
00000200: 2011 333d 2e45 303d ebdf 60bd 2650 2fbd
00000210: d9f5 abbd 38bd a23d 70e0 283c 426a 87bd
00000220: bd3d 00bd 225a 88bd da72 643d 7381 0cbd
00000230: ba77 843c d0f0 e8bc 68ab f13c 440c b73c
00000240: 7ea6 3e3c b217 2bbc 41bf 9bbd 8351 2bbd
00000250: 640e 163d 68e8 2abd 53eb 963d bae9 783d
00000260: 04e4 2dbb 6655 863d 44d0 efbc 46bd 413d
00000270: 4f2c 933d 44df 42bd 600d e2bc 348f 853c
00000280: 4169 7d3d b902 a33d 676e 8e3c 5a96 a63d
00000290: e289 1f3d 53dd 03bc 604c 913c 2edb 263d
000002a0: a0e3 1ebb 9e5f 9bbd df2e aa3d 27bf 08bd
000002b0: d6af 88bd b035 d13c cbe4 b3bd a8c3 f7bc
000002c0: 0874 563c ec28 953c f068 a3bd 8a90 323d
000002d0: 956b 19bd 599b 403d 2914 87bc f689 8fbd
000002e0: 1c7e 28bd 2d9a c7bc e804 4cbd 26bf 5b3d
000002f0: 9a6a 2d3d 3a2a 98bc 2c88 d2bc 2f98 da3b
00000300: d53e 37bd 08e6 863c 9db5 68bd fe41 3c3c
00000310: 26ad 9abd 5baa 803d dc2b b7bc db3b 99bd
00000320: 5b4a 243d 7c38 efbc f100 b43d 0987 23bd
00000330: 3a9d 8abd 7839 7ebd 8ffd 7abd 5294 8abd
00000340: af2c 5ebd 25cc b9bc bb5c 39bd 662d 65bd
00000350: c940 7d3d 49ad d2bc e2e1 93bd c278 4a3d
00000360: a929 29bd bf51 a03d 9dd3 a73d f4e2 263d
00000370: 5e94 7abc f779 cebb 2155 063b 20a9 95bc
00000380: 339f 94bd a8dc 8bbd ee2f 72bd c73b a73d
00000390: 9c87 99bd 4d59 063d ab0c 923d 18be 27bd
000003a0: 772d 003d ae7b 453d 8a5d 0f3d fbf4 473d
000003b0: ea75 49bd e16c 91bd 095b 9e3d 50c2 0d3d
000003c0: 06ca 27bd ccd8 e73c 5c2e b2bc 969d 45bd
000003d0: f781 88bd 659c 8dbc 5262 513d 3212 52bd
000003e0: 5a22 313d cd89 813d b65e 8cbd 3f2b 96bd
000003f0: 88fe b6bc e7d2 a8bd b13b 9dbd 3dfc 003d

bias f4 [8]
-0.120911136 -0.058856998 -0.13384758 -0.15535904 -0.12173863 -0.047226436 -0.1894341 -0.032022774
00000000: 42a0 f7bd 0914 71bd 570f 09be 7116 1fbe
00000010: 1a52 f9bd 8270 41bd 03fb 41be 502a 03bd
