model-doom.pth (torch, 110383 bytes, 8 tensors)

weight f4 [8, 1, 6, 6]
00000000: 7c6f 8e3d 9c97 4c3c ec43 a13c 0bb0 a43d
00000010: 98f9 bb3d c54e 923d 281c 1ebe 027e 853d
00000020: bfb8 09be 3f1a ee3d a6df 983d 79e7 243d
00000030: e6e9 053e 77d5 28bd 4f8e b4bd e2a6 25be
00000040: a6da f83d 04c1 173e 4845 afbd 5509 20be
00000050: 1343 103e 54ca 113c 7fb4 b23d 0acb 1abe
00000060: 3580 ac3d 2574 4dbd fe7a 18be e32a e63d
00000070: 46ec cd3c aa6f 2f3d e711 bbbd 82ec 893d
00000080: 12d1 9cbd 5e22 b1bc 6023 9c3d fe05 9cbd
00000090: 24f1 a03c 924f 26be 0cd3 1a3e 7893 053e
000000a0: ece1 02be eb8e f7bd 863a a43d ecc2 14be
000000b0: f87f 13bd afff c03c 5e4c 25be 0b9a ed3d
000000c0: 53e8 8d3d 918b 0cbe d6b2 913d 8cbc e53b
000000d0: 5a3c bb3d 30a2 b03c 0766 7ebc bd7c e6bd
000000e0: dce7 8a3d 6b9b 7bbd 4558 c0bd 9fa7 8cbd
000000f0: 1fb2 11bd 3274 a13d 5117 e4bd bbc3 b63d
00000100: 679a 7cbd 7052 3e3d 843a 49bd da79 c43d
00000110: 88ae 76bd a34e f4bd 612c f73d 4cb6 193e
00000120: 65bb 043e 32e6 03be 25b4 c63c bf9b cfbd
00000130: 5059 a7bc 0461 bd3c d51a 173d e1fc 3cbd
00000140: d2a2 813d 3634 253b ff4b 4f3d 83ca f8bd
00000150: 552d b2bd 3893 643d 050b d83d 29d8 c73c
00000160: 7f0c 983d 0710 853d a4a1 203e 423a 023e
00000170: 852c b5bd dde5 273e 2d6c dcbc aeec 60bd
00000180: 9b3d 47bc 7871 a8bd f323 c23d 4d34 243e
00000190: 3fc2 78bc f8a7 84bd 079c bb3d 70a3 ff3d
000001a0: 0cbd dc3d 9802 283e 8c7d e2bd b61a 87bd
000001b0: 3938 1ebe ba3e 6b3c 53d4 9e3d bb8a d93d
000001c0: 1b53 be3d 062e f03b 69a3 863d 5704 213e
000001d0: 18f4 8d3c 5ac8 ed3d f71b 0c3e 7d0f a0bc
000001e0: 0960 293e 141d bc3d 7715 2abe e165 c7bd
000001f0: 5d62 f93c 3d00 75bd 7c68 c23d 2de0 c7bd
00000200: be39 c93d 76e3 5d3d 4128 d5bd 81c4 213e
00000210: 56bc 123e c185 863c cec1 25be fc3a 263c
00000220: e40e 223e 0044 da3c 0b50 613d cbb6 7c3d
00000230: 83a3 913d f6a2 c9bd fe80 5abd 1b36 1d3e
00000240: 84e7 903d 5474 ea3d ade1 bc3d 8dd7 c9bd
00000250: 2d2d d8bd 492f c6bd 339a 27bc 3cac 16be
00000260: 2f62 103e e274 193e 10c0 cfbd d2a9 173e
00000270: 4320 ca3d c146 18bd 4e54 d53c 9d37 2c3b
00000280: 3f28 d03c 3477 ca3d 6cb3 203e 38b2 c83d
00000290: 7388 91bd f37e 4fbc bd2c 8e3d a986 00be
000002a0: 145a bdbb 823c 29be 8204 d73d de94 01be
000002b0: ee65 113e 87f7 163e edb8 83bd 69b4 943d
000002c0: 0c2f 09bd 1f70 683b deda 0bbe 123e 1fbe
000002d0: a123 10be f71c 263e 1524 b3bd 5279 c8bd
000002e0: 0e71 b53d 4f83 06be bf3c d93c 698c e7bd
000002f0: 2d10 063e 1473 f3bd 4d1e 58bd 2a5a 1ebe
00000300: 7fdc 193e 3501 a5bd ec8e 093e 2af9 033e
00000310: fabe 203d 649a ecbc 1033 1f3e e042 34bc
00000320: 2a67 093c 131a 243a 142e 1bbe 13ac 0fbe
00000330: f97a 953d f2c8 bfbc 1bac 1a3e 68cd 10be
00000340: 04f0 96bd 3f58 1d3e f718 233c 7901 993d
00000350: 0f92 7bbd 0c64 023e f461 e33b d19b e3bd
00000360: f7a1 75bd 10ed f4bd 125f 113e 7d7b 13be
00000370: 1999 69ba f85b fb3d 99c0 c93d 673d e6bd
00000380: 48be 033e 9c9f b2bc a8d7 c4bc 6434 14be
00000390: a860 21be befa c0bd 4b0a 1abe 5d4c 1e3e
000003a0: 10df b33d 8429 5e3c 7f88 903d b569 243e
000003b0: 70da 093e 96a0 883d d567 af3d d0fb b1bd
000003c0: fc7f d8bd 0a0e 72bd 61f4 90bc 6d90 093e
000003d0: 5f79 c2bd fcd6 d53d d049 b33d 9ceb 283e
000003e0: 60f7 24bd 8ca3 c3bd 5eb1 1bbe 21db 25be
000003f0: c813 2d3c d39c 1fbe 90f6 0ebe 2a5f 8e3d
0.06954858 0.012487318 0.019685708 0.0804139 0.091784656 0.0714393 -0.15440428 0.06518175
-0.13449381 0.116261 0.074645326 0.040259812 0.13077506 -0.0412192 -0.08816206 -0.16176942
0.12151079 0.14819723 -0.08558136 -0.1562856 0.14088087 0.008898336 0.08725833 -0.15116516
0.08422891 -0.050159592 -0.14890668 0.11238649 0.025137078 0.0428311 -0.09134274 0.067345634
-0.076570645 -0.021622833 0.07623935 -0.076183304 0.019646235 -0.16241291 0.1511957 0.13044536
-0.12781495 -0.12087806 0.08018975 -0.14527482 -0.036010712 0.02355942 -0.16142413 0.11601647
0.06929078 -0.13725115 0.071141884 0.007011002 0.091423705 0.021561712 -0.015527255 -0.11254261
0.06782505 -0.061427515 -0.09391836 -0.06867909 -0.03557026 0.078834906 -0.1113726 0.089240514
-0.061670687 0.046465337 -0.04912807 0.09593554 -0.06022504 -0.11929061 0.120690115 0.15010947
0.1296211 -0.12880781 0.024255821 -0.10137128 -0.02042833 0.02311755 0.036890823 -0.0461396
0.06329884 0.0025208122 0.050609585 -0.12148001 -0.08700053 0.05580446 0.10548977 0.024395065
0.074242584 0.064971976 0.15686661 0.12717536 -0.08846382 0.1639628 -0.026907051 -0.054913215
-0.012160684 -0.082247674 0.09479513 0.16035576 -0.015183031 -0.0647735 0.09160619 0.12482345
0.10778245 0.1640724 -0.110591024 -0.065968916 -0.15451135 0.014358217 0.077553414 0.10622164
0.09293195 0.007329705 0.06574137 0.15724312 0.017328307 0.1161048 0.13682543 -0.019538635
0.16540541 0.09185234 -0.1660975 -0.09736229 0.030442411 -0.05981468 0.09492585 -0.09759555
0.098254666 0.054172 -0.104080684 0.15797617 0.14329657 0.0164212 -0.16187212 0.010145899
0.15825993 0.026643753 0.055007976 0.061697762 0.071112655 -0.098455355 -0.053345673 0.15352671
0.07075408 0.11447969 0.09222732 -0.09855566 -0.105554916 -0.09676988 -0.010229635 -0.1471414
0.14099954 0.14985994 -0.10144055 0.14810875 0.09869435 -0.03717685 0.026041176 0.0026278265
0.025409816 0.098860174 0.15693444 0.097996175 -0.07106104 -0.012664544 0.06942127 -0.12551369
-0.0057785604 -0.16526988 0.10498907 -0.12654445 0.1419904 0.14742862 -0.06431756 0.07260973
-0.033492133 0.003546722 -0.1365771 -0.15551022 -0.14076091 0.16221987 -0.087471165 -0.09788765
0.08859454 -0.13136028 0.026518224 -0.11306078 0.13092108 -0.11887184 -0.052763272 -0.15464082
0.15025519 -0.08056871 0.13433427 0.12888017 0.03924463 -0.028882213 0.15546823 -0.011002272
0.008386413 0.0006259989 -0.15154296 -0.14030485 0.07298846 -0.023411248 0.15104716 -0.14140856
-0.07369998 0.15365694 0.009954683 0.07470984 -0.06141859 0.12733477 0.006939167 -0.11113704
-0.059968915 -0.119592786 0.14196423 -0.14402576 -0.0008911058 0.12273401 0.09851188 -0.1124218
0.12865555 -0.021804623 -0.024028614 -0.1447311 -0.15759528 -0.09422825 -0.15042989 0.15458818
0.0878278 0.013559703 0.070572846 0.16055949 0.13462234 0.06671254 0.08564726 -0.086906075
-0.10571286 -0.05909542 -0.017694654 0.13434 -0.09495806 0.10441396 0.08754313 0.16496128
-0.040274978 -0.095526785 -0.15204379 -0.16196872 0.010563798 -0.15587167 -0.13961244 0.06951745

bias f4 [8]
00000000: f765 4d3c b3bb 1d3e b088 aabd 6ca9 09be
00000010: a11e 31bd 1261 793d e784 8a3d 0c57 89bd
0.012536517 0.15403633 -0.08326852 -0.13443536 -0.0432421 0.06088359 0.0676363 -0.06706056

weight f4 [8, 8, 3, 3]
00000000: 7139 e0bc d4d7 32bc 79e9 f63b 9f1b 9fbd
00000010: 586e 223d 434f e83b 9aee efbd 0393 29bd
00000020: 3399 ac3d 3777 1ebc 83b6 b73d 87ad d3bd
00000030: 35cc 443c f734 dd3d c26b 82bd 6178 84bc
00000040: 7273 82bd d1aa e3bd 1991 0b3d 6476 d1bc
00000050: c5f7 19bc f4c3 e33d a814 abbc cc8e 953d
00000060: f717 01bd 2af4 20bd b7f5 dd3d 9463 24bd
00000070: 935d 05bb 4dad 6fbd dec0 a33d c609 bdbc
00000080: 4dda 98bc 807c 903c 3387 983d 2e85 5fbc
00000090: c955 a63c 1e40 593d 5577 c43c 709e 37bc
000000a0: a81c 4bbc 4735 513d bba7 ec3c 28ee 9f3d
000000b0: f4a4 583c 5a6e a73d 06a1 6fbd 8a86 353b
000000c0: 5b24 abbd fae1 8d3c 1d95 e43c 0f58 0dbd
000000d0: 93a7 29bd 7c75 c23d cbef 65bd 2907 b9bd
000000e0: f653 69bd 76ac 67bd 1fc5 d8bd b588 e3bd
000000f0: 7c65 9c3d 77ec a13d 1522 09bc d021 3abc
00000100: 74c2 fabc 0e95 593d 7be5 db3d 0aaf aabd
00000110: cb31 993d 040d 47bd 9436 8dbd ccd5 fb3c
00000120: 5508 b53c 84db 4bbd b62a 47bd a0e5 9abb
00000130: cabd 06bd 342c ecbd 83a5 db3c 7585 c8bc
00000140: 8883 c4bd a5b0 9abd 460d cc3d 1439 b4bc
00000150: ec3c a4bd aaad 073a 88c4 ce3d 7bf3 4dbc
00000160: 7fc5 cabd 76d1 4b3d 4691 cb3d 50e9 a8bc
00000170: 5dce 06bd 8f8b aa3d ce59 7ebd 4269 e3bd
00000180: 8fd4 2c3c c8db 603d 42e2 983b 9a5b 16bd
00000190: 6174 e73d 0191 7ebd 918e bfbc e5fd cebd
000001a0: 9820 bbbc 8a50 c1bd a8fc d5bd 6ad8 5bbd
000001b0: 738b af3d 5ff1 e8bd 737e aabd cf87 2a3d
000001c0: 97e4 e2bc 0aaf 4e3d e1bf 0fbd 4ff8 e6bd
000001d0: 3cee 08bd b9f3 fcba 3f8f 943d 490a 993d
000001e0: dc8a acbd 9941 a73c b5f7 3f3d 397a 663d
000001f0: 1d1f a73d 5ecb 553d dc04 bcbd 3eab 17bb
00000200: e37c a93c a072 a23c 123e 323d 0c75 0b3d
00000210: d6c5 9fbd b51a 9a3d 3ae8 be3d ecb5 b0bd
00000220: c857 41bd 4cf0 8bbd 837e 91bd 203f a0bd
00000230: 9f35 b93d a814 5b3c 4097 e7bd 1ccc 5abb
00000240: 6e79 cb3d e1f3 983d 60e5 02bd 4ba9 bb3d
00000250: c4c6 bbbc 1d2a 72bd 746f a53c dc0f a5bd
00000260: 3021 603d b4c5 c8bd 41d8 273d 2f37 a2bd
00000270: a0f7 f43c c403 5e3d a88e d73d 88eb b2bd
00000280: e03d 843c e74c b9bd 9542 b3bd 4f45 493d
00000290: 9d05 033d 8e3c a3bc 787a 6b3d 32de b33d
000002a0: 2c57 db3c 17d6 503d 049c 9bbd 91a0 a83c
000002b0: 9676 3e3c 95dc bf3d 8e71 d23d 75c7 463d
000002c0: fe07 e7bd e61c bb3d a537 c6bd 82fa 523d
000002d0: 1e3a c73d 169d eb3d 40f6 b5bc 4137 e4bd
000002e0: 843e d8bd 051b 13bd d1d3 91bd 10d7 c53c
000002f0: 4c94 3bbd 6520 af3d 192b a23d 9b24 143d
00000300: eb8a 98bc 79e0 c93d c2b0 82bb 1454 24bd
00000310: cb00 1e3c 507d 6c3d d326 433c 9a5d 14bd
00000320: 7188 063d 5c66 7bbc a484 543d c560 863d
00000330: 34fd c0bc b069 e7bd db48 6bbd 5be5 e0bd
00000340: 0acc 6cbc c364 6bbc d890 3b3d 6c7b 1d3d
00000350: 3810 d23b af6f e4bd 5440 8cbd 13d9 803d
00000360: 687d 8bbd 2867 edbd bc57 dc3d c832 9c3d
00000370: 79b1 3cbc c864 c9bd e586 cb3d e187 e43d
00000380: 041f 61bd 46f5 c63d 9e06 dbbd 9466 8e3d
00000390: 9cf8 aa3d 981b 333d ad50 75bd 36c5 a03b
000003a0: 7603 65bd 38b9 e8bd 8d63 bcbd 6c2c c93d
000003b0: 171f ddbd a659 c5bd cd0c 0ebd 0328 edbd
000003c0: c854 b33d 5fe5 be3d 08f4 103d 1b7c d03c
000003d0: fbbc c3bd ec18 7cbc c972 963c fefe 90bd
000003e0: 93f8 6abb 90b8 17bd 799f f23c 426e c2bd
000003f0: b3b5 f43b df19 82bc 3cae ecbd 6b16 8abd
-0.02737114 -0.010915715 0.0075351563 -0.0776894 0.039656013 0.007089527 -0.117154315 -0.041399967
0.08427658 -0.009671978 0.08970358 -0.10335832 0.012011577 0.10801118 -0.063682094 -0.016170682
-0.06369676 -0.11116565 0.034073923 -0.025569148 -0.009397452 0.111213595 -0.020883873 0.07302627
-0.031516995 -0.039295353 0.10837882 -0.040134028 -0.0020349964 -0.058514882 0.07995771 -0.02307595
-0.018658781 0.017637491 0.07447662 -0.013642592 0.020304577 0.053039663 0.023982683 -0.011207208
-0.012396969 0.0510762 0.028888574 0.078090966 0.013222922 0.08175345 -0.058503173 0.00276986
-0.08356544 0.017319668 0.027903134 -0.034507807 -0.041419577 0.094950646 -0.056136888 -0.09034569
-0.056964837 -0.056560956 -0.10584473 -0.11110059 0.07636544 0.0790643 -0.008369942 -0.011360601
-0.0306103 0.053120665 0.10737129 -0.08334167 0.074802004 -0.048596397 -0.068951756 0.030741595
0.0220987 -0.049769893 -0.048624717 -0.0047270805 -0.03289584 -0.115318686 0.02681232 -0.0244777
-0.095954 -0.075532235 0.09963469 -0.021999873 -0.080194324 0.0005175719 0.10096079 -0.012570257
-0.09900951 0.049760304 0.09939818 -0.020619065 -0.032911647 0.083274 -0.062097363 -0.11104061
0.010548725 0.0548971 0.004665644 -0.03670845 0.113014944 -0.062150005 -0.02338341 -0.1010702
-0.02284269 -0.0943919 -0.10448581 -0.053673185 0.0857152 -0.11374163 -0.083248995 0.041633423
-0.02769689 0.0504599 -0.0350951 -0.1127783 -0.033430323 -0.0019298709 0.072538845 0.07472665
-0.08424923 0.020417022 0.04686709 0.056268904 0.08160231 0.0521959 -0.09180614 -0.002314284
0.020689433 0.019830048 0.043516226 0.03404717 -0.07801406 0.07524625 0.093216375 -0.08628449
-0.047202855 -0.06832942 -0.07104208 -0.0782454 0.090434305 0.013371624 -0.113081455 -0.0033385819
0.0993527 0.07468391 -0.03195703 0.091631494 -0.022921927 -0.059122194 0.020194747 -0.080596656
0.05471915 -0.09803334 0.04097772 -0.07920682 0.029903233 0.05420281 0.105252564 -0.0873633
0.016142786 -0.09047871 -0.08752934 0.049138363 0.031987775 -0.019926336 0.057489842 0.08782615
0.026774965 0.050985422 -0.07598117 0.020584377 0.011624953 0.093682446 0.10275565 0.04853006
-0.11280821 0.09136371 -0.09678582 0.051508434 0.09727882 0.11504571 -0.022212148 -0.11143351
-0.10558799 -0.03591444 -0.07120479 0.024150401 -0.045795724 0.08551101 0.079183765 0.036167722
-0.018620929 0.09857268 -0.0039883563 -0.040119246 0.009643744 0.057736695 0.011911112 -0.036222078
0.032844964 -0.015344229 0.05188431 0.06561426 -0.023558237 -0.11299455 -0.057442527 -0.10981246
-0.014452944 -0.014367285 0.04579243 0.038447782 0.006410625 -0.111541145 -0.06848207 0.062914036
-0.06811029 -0.11591941 0.107589215 0.07626873 -0.011516922 -0.098336756 0.099378385 0.11158729
-0.05496122 0.09714751 -0.106946215 0.06953159 0.083482 0.043727487 -0.05989139 0.004906322
-0.055911504 -0.11363453 -0.09198675 0.09822926 -0.107969455 -0.0963624 -0.034680177 -0.11579897
0.08756405 0.09321093 0.035388976 0.025449803 -0.095575295 -0.015386801 0.01836528 -0.07079886
-0.0035853728 -0.037041247 0.029617058 -0.09493686 0.0074679493 -0.015881477 -0.1155667 -0.06742557

bias f4 [8]
00000000: 48b6 7bbd 881e bd3d c50a da3d 17da 3b3d
00000010: 7f32 19bd 080b 57bc 661c b13c ffae d9bd
-0.061453134 0.09234339 0.106465854 0.045862284 -0.037401672 -0.013125189 0.021619987 -0.10629081

weight f4 [128, 192]
00000000: eadd 5bbd 3d46 813d 08ee 733d 01f1 31bd
00000010: bf33 c2bc a6b8 843d daed cbbc e0d8 743b
00000020: b63d 53bd 2426 e3bc ecaf 32bd ae78 3abd
00000030: a5cd dc3b 5016 20bc 1cb7 6e3d ceff cfbc
00000040: b839 0b3b a60e eebc 80a6 633b 0813 f63c
00000050: 123f 78bd 20dd 913d 463b 013d 84e5 cfbc
00000060: 6f96 afbc 99f1 3e3d ad42 be3c a9c2 2abc
00000070: 42f5 ea3c cc88 893b e8d0 c8ba 5146 f53c
00000080: 10ae 20bd 1539 2cbd 10f7 85bd fa28 3c3d
00000090: a8ef 7b3d 7c81 b43a 7d65 6e3d d811 863d
000000a0: 67c2 94bc a2b2 90bd 6ab2 31bd 7e6f 6b3d
000000b0: 70b7 fb3c 85ba 4cbd 7758 93bd 36ba 2fbd
000000c0: 53a7 7abd bc1e 09bc a559 66bb d6c4 23bd
000000d0: 0d2f 0c3d dce0 103d 4feb 91bc 2650 313d
000000e0: ac10 28bd 7f07 8fbd 1014 15bc 6a7d 923d
000000f0: c623 4f3d 5f0f e53c 2943 5f3d 460b 1e3c
00000100: f034 6cbc a956 533d 729a 7abd 87bd 5d3d
00000110: 6e9d aa3c 4775 8fbd 35b5 ee3c f35b d83c
00000120: 6e5e adbc cc02 ce3c e4df 2e3d 7420 613d
00000130: 0a38 3ebd 6c53 13bd 8cc9 1c3d 9086 95bb
00000140: e9a0 71bd e42d 53bc 2054 d93b d8e3 533d
00000150: 55a6 76bc ba73 92bb 7674 8f3d dec4 1dbd
00000160: af9d 1bbb 96e2 40bc 8375 e6bc a41a 943c
00000170: 2006 38bc 93b3 64bd d81f 243d 5e5e b5bc
00000180: 1a1c 4abd 5afd 8039 a55c 68bd 0003 e53c
00000190: 85a7 7cbd db5d 043d c4cf 053d 8e5c 97bb
000001a0: fff9 7c3d 9aab 33bd 9230 9e3c 5b12 39bd
000001b0: bf4d 5c3c 7d5b 3c3d 528f 3b3d fca3 05bc
000001c0: 943c 0c3d ed2a 9f3b 2153 9fbc 17b2 833d
000001d0: 8350 04bd b58f d63c a7a8 8fbc 03cd 893c
000001e0: d188 86bd 2e76 4d3d 8271 b2bc 4cff 5d3d
000001f0: 784a 1abc de9a 82bd c8eb 413d 04d8 d53c
00000200: 2097 6e3c c9b2 5dbd aef3 fbbc 18e5 d33c
00000210: 1c57 d63c b078 2abd ec71 7e3d 14d3 f83c
00000220: b909 91bd 1452 2ebd 18ff 513d e81a 663d
00000230: 4889 8e3d 181b dfbc 7072 1c3c 7c09 803d
00000240: 8df9 243d c0ee 3c3c af86 913d afb9 0fbd
00000250: a5b0 503d 5723 9abc 4023 203c 5ede 53bc
00000260: ed36 03bd 285f 7e3b 571c 823d 18c7 8f3d
00000270: 9ce8 43bd 0150 b23b 595f f8bc bc31 7bbd
00000280: 09c5 28bd 9f3b 95bc 45f2 413d f903 95bc
00000290: fb38 843c 2e96 603b ff6d 813d d81d efbb
000002a0: 70cc ddbb 364a 853d d47a 8d3d 8871 bfbc
000002b0: 8668 8d3d 3031 67bc 6dda 79bd 183f 1d3d
000002c0: 1467 4fbd 680e 63bd d47b 323d 7429 48bc
000002d0: 3084 8b3d c3f7 8dbd 9e53 1d3d 0d8d 15bd
000002e0: ca71 083d f0ee 9a3c 4090 3abb 26d1 81bc
000002f0: b4a0 223d d465 863d d0c7 c2bb 8057 983a
00000300: 5674 86bd de18 09bc 62b4 33bd 4fd7 38bd
00000310: 9299 66bd 247e 63bd fe41 433d 0cbc ad3c
00000320: 1a89 c6bc e313 8cbd 48fc 00bc bfeb 13bd
00000330: 74bd 2c3c 969b 153d f181 71bd 62f8 2dbd
00000340: e816 dcbc c0de 0abd 9f61 82bd b0b3 d7bc
00000350: 31aa 3ebd 363f 81bd cc1f 743d 9625 66bd
00000360: f40a 0c3b 73dd 45bd 5803 c03c 8acd 6bbd
00000370: ec60 10bd c059 b0bc 99e4 37bd 5261 44bd
00000380: 9879 8f3d 861a 36bd 2019 723d 7a86 70bd
00000390: 3a25 d6bc a21a 48bd ac82 84bd 9283 183d
000003a0: befa ffbb 8708 d13c 604f 213d 2964 853d
000003b0: 3914 f0bc 3624 2f3d 2050 80bd a868 8d3d
000003c0: 3799 813d e4ff 88bd 3165 63bc 0702 1b3d
000003d0: 5eb8 5b3c fd62 8d3d 5b16 d33b a949 5dbd
000003e0: 2e3e 943d d26e a43b 984f 8e3d 8504 d7bc
000003f0: aa89 3cbd 354c 4c3d 52ad cdb9 f25e 13bd
-0.05367843 0.06312225 0.059553176 -0.04344273 -0.023706315 0.064805314 -0.02489369 0.0037360713
-0.051572524 -0.027728148 -0.043624803 -0.045525245 0.006738382 -0.009770945 0.058280095 -0.025390532
0.002124412 -0.02905972 0.0034736693 0.030038372 -0.060607024 0.07122254 0.03155067 -0.025377996
-0.021434037 0.046617124 0.023225153 -0.010422387 0.028681401 0.0041972157 -0.0015321048 0.029940756
-0.0392285 -0.042046625 -0.06541264 0.045937516 0.06150785 0.00137715 0.058202256 0.06546372
-0.018159105 -0.070653215 -0.04338304 0.057479374 0.030727118 -0.049982566 -0.07194608 -0.042902194
-0.06119473 -0.008369144 -0.0035148647 -0.03998264 0.03422456 0.035370693 -0.0178124 0.043289326
-0.041031525 -0.06983852 -0.009099022 0.07152827 0.050571226 0.027961431 0.05450741 0.0096462425
-0.014416918 0.051596317 -0.061182447 0.054135825 0.020827021 -0.07004791 0.02913914 0.026411032
-0.021163192 0.025147818 0.042693987 0.05496259 -0.04644016 -0.03596823 0.038278148 -0.0045631602
-0.058991347 -0.012889359 0.006632343 0.05173096 -0.015054305 -0.004469362 0.07004635 -0.038517825
-0.002374511 -0.011772772 -0.028132206 0.01807911 -0.011231929 -0.055835318 0.04006943 -0.022139724
-0.049343206 0.00024602824 -0.056728978 0.027955532 -0.061683197 0.03231607 0.032668844 -0.0046191877
0.061761852 -0.043864824 0.01931027 -0.04518352 0.0134462705 0.045985688 0.045790978 -0.008156773
0.03423746 0.004857412 -0.019448819 0.06430452 -0.032303344 0.026191572 -0.017536474 0.01682139
-0.065690644 0.050161533 -0.02178264 0.05419855 -0.009417169 -0.06377195 0.047344 0.02610398
0.014562398 -0.05412558 -0.030755844 0.025866076 0.026164584 -0.041619003 0.062120363 0.030374087
-0.070819326 -0.042558745 0.051268667 0.056178004 0.06959778 -0.027234599 0.009548768 0.06251809
0.040277053 0.011531532 0.07105767 -0.03508919 0.05094971 -0.01881568 0.009774029 -0.012931434
-0.032034803 0.0038814042 0.06353062 0.07020396 -0.047829255 0.005441666 -0.030318903 -0.061326727
-0.041203532 -0.018216906 0.047350187 -0.01819037 0.016140452 0.0034269202 0.06319808 -0.007297259
-0.0067687556 0.06508295 0.06908193 -0.023369566 0.06904702 -0.014110848 -0.060999323 0.03839025
-0.050635412 -0.05543366 0.043575123 -0.012216914 0.06812322 -0.069320224 0.03840982 -0.03651147
0.033311643 0.018912762 -0.0028467327 -0.0158468 0.03970404 0.06562391 -0.0059442297 0.0011622757
-0.06565158 -0.008367745 -0.0438732 -0.04512721 -0.0562988 -0.05554022 0.047670357 0.021207832
-0.024235297 -0.068397306 -0.007872649 -0.036113497 0.010543216 0.03652533 -0.058961812 -0.042473204
-0.026866391 -0.033903837 -0.06366276 -0.026330799 -0.046549026 -0.06310885 0.059600636 -0.05618819
0.0021368833 -0.048306894 0.023439094 -0.057569064 -0.035248682 -0.021527171 -0.044895742 -0.047944374
0.07005614 -0.04445889 0.059105992 -0.058721997 -0.026140798 -0.048853524 -0.06470236 0.03723485
-0.007811873 0.025516761 0.03938234 0.06513245 -0.029306518 0.042759143 -0.06265283 0.06904727
0.063280515 -0.06689432 -0.013879106 0.03784373 0.013410656 0.06903646 0.006441874 -0.054025326
0.07238422 0.0050180936 0.06948775 -0.026247272 -0.046029724 0.049877364 -0.0003922978 -0.03597922

bias f4 [128]
00000000: ba1c 863d a62a fa3c a9d1 833d 4d65 1e3c
00000010: e8f9 6f3c 3b59 02bc 08fb 10bc a7a4 7ebd
00000020: 1b70 3fbc dd12 803d 458e 753d 94d0 4abc
00000030: 5d60 8a3d f61c 75bd f19e 123d 57ce 16bd
00000040: 494d 4bbd 7f4c 47bd a6be 773d 287f 6abd
00000050: 0d54 3c3d e7a3 223d 852a 733c 6a21 83bd
00000060: 27ec 79bd a526 88bd 4076 663b 268f 7b3d
00000070: c153 0fbd b0d0 88bd d1af 93bd 3a68 95bc
00000080: 6529 93bd 5b94 18bd f6ac 673d 8ffb 8ebd
00000090: d53e 283b b2ad 6abd 3477 833d 2b68 ecbc
000000a0: db46 5cbd a745 5a3d 7498 43bd 89fb 113d
000000b0: d435 bcbc 20ae ed3c b179 7f3c 40dc 3abb
000000c0: ded2 85bd 8595 f73c d2c8 bbbc c228 493c
000000d0: f9b7 b03b d802 c3bc 1fdd c73c ec3e 8d3d
000000e0: 5716 1dbd 5a30 6ebd e878 77bd 76a6 2fbd
000000f0: 80c7 e03c 903b cc3b e76f 45bd 21f0 673d
00000100: bea8 58bd 0a46 193b 5165 8f3d f092 6a3d
00000110: d876 8b3d 1e60 453c 8828 f1bc ea82 40bd
00000120: 16a3 46bc 6410 583d a468 7abd 076d 8fbd
00000130: 2b0a 91ba 9454 4b3b da98 e2bc 6734 2b3c
00000140: 1677 92bd 1e5a d7bc 493a 93bd 0c16 6bbc
00000150: 367e d7bc aec8 45bd ba91 743d 3382 743d
00000160: 1712 40bd 81d5 5b3d 9b4b 2c3b 5f42 b0bc
00000170: da47 91bc 35ae 0cbd ada1 4fbd 216e d43c
00000180: 3cfd 1dbd 8842 3c3d 1e1a a2bc edb8 b33c
00000190: 2869 403d de33 5abd b8a3 9e3c efc8 e13b
000001a0: a89f 42bd d395 923d 6846 47bd 2408 5bbd
000001b0: ac73 04bd 6888 363c f154 483d ffa8 463d
000001c0: 230e 88bc 07d1 babc 5e5c 4abd 19a3 f53c
000001d0: d0f4 9d3c ef87 2f3d d283 203d e0ed f7bb
000001e0: 3efb 723d 543b db3c d34c 80bd 73c6 8abd
000001f0: 9437 23bd d0ff febb b0db cebc 8e4d b0bb
0.06548448 0.030537914 0.06436474 0.009667707 0.014646985 -0.0079558445 -0.008848913 -0.062168743
-0.011684443 0.06253598 0.059950132 -0.01237883 0.06756661 -0.059842072 0.03579611 -0.036817875
-0.04963425 -0.048656937 0.06048455 -0.057250172 0.045978595 0.03970709 0.01484168 -0.064028576
-0.061016228 -0.06647996 0.0035165697 0.061415814 -0.034991983 -0.06680429 -0.07211269 -0.018238176
-0.0718563 -0.037250858 0.056561433 -0.06981575 0.0025672216 -0.057294555 0.064192206 -0.028858265
-0.05377851 0.053289082 -0.047752813 0.035640273 -0.022974886 0.029013693 0.015592978 -0.0028512627
-0.0653436 0.030222664 -0.022922907 0.012277784 0.005393025 -0.023805067 0.024397431 0.06896767
-0.038351383 -0.05815158 -0.06041804 -0.04288336 0.027438879 0.0062326863 -0.04820242 0.05662549
-0.0528953 0.0023387694 0.070017464 0.057269037 0.06809777 0.012046842 -0.029438272 -0.04699985
-0.012123844 0.052750006 -0.06113495 -0.07003217 -0.0011065652 0.0031025754 -0.027660776 0.010449505
-0.0715162 -0.026288088 -0.071888514 -0.014348518 -0.0263053 -0.048287086 0.05970929 0.05969448
-0.04689225 0.05367041 0.0026290182 -0.021516023 -0.017734457 -0.034345824 -0.050691295 0.02593142
-0.03857158 0.045961887 -0.019787844 0.021938765 0.046975285 -0.05327212 0.019365177 0.006890408
-0.04751554 0.07157483 -0.04865113 -0.05347456 -0.032336876 0.01114092 0.04890913 0.04850101
-0.016608303 -0.02280475 -0.049404494 0.029984998 0.019281775 0.042854246 0.039188214 -0.0075661987
0.059321634 0.026761688 -0.06264653 -0.067761324 -0.039847925 -0.00778196 -0.02525124 -0.005380339

weight f4 [8, 128]
00000000: 64fe 49bd d0a6 6f3d 0596 a83d 5ea8 6c3d
00000010: 1a59 0ebd 897f 8bbd b4f1 87bd b05d 49bc
00000020: 28de bcbc 0f67 fbbc 2983 423d 621e 3cbd
00000030: ce79 22bc b62a 313d 2198 323d 40c3 c1bc
00000040: 20ac 353c 6514 46bd 7be3 763d 0636 7bbd
00000050: 084d 84bd e20e 34bd 74d4 463d 0043 80bd
00000060: dde4 56bd 29c4 a23d 474f 30bd ed53 de3c
00000070: a3f0 94bd 869d 6a3d fc39 a2bd 8520 913d
00000080: 9529 a6bd 8a85 51bd 594a 96bc c01f 2cbb
00000090: 797b f6bb 90e1 a9bc 6a37 20bd 3383 563c
000000a0: 76ba 4fbd be46 a53d d407 a2bd 2c2b adbd
000000b0: 6897 03bd c161 a53d 90ff 99bd a3e2 9ebd
000000c0: a981 9b3d 6cce 203d 3067 b1bb de4e 95bd
000000d0: 7c58 273c f1c7 af3d 2a0c ac3d fce6 d4bc
000000e0: 0098 8939 ce43 6ebd 5880 7abc e03a 0bbd
000000f0: c01b 29bd 6d46 493d 5985 353c d471 23bd
00000100: f88b 6d3c 324b afbd d9e3 b3bd 58ae 2ebd
00000110: 9011 abbc 5d80 34bd 008c d73c 3c54 7fbd
00000120: db4d 823b 9e0e a83c 6d7c 633d f28e 263d
00000130: f60a 423d 3e89 663d c222 dbbc ee5a 4cbd
00000140: 6d10 9f3d d88f 4a3d 9c85 d1bc e0ad 58bc
00000150: fa7a 25bd 0c19 c7bc 12f6 92bd a137 a83c
00000160: 19fe abbd 4a1c aebd 7e33 67bd d5ff 933d
00000170: 2269 85bd cb75 ac3d 53af 793d 570f 81bd
00000180: a350 ad3d fd11 a5bd b723 4dbd 632e 473d
00000190: d5d8 193c a091 493b 5dbc 993c 5aa9 2fbd
000001a0: 278b 903d 1d7f 8abd bc18 aa3c 065f abbd
000001b0: 9a1f d6bc 18c4 5c3c 6665 a3bc 878d 103d
000001c0: 433a 7f3d ae44 be3c ce6c b1bd ac3a 99bd
000001d0: 2ed2 0abd bf27 993d d074 313d c664 423d
000001e0: c3cd 1dbd 5a8b 4c3d d0ea 7fbd c634 3b3d
000001f0: 77fd 8b3d c1ec a13d 991a 49bd b665 183d
00000200: d26e 1f3d 19a2 363d 9612 843c f2c6 2f3d
00000210: ea09 3f3d 1ca8 873d 1ae2 f7bc 6068 30bc
00000220: d7e4 25bd 1fed 5d3d 7e4f a43d c467 87bb
00000230: 9fd4 c6bc c050 a3bb d639 a8bd eadc 143d
00000240: 181d 303c 6f4f a43d e085 87bd 9060 233c
00000250: 9a4b 153c c235 e63c e501 2abd 312d 943d
00000260: 531e 2bbd b830 2e3c c2d2 7a3d b4ac b8bb
00000270: 5eba 513d 1636 45bd 156d 823d 0094 e838
00000280: 3686 173d ab64 ffbc 44b3 a6bd a716 a13d
00000290: ef27 afbd 3c83 003d ca4c 3fbd f21c d33b
000002a0: 0027 d4ba bb11 153d bf25 69bd d6b8 17bd
000002b0: 5862 babc 7c8b fe3c 41c8 b13d f065 94bc
000002c0: 36f8 263d 5c7b 6abd f0db 3cbd c596 5cbd
000002d0: 1943 7ebc 7064 db3c fff0 26bc 0126 5b3c
000002e0: 3a7c acbd f50d 99bd 9cee d13c 6ed1 96bd
000002f0: 143b 833d e7eb 6c3d 6391 fbbc e0f9 a93d
00000300: 7e9a 3a3d 4b57 00bd 2603 f2bc a94f e6bc
00000310: ec14 d33c 6d42 15bd b807 bd3c cc49 8f3c
00000320: d504 3bbd 1cc8 24bd 56a6 76bd 029f 303d
00000330: 9ee5 9dbd fca7 433d da6f 783d 8bfb a1bd
00000340: 7a7e 263d d67c 163d a0ad 8cbb ecb1 a43c
00000350: 24eb bc3c 8082 f23c ba5f 53bd d85c 83bc
00000360: ef54 8f3d 8778 d23c c4a1 0d3d ce90 3c3d
00000370: e374 8b3d cf3c 46bd c978 46bc 7dc9 aabb
00000380: b098 d7bb b295 523d 63c0 923d 342f 86bd
00000390: b646 723d 50d0 4f3c f208 aabd 39af d33c
000003a0: 2d47 4ebd 5bc1 7b3d f91c 67bd e45b 15bd
000003b0: f851 d53c 831c 863d d79d aabd ad86 7aba
000003c0: 17d2 863c 37f6 c43c 7cb2 dabc b2f2 8fbd
000003d0: 9c27 853c 5b5d 3c3d a044 9ebd faa4 26bd
000003e0: b7f0 103c 63b3 913d 4ac9 653d d079 82bd
000003f0: ae38 15bd 2a91 103d 6dc3 943d 75a3 ac3d
-0.04931487 0.058508694 0.08231739 0.057777755 -0.034752943 -0.06811435 -0.06637898 -0.012290403
-0.023055151 -0.03068879 0.047488365 -0.045927413 -0.009916736 0.043253623 0.043602113 -0.023652673
0.011088401 -0.048359293 0.060275536 -0.061330818 -0.06460005 -0.043959506 0.048542455 -0.06262779
-0.052464355 0.07947571 -0.043044355 0.027139628 -0.0727246 0.057279132 -0.07921216 0.07086281
-0.081134 -0.051152743 -0.018345999 -0.0026264042 -0.0075220433 -0.02073744 -0.039115347 0.013092804
-0.050714932 0.080701336 -0.07911649 -0.084555 -0.032126814 0.08075286 -0.07519448 -0.07758071
0.0759309 0.03925936 -0.0054139122 -0.07290433 0.010213967 0.08583058 0.084007576 -0.025989048
0.00026243925 -0.058170132 -0.015289389 -0.033991694 -0.04128623 0.04913943 0.011079156 -0.039903477
0.014498703 -0.08559264 -0.08783693 -0.042646736 -0.020882398 -0.04406773 0.026311874 -0.06233619
0.0039765663 0.020514783 0.055538584 0.040663667 0.047373734 0.056283228 -0.026749972 -0.049891405
0.07766805 0.049453586 -0.025576405 -0.013225049 -0.040400483 -0.024303935 -0.071758404 0.020534338
-0.08398075 -0.085014895 -0.05644559 0.072265305 -0.06514193 0.08420905 0.060958218 -0.06301754
0.08462646 -0.080600716 -0.05008289 0.048628222 0.009390076 0.0030756965 0.018766576 -0.042886116
0.07057791 -0.06762526 0.020763747 -0.08367734 -0.026138116 0.013474487 -0.019945811 0.03529122
0.062311422 0.023226108 -0.08663331 -0.07481894 -0.03389185 0.07478284 0.04332429 0.047459386
-0.038526308 0.049937584 -0.062479794 0.045704626 0.06835454 0.07906485 -0.04909763 0.037206374
0.038924046 0.044588182 0.016122144 0.04291434 0.046640314 0.06623861 -0.03025918 -0.010767072
-0.04050144 0.054181214 0.080229744 -0.004132243 -0.024271308 -0.0049839914 -0.08214156 0.036343493
0.010749124 0.08022963 -0.066173315 0.009971753 0.009112263 0.028101806 -0.041505713 0.07235182
-0.041776966 0.010631733 0.06123615 -0.005635822 0.051203124 -0.048147283 0.06368462 0.00011090189
0.036993228 -0.031175932 -0.08139661 0.07865649 -0.085525386 0.031375155 -0.04670409 0.0064426595
-0.0016185939 0.036393862 -0.056920763 -0.037041508 -0.022751972 0.03107237 0.086807735 -0.018115014
0.040764056 -0.05724655 -0.046108186 -0.053854723 -0.015518927 0.02678129 -0.010189294 0.01337576
-0.08422132 -0.07473365 0.025626473 -0.07364164 0.06407753 0.05784216 -0.030708974 0.08299613
0.04555749 -0.03133325 -0.029542517 -0.028114157 0.025766812 -0.0364403 0.02307497 0.017491244
-0.045658905 -0.0402299 -0.060217224 0.04312039 -0.07709812 0.047767624 0.060653545 -0.07909306
0.04064796 0.036740147 -0.0042931587 0.020104371 0.023061343 0.029603243 -0.051604964 -0.016035482
0.06998622 0.025692238 0.0345781 0.046036534 0.06809404 -0.048397835 -0.012113758 -0.0052120076
-0.006579481 0.05141229 0.07165601 -0.06551972 0.059149466 0.012683943 -0.083024874 0.025840389
-0.050360847 0.061463695 -0.056424115 -0.036464587 0.026040062 0.06548407 -0.08330887 -0.00095568114
0.0164576 0.024043186 -0.026696436 -0.07028712 0.016254239 0.04598747 -0.07727933 -0.040684678
0.008846453 0.071142934 0.056100167 -0.0637089 -0.036431007 0.03529469 0.07263837 0.084296145

bias f4 [8]
00000000: b0a3 293d 22a4 813c d493 483c e13f 88bb
00000010: 633a 333d 2eaf bfbc c0ba 5ebd ea0a 22bd
0.04141587 0.015825335 0.012242276 -0.0041580056 0.043756854 -0.023398962 -0.054377317 -0.03956119
