model-doom.pth (torch, 114543 bytes, 8 tensors)

weight f4 [8, 1, 6, 6]
00000000: ac67 8c3d 050c efbd 177d d2bd 4050 e03d
00000010: 1c1b 143e b2b7 8dbd 3daf 27be cd2b dc3b
00000020: e397 06be 885b 1ebc 31a0 213e 4016 6cbd
00000030: 301a 06be 73e4 b33d 2b56 03be ba72 04bd
00000040: c577 4a3d 35d9 b93d 702f a4bd d966 22bc
00000050: e1da 88bd 02b0 17be b9f9 e63c bc7f 5cbd
00000060: 855a 4ebc 5eca 83bc b50d 15bc e522 c4bc
00000070: 1647 f83d 693a c43d df38 293d d0fc 6ebd
00000080: 5806 21be 0bda 153e 0d71 6d3c 0281 02be
00000090: 5cfd df3d e636 0ebe 2a16 a43d a200 edbd
000000a0: bb7c a43d 207a 203e 1ac6 9e3d 1755 25be
000000b0: d8b4 c83d 0e86 863c c6b1 57bc 7960 15be
000000c0: ce29 1e3e 9c15 d23d 7d02 a4bd 65ad 553d
000000d0: 622b a33d 93fb f23d 5f7e b6bd 272f ae3d
000000e0: 1f56 b5bd 0a23 ea3c 2b28 2fbd 3b8d ffbd
000000f0: 4ac3 ac3d 9fe1 273e eb73 0b3e 6c30 2d3e
00000100: 07fb 163e ac1e 7b3c b140 82bc 109b ffbc
00000110: b8f7 19be 0a35 463d 0e4d e0bd eb10 e3bc
00000120: 7a18 28bd 72a0 5c3c a587 00be 13ee 143e
00000130: d7e0 b53d 99d9 28be 63d8 fcbd ed18 9c3d
00000140: 9172 d63a 4dae 1abe d8ef 293e 2fc9 7bbd
00000150: 6a81 b43c 8f13 f43d bf35 c5bd 115f f23d
00000160: 3971 27bd 07e8 0c3e 5097 153e 65af b43d
00000170: c93a 213d 8862 d6bd 1fe3 23be c55a 82bd
00000180: b056 8d3c fbea f63c a7f1 0fbd 3e7e 1e3e
00000190: 8f8d 22be b06a d73d b7ef 363d 758f 213e
000001a0: 88a9 5cbc 33a9 22bd 1b1b e6bd 2a01 c8bc
000001b0: 6384 afbd 4a0b 0d3c a94c a33d 555a dabd
000001c0: 0d68 fa3d 1a4b dbbd 3bdb 103d fae2 9c3c
000001d0: cac0 c43d ab11 9abc 1ad6 28be a492 d6bb
000001e0: 5707 ec3d a7b1 b93d a0b9 8dbc f097 7eba
000001f0: 965a ca3c ad16 31bd 41aa 09bd a5ee 043e
00000200: 1760 b1bc a239 273e ffa0 06be ef5a 95bb
00000210: efae e83c 54df a0bd 8104 133e 23ec dbbd
00000220: 8a3d 28bd 59db 07be a202 f8bd 3890 d13d
00000230: 07bf d73d 81ad 8bbd 0090 07be d08f f7bd
00000240: 72c0 0d3e 1133 a9bd 7b21 0c3d bda4 01be
00000250: cab2 07be 1e96 7abd 3fac 5b3c 5949 43bd
00000260: 64b5 6dbd be28 0fbe 47c2 a4bd 5f41 813d
00000270: d8a2 533b ad68 48bd c033 1f3e 35b7 053d
00000280: 6f82 a2bd c304 e7bc 0888 023c b0ec 4b3d
00000290: 7362 fe3d f026 c3bc beac 1a3e fd31 963d
000002a0: d0a1 0dbe d5a6 053c d4ba 193e 32cd d8bd
000002b0: 1cda a1bc 61e7 25be 8e5d ce3d fda2 e3bd
000002c0: 7baf ac3d d6be ad3d 484c f6bd 1364 003e
000002d0: aab3 053e 561a 96bd 779b 92bd 7ee9 05be
000002e0: a6ca 32bd f02f bbbd 50ce 1e3e 2492 223e
000002f0: 1ed4 1e3e b614 9b3d b4ee 2f3c f944 51bd
00000300: a6e2 113e a6cc 28be a23c 9c3d 6623 ee3c
00000310: 91b5 ee3c f406 873d 2b93 69bd 097b 39bc
00000320: 6f77 943d 29ab 073e 7c7f 333b a776 23be
00000330: 25f2 0b3e fe18 34bd ec31 ebbd 9a0b 9abd
00000340: d318 153e 479b c93d 936d 9e3c a70f 3bbd
00000350: e22a 35bd 3614 c83d 1774 a73b 248c e23d
00000360: 2070 aabd a7d2 aebd a00f 52bd 9fe8 963d
00000370: 8747 ef3d 50ce 9f3d a064 4b3d e70a 17be
00000380: 985b 153c 206a 223e c85a bc3b 414a 24be
00000390: 7055 a7bc 235a adba f2a6 f23c 6362 35bd
000003a0: 68cf 373d d8a4 753d 2dcb 30bd 23f9 aa3d
000003b0: cdca 8f3d 8b76 6abd 65a4 e63d 4eb9 21be
000003c0: 4490 abbd 4639 a53d f3e3 bd3b 66cf ae3d
000003d0: af84 00be a214 29be 9390 703d 5165 50bd
000003e0: 5c43 b4bd d341 283c a835 27be 96cf 1f3e
000003f0: 78fd 16be 7268 bd3d 24cd 59bd 757e 503d
0.06855711 -0.116722144 -0.10277765 0.109528065 0.14463466 -0.06919803 -0.16375442 0.0067190886
-0.13143878 -0.009665377 0.15783764 -0.057638407 -0.13095927 0.087838076 -0.12825839 -0.032335974
0.049430627 0.09074632 -0.080168605 -0.009912216 -0.06682373 -0.14813235 0.028195249 -0.053832754
-0.012594824 -0.016087707 -0.009097506 -0.02394242 0.121229336 0.09581453 0.041314002 -0.05834657
-0.15725076 0.14633958 0.014492285 -0.12744525 0.10936996 -0.1388813 0.0801204 -0.11572386
0.08031603 0.15671587 0.077526286 -0.1614574 0.09800118 0.016421344 -0.013164943 -0.14587583
0.15445635 0.10258028 -0.08008287 0.052167315 0.07967259 0.1186439 -0.08910822 0.08505087
-0.08854317 0.028581161 -0.042762917 -0.124781094 0.08435686 0.16394661 0.13618438 0.16913003
0.14744197 0.015327137 -0.015899988 -0.03120187 -0.15035903 0.048390426 -0.10952197 -0.027718028
-0.041038968 0.0134659875 -0.12551744 0.14543943 0.088807754 -0.16489257 -0.1234596 0.07621942
0.0016361048 -0.15105553 0.165954 -0.06147116 0.022034366 0.11917793 -0.09629392 0.11834539
-0.040879462 0.13760386 0.14608502 0.08822516 0.039362703 -0.10468012 -0.16004609 -0.06364969
0.01725325 0.030141344 -0.035142567 0.15477845 -0.15874313 0.10518396 0.044662204 0.15777381
-0.013468154 -0.039712142 -0.11235639 -0.024414618 -0.08570173 0.008608649 0.07973606 -0.10661761
0.12226877 -0.10707684 0.035365324 0.0191512 0.09607084 -0.018807253 -0.16487923 -0.0065482426
0.115248375 0.090670876 -0.017300427 -0.00097119715 0.024701398 -0.043234516 -0.033609632 0.1298166
-0.021652265 0.16330579 -0.13147353 -0.0045579593 0.028403727 -0.078550965 0.14357187 -0.10738399
-0.041074313 -0.13267268 -0.12109877 0.10232586 0.105344824 -0.068202026 -0.13238525 -0.12087977
0.13842943 -0.08261693 0.034211617 -0.12660499 -0.13251796 -0.06117832 0.013407766 -0.04767737
-0.058034316 -0.13980386 -0.08044868 0.06311297 0.0032293107 -0.04892795 0.15547085 0.032645423
-0.079350345 -0.028200513 0.007967003 0.04978627 0.124211214 -0.023822278 0.15104958 0.07333753
-0.13831258 0.008157452 0.15012676 -0.10586013 -0.019757323 -0.16201545 0.10076438 -0.11115072
0.08431908 0.08483665 -0.12026268 0.12538175 0.13056818 -0.07329242 -0.07158559 -0.13077351
-0.04365029 -0.09140003 0.1550839 0.1587606 0.15510604 0.0757231 0.010738064 -0.051091168
0.14246616 -0.16484317 0.07628752 0.029069614 0.029139312 0.06593123 -0.057025116 -0.011320838
0.07249343 0.13248886 0.002738922 -0.15963231 0.1366659 -0.043969147 -0.11484131 -0.07521744
0.14560251 0.0984407 0.019339358 -0.045669224 -0.04423035 0.0976948 0.0051102745 0.11061886
-0.083221674 -0.085362725 -0.051284432 0.07368588 0.11683565 0.07803023 0.04965651 -0.14750253
0.009116076 0.15860796 0.0057481267 -0.1604395 -0.020426482 -0.0013225715 0.029620621 -0.044283282
0.044875532 0.05997166 -0.043162514 0.083483 0.07021103 -0.057241958 0.112618245 -0.15793344
-0.08377126 0.08067565 0.005794996 0.08535652 -0.12550615 -0.16511777 0.058731627 -0.050877873
-0.0880191 0.0102696 -0.16329062 0.15606532 -0.14745128 0.09248437 -0.053174153 0.05090185

bias f4 [8]
00000000: a340 e03d 6e94 8a3d a384 d73d 911f 0ebe
00000010: 1bc6 543d 7e03 283d 9b8d 333d ad37 27bd
0.109498285 0.06766592 0.10523345 -0.13879229 0.05194674 0.041018955 0.043836217 -0.04082458

weight f4 [8, 8, 3, 3]
00000000: ee0f 34bb 1a31 bc3b 364d c7bd 5408 ac3d
00000010: b70b 2a3d e537 1f3d de07 febb 69cc 7b3d
00000020: 03fe 7f3d df8c 5f3d 3903 843d bffd 9c3d
00000030: 3fb5 debd dc4c c0bd 6a58 d7bd dd15 6d3d
00000040: 2eb1 c1ba e804 83bd f0a8 bf3d 697f d6bd
00000050: c589 81bd 5aed 86bd 57fb c9bd cfc2 a4bd
00000060: cb20 8bbd dc2e fdbc 866d ae3d e11d dd3d
00000070: 30b4 95bd f849 163c 106f a2bb 782e 3cbc
00000080: 4202 1a3d d5ae ad3d ece7 9fbd fb2a 7fbd
00000090: 6a6e 26bd 4799 60bd c2b3 043d bf04 793d
000000a0: 1d2d d2bd 668c 763c 913f 61bd 4ec6 ebbd
000000b0: dcaf bc3d 9fc7 dbbd 61df 943c 21d1 b8bc
000000c0: 958d 793d 26bd 4dbd d1e0 b9bc e3c2 e2bd
000000d0: 0d65 a4bd 2edc 7ebd 6158 9ebd 94f9 1e3d
000000e0: dfa8 88bd 9116 903c 48cd 94bd 2125 b73c
000000f0: e34e d43d 16d6 e1bd ad64 ea3c 85ff 5bbd
00000100: 1c0d ee3c 38a3 d5bd a69b d9bd a065 5abc
00000110: 238e a53b fa53 8ebd cec0 09bc b002 e0bd
00000120: bb62 8b3d 85ec a2bd 979e d4bd 4145 8ebc
00000130: ca1a 253d b442 263d f425 ef3d 675f 82bc
00000140: 1fa3 b53d e816 383d 6834 6a3c 1a0b 743d
00000150: f59b 953d 402a 803d 8ab9 d33d 834c f13d
00000160: bd3d 99bc baaa dd3d 503f 803d ef58 a63d
00000170: eba8 4bbc 0695 4bbc 758e 9d3d 5cfe eabc
00000180: a52c 7c3d 2b15 d6bd c034 e13c 3e67 8b3c
00000190: c684 c3bd c7eb d2bd 86bc 933d ace8 fa3b
000001a0: e470 a9bd fa41 a4bc 7baf d9bd ae1c bd3d
000001b0: 5f90 7fbd e97c 2ebd fae3 de3d 7923 9f3b
000001c0: e5af dabd 9a22 d5bc 2fd2 13bd 4879 e03c
000001d0: 905c c93c 1c4b ce3d 57c4 c43d 92c4 8dbc
000001e0: 8fa9 d1bc 70d3 963d 31d8 443d 6e72 5d3c
000001f0: e610 523d 1154 6fbd 1d35 a63a 95c1 d83d
00000200: 2699 98bd 1e8d db3d b763 c93c ef3d bc3c
00000210: 67c2 f4bc f25a ae3d 283d 3ebd d723 4bbd
00000220: 5be4 473c db1e 343d 696f f03d 58f6 ad3c
00000230: 78cf f03d 6b04 a3bd 39cd 3dbd 8a4a c4bd
00000240: f130 d53d 1a0c c13d 0c48 a43d e2a8 88bc
00000250: 38f3 47bd 5a28 8e3d 4356 cf3d 7127 ed3c
00000260: 10e4 843d ded2 a83d cea8 7c3d f46e 2dbd
00000270: fb2b 113d 11b1 03bd 02e8 7ebd 066c f13d
00000280: ee5a 983d e828 6b3d 479d d6bd 0f34 29bd
00000290: 5c3e 8abd 1eaf 09bc f7ff 47bd 4888 6f3d
000002a0: 34cd d2bd f789 90bd 9de6 95bd a176 47bd
000002b0: b4df 963d f883 723d ff9c 583d 60f0 2fbd
000002c0: fadf b6bd 1224 e4bd 1791 b53d 28a0 923d
000002d0: 9556 6cbd 7634 40bd 6796 a33c 4092 83bd
000002e0: 98d9 dfbd 1922 ccbc c26e 6c3d 2144 143c
000002f0: b8a2 d23d 58fc 59bc 1ec4 973c bd3c b13c
00000300: 9ead 3c3c f8ad 573d 5580 0a3d 3558 e43c
00000310: 1e9b e1bc 0060 64bd 11db a6bc 4d71 e73d
00000320: 8962 ddbc 5eb7 bbb9 2a85 2b3d f155 de3d
00000330: a4c2 6fbd 6848 b83d cbd7 cebd 9350 e93d
00000340: 94d2 fabc 2877 13bc 5819 48bd 5ca7 97bb
00000350: fbbe 6e3d 01ec 1abd c65e de3d bb94 5c3c
00000360: 486b a3bd 38c5 d8bd e219 d7bd f08c d2bd
00000370: 401b debc 3ec3 243d 4f64 c53d 27de e3bd
00000380: 80f6 ccbb 8ccf cf3c f539 9a3d a215 693d
00000390: 12a7 c0bd e88b 66bc 7487 c6bd 2a60 8dbd
000003a0: bee4 7c3d 8865 f9bc f965 e7bd 0b9e b93d
000003b0: ecc1 b63c 1a3f 663d 39bc a03d 6768 b23d
000003c0: 96d0 213d 4846 abbc 9810 083c 6b2a d13d
000003d0: f1ea c23d e2d3 81bd ed27 d13d 2484 b2bd
000003e0: 862f 04bd 0a8a 413d 9cdf ae3c 9384 d43d
000003f0: 8ef2 a8bd 6491 9a3c 300b 88bc c5fd 843d
-0.0027475315 0.005743158 -0.09731524 0.08400026 0.04151508 0.038871665 -0.0077524027 0.061474238
0.062498104 0.054577705 0.06445927 0.07665586 -0.10874414 -0.0938966 -0.105149105 0.05788218
-0.0014777535 -0.0639742 0.09358394 -0.1047352 -0.063251056 -0.0658824 -0.098623924 -0.08044969
-0.06793364 -0.030906133 0.08516984 0.107967146 -0.07309759 0.009172909 -0.0049570873 -0.011485688
0.03759981 0.08480612 -0.078079075 -0.06229685 -0.040632643 -0.054833677 0.032397993 0.06079554
-0.10262511 0.015048122 -0.054992262 -0.11512433 0.0921323 -0.10731434 0.018172922 -0.022560658
0.06092604 -0.050229214 -0.022690209 -0.11072328 -0.080270864 -0.0622217 -0.07731701 0.038812235
-0.066728346 0.017588886 -0.07265717 0.022356572 0.10366609 -0.11027162 0.02861246 -0.05371048
0.029058985 -0.10431522 -0.10625391 -0.013329893 0.0050523444 -0.06949611 -0.008407785 -0.109380126
0.06805941 -0.07955269 -0.10381811 -0.017367007 0.04030875 0.040590957 0.11677161 -0.015914632
0.088690035 0.04494372 0.014294721 0.0595809 0.07305137 0.062580585 0.10338123 0.117821716
-0.018706197 0.10823579 0.06262076 0.081224315 -0.01243041 -0.012425667 0.07693187 -0.028685741
0.061566014 -0.10453256 0.027490973 0.017017003 -0.09546809 -0.10298877 0.07213692 0.007657131
-0.08273485 -0.020050991 -0.10629173 0.09233986 -0.062393542 -0.042599592 0.10883327 0.0048565236
-0.106780805 -0.026017476 -0.03608912 0.027401581 0.02458027 0.1007292 0.09607761 -0.017305646
-0.025593547 0.07364547 0.04805774 0.013516052 0.051285647 -0.05842978 0.0012680624 0.10583798
-0.07451086 0.10720275 0.02458368 0.022978751 -0.029877855 0.0851344 -0.046445042 -0.049594726
0.01220044 0.04397474 0.1174 0.02123563 0.117583215 -0.07959827 -0.046338294 -0.0958453
0.104097255 0.09426136 0.08021554 -0.016682092 -0.048815936 0.0694129 0.10123875 0.028949471
0.06488812 0.08243345 0.061684422 -0.04234214 0.035442334 -0.032151286 -0.06223298 0.11788182
0.074392185 0.057412058 -0.10479217 -0.041309413 -0.06750175 -0.008403568 -0.04882809 0.058479577
-0.10293046 -0.07057565 -0.073193766 -0.048697118 0.07366887 0.059207886 0.0528841 -0.04295385
-0.08929439 -0.11139692 0.08865564 0.07159454 -0.05769976 -0.04692503 0.019969178 -0.06424379
-0.109301746 -0.024918603 0.057722814 0.009049446 0.102849424 -0.013304792 0.018526133 0.021635408
0.011516003 0.052656144 0.033813793 0.027874092 -0.027539786 -0.055755615 -0.02036813 0.11300907
-0.027024524 -0.0003580404 0.041875042 0.10856236 -0.058535233 0.089981854 -0.10099753 0.113923214
-0.03061799 -0.009000577 -0.048852295 -0.004628105 0.058287602 -0.037822727 0.1085792 0.0134631945
-0.07979447 -0.105844915 -0.10502984 -0.10280788 -0.027112603 0.04022526 0.09638273 -0.111263566
-0.006254971 0.02536752 0.07530586 0.056905396 -0.09406866 -0.014071442 -0.096938044 -0.069031075
0.061741583 -0.030443922 -0.112987466 0.090633474 0.022309266 0.056212522 0.078484006 0.087113194
0.039505564 -0.020907536 0.0083047375 0.10213169 0.09517468 -0.063392416 0.10212693 -0.0871661
-0.032271884 0.047250785 0.02134686 0.10376849 -0.08249389 0.018868156 -0.016606897 0.06493715

bias f4 [8]
00000000: c3e8 e03d 4778 90bd a6f4 e63d 333d c1bd
00000010: caee a63d 6a72 8f3d a0be 7ebc f118 f2bc
0.10981896 -0.07054191 0.11277132 -0.09435501 0.08151014 0.070042446 -0.015548378 -0.029552909

weight f4 [128, 192]
00000000: 2919 85bc 9c4a 1a3d bc5d 4fbd 6562 05bb
00000010: cfe4 15bd 1d5d 67bd 6d2f 853c 394c 0bbc
00000020: d024 35bc bb75 883c c2a3 9bbc 8169 543d
00000030: c794 65bc d378 843d cab2 29bd 9820 0dbd
00000040: 9282 86bd 748f cbbc 4e87 143d 9e44 3fbd
00000050: d0b9 633c 9cae 39bd 3d27 21bd 84c1 aa3c
00000060: 1fb5 1ebd 7887 89bd be6f 69bd 2444 593c
00000070: 73f0 213d 7592 863d 4837 d0bc f2d0 8fbd
00000080: bcfa 723d 5783 48bd e1ec 2c3d e25a 5ebd
00000090: 639f 88bd 834e 60bd 1182 13bd 8cca 61bd
000000a0: c683 403d c091 4a3c 9c18 803d 3094 8bbc
000000b0: a8ad 603d e529 5d3c 4606 8d3d e1f1 6d3d
000000c0: 66cc fcbc a856 d63c 163e 46bd 2399 08bd
000000d0: f33d 843d d36e 843d 2750 1c3d 59ef 92bd
000000e0: b87c 3d3a fb81 2d3d 49fc 283d 0c9c 7b3d
000000f0: 8ad7 0b3b 62a8 8e3d b223 603c 6c3e 333d
00000100: f56b 793d 1f5b 7cbc 734d f0bc 255a d13c
00000110: 8f14 6bbd 85ca 0abd 90aa 7f3d c3e5 14bd
00000120: 08c7 c13c 9e66 8f3d 8c7d 163d ea43 e5bc
00000130: 6359 07bd 2444 9b3c f7c5 82bd 387b 503c
00000140: f83a a83c 8d66 0bbd 84b7 c03c 4c61 34bd
00000150: 4806 b1bc d2e3 fcbc 4c3d 4d3d b06d f93c
00000160: b811 143c 2c33 1b3d 1e86 8abc 88b2 0fbd
00000170: 24f0 8bbd e0e7 7f3d 7af7 aabc 0c9f 413d
00000180: 16b7 df3c c9ef 87bd 2b6a 8e3d 37c1 6dbd
00000190: c28c f33c a230 12bd 3fde 0fbd 1fb5 5f3c
000001a0: c282 713d da2e ce3c 29ab 7dbc 61fd 27bd
000001b0: 8e8b ed3b cbce cbbc b302 8abd 6c45 bdbc
000001c0: ae8c 8c3d a656 29bd eabf 74bd 056c 413d
000001d0: 256b 8cbd de37 93bc c154 853d 599d 91bc
000001e0: b644 2a3d f937 81bc 92af fa3b 0414 8fbd
000001f0: 37a7 81bb 7856 43bd 85d0 05bc 5611 063a
00000200: df01 1abd 9f58 8dbd b04c 513d 2343 143c
00000210: 867c 87bd f977 ce3b 6fba 55bd b5b7 99bc
00000220: b931 1a3d d1f3 163a f165 003d d5cd 41bd
00000230: 9d45 75bd 0498 713d cd71 0cbd 22a0 67bd
00000240: 3079 3b3d c244 1f3d 580d d33c 64d6 633d
00000250: e047 e53b c856 d03c e834 3b3d 809f 4bbd
00000260: 66b3 1fbd de09 3fbd 6098 7a3c 6a63 123d
00000270: f9b8 11bd e41f fb3c e05c 533d 7084 cabb
00000280: 0967 76bd 779a 5fbd b8a4 8f3d 1e00 343d
00000290: 4c28 2e3d 3662 ecbc b05a cebb 2ce3 853d
000002a0: 8985 3abb cc5e 9cbc 8cd3 133d e62e 26bd
000002b0: 24cf 6c3d 7652 ca3c ce92 51bd e1c2 37bd
000002c0: 404e 263d ec94 b3bc 67cf 6b3d 6112 36bd
000002d0: 34a5 943c 0304 90bd 019f 8b3c 66ec ce3c
000002e0: 8058 2aba 885f 503c 238a 413d fbe1 fe3c
000002f0: 1ff3 243d 607f bf3b 5729 05bd ce5b 473d
00000300: 2ef5 423d 6851 7c3d 4b7e 2ebd 6384 4dbd
00000310: 1834 5d3d 9487 62bd 08bd 253c 9a00 88bc
00000320: 5201 2cbd 7462 e2bc 34f9 2cbd d4cd f73c
00000330: 06ea ffbc 00f7 46bb 3f34 07bd 5af8 57bd
00000340: 0684 2f3d 14ff 2cbd c482 3a3d 40e8 a73a
00000350: 00c1 5e3d 62e6 2b3d ce27 38bd 0c5e 113d
00000360: 5461 3fbd 849d a93c 1ee9 75bd 8c73 433d
00000370: e0d1 283d cc7f 47bd d80b 82bd b833 a7bc
00000380: e075 2b3d f60b 163d 0030 6539 084a 663d
00000390: 9405 cebc f435 5a3d 56bb 13bd 28dc f13c
000003a0: ac05 303d ba77 56bd 48d3 04bc b070 ae3b
000003b0: 6cf6 353d c8cc 163d 409e 99bc c63b 303d
000003c0: 5498 b13c 82b8 25bd 943c a7bc 6903 86bd
000003d0: c4f8 30bd 1c55 1a3d e428 88bd 03b6 80bd
000003e0: f87c 22bc 605a 77bc 48dd 543c bc27 803d
000003f0: a426 b83c c859 923d 3196 7dbd 141d 5e3d
-0.016247349 0.03766881 -0.0506265 -0.0020352837 -0.036595162 -0.056485284 0.016257966 -0.00850206
-0.01105614 0.0166577 -0.018998984 0.05185843 -0.014012522 0.06468358 -0.041430272 -0.034454912
-0.06567873 -0.024848677 0.03626185 -0.046696298 0.013899282 -0.045332536 -0.03934406 0.020844229
-0.03874695 -0.06715292 -0.05699133 0.013260875 0.03953595 0.06570903 -0.025416985 -0.07022275
0.05932115 -0.04895338 0.042218093 -0.05428589 -0.066710256 -0.054762375 -0.036012713 -0.055124804
0.04700067 0.012363851 0.06254694 -0.017038435 0.05485311 0.013498758 0.06885962 0.058092
-0.030859184 0.026164368 -0.048399054 -0.033349168 0.064571284 0.064664505 0.038162377 -0.07174558
0.00072283624 0.042360287 0.041256223 0.061428115 0.0021338188 0.0696571 0.013680385 0.043760702
0.06089397 -0.015402584 -0.029333806 0.02555568 -0.057392653 -0.033884544 0.06241852 -0.03635193
0.023654476 0.070019946 0.036740825 -0.027986486 -0.03304423 0.01895339 -0.06385415 0.01272469
0.020535931 -0.034033347 0.023525007 -0.044038102 -0.02160944 -0.030870352 0.050107285 0.03044781
0.009037428 0.0378906 -0.016909655 -0.03508237 -0.068329126 0.062476993 -0.02086996 0.04727082
0.027308982 -0.06637532 0.06953844 -0.058045592 0.029730204 -0.03569091 -0.03512406 0.0136540225
0.05896259 0.025168825 -0.015482702 -0.041013125 0.007249302 -0.02487888 -0.06738796 -0.023104392
0.0686277 -0.0413424 -0.059753336 0.047222156 -0.06856374 -0.017970975 0.06510306 -0.017775225
0.041569434 -0.01577376 0.007650324 -0.069862396 -0.003956701 -0.047689885 -0.008167391 0.00051142776
-0.03759944 -0.06901669 0.051098526 0.00904921 -0.06615548 0.006300923 -0.05217975 -0.018764356
0.037645075 0.00057583774 0.03134722 -0.047315437 -0.05988084 0.058982864 -0.034288216 -0.0565492
0.04576987 0.038883932 0.025763199 0.05562438 0.0069970936 0.025432006 0.045704752 -0.049712658
-0.038989447 -0.04664027 0.015295118 0.03573934 -0.035576794 0.030654855 0.051602244 -0.0061803386
-0.060156856 -0.05459067 0.070138395 0.043945424 0.0425189 -0.028855424 -0.006297432 0.0653747
-0.002846094 -0.019088171 0.03609042 -0.04057207 0.057814732 0.024697524 -0.051165394 -0.044863585
0.04060197 -0.021921597 0.05757084 -0.04445112 0.018145181 -0.07032015 0.017043592 0.025259208
-0.0006498173 0.012718089 0.047250878 0.031113615 0.04027092 0.0058440417 -0.032510128 0.048671536
0.047597103 0.061601073 -0.04260091 -0.050175082 0.05400476 -0.05530508 0.010115869 -0.01660185
-0.041993447 -0.027634837 -0.042229846 0.030249514 -0.03123952 -0.0030359626 -0.03300881 -0.05272708
0.042850517 -0.04223545 0.045534864 0.0012810305 0.054383278 0.041967757 -0.044959836 0.03549008
-0.04672368 0.020704992 -0.06003677 0.047717616 0.041215777 -0.04870586 -0.06349915 -0.020410404
0.04186046 0.0366325 0.00021857023 0.056222945 -0.025149144 0.05327411 -0.03606733 0.029523924
0.04297416 -0.052360274 -0.008107014 0.005323492 0.04442446 0.03681639 -0.018752217 0.043025754
0.021679081 -0.040459163 -0.020414628 -0.06543619 -0.04320599 0.037678823 -0.06648424 -0.06284716
-0.00991749 -0.015097231 0.012992211 0.06257579 0.022479363 0.07146031 -0.06191081 0.05422695

bias f4 [128]
00000000: 7cdc aebc 16ab 4bbd a377 873d 8cd1 d6bc
00000010: d062 c53c 083f 823d 98b5 71bd 2ce1 3bbc
00000020: 0777 07bd b2f6 603c de1a 8c3d 9817 6f3d
00000030: d549 35bd 1ef6 133d 8076 8c3d 58c5 41bc
00000040: e0c6 28bc 9008 733d 3d05 743b b151 0f3d
00000050: 5b0d 893d c75d 03bd 31ba 52bd 8574 a73c
00000060: 2109 3dbd 60e1 a1bc c4db 913c 7877 92bd
00000070: a23d 2a3d e120 83bd 9f1e 4b3c 8864 653c
00000080: 044a 7ebc f2cc a23d df4c 583c 8362 9a3d
00000090: 523e 2e3b 6968 863d 56ff 2d3d 9a06 92bd
000000a0: 6a13 543c 56c2 6a3d f4bd 3d3d 4af5 1fbd
000000b0: e47b 69bd 423b ff3c 6447 52bd 98bd 4f3d
000000c0: 20b7 983b f442 623d 1542 613d 96a2 86bc
000000d0: 57ca 82bd 1e3f 38bd 2266 8f3d 567e c73c
000000e0: 8899 7d3d 2c97 75bd 82ad 193d 08be 253d
000000f0: 857d 833c 3225 7cbd 1276 8a3d 0c15 2ebd
00000100: 3459 c1bc e32d a43c 8520 683d 084e 733d
00000110: 9c5f 7c3b a2d8 813d eeb3 d53b 2454 0c3d
00000120: 4d2c 973d e37b 71bd d1f0 043d 016b 64bc
00000130: 8d73 65bc 4467 f13c 7273 c2bc 80b5 05bc
00000140: 6f72 8ebd 15e5 6d3b 5a17 2cbd abdb 85bd
00000150: 0670 57bd 7e1e 143d 3024 943c 45b8 e1bc
00000160: 3a68 ef3c f3b9 0d3d 2805 643d 60fe 0fbb
00000170: ab76 2abb 5eb0 83bd a576 4d3d 4746 75bd
00000180: ea47 8ebd 4e00 873d f2dc 8b3d 3f8f 3b3d
00000190: 380f a03d 3323 423d 11bf 3ebd 1707 f8bb
000001a0: e8a7 0a3c 802b 4e3d 9ded 4f3d 7d2b 16bd
000001b0: a6db 923d d7c6 813d e0bf 003d 5d05 563d
000001c0: ae22 84bc dbf0 8bbd 8f20 8cbd 8e0c 8a3d
000001d0: fdfc 523d a8f2 53bd 6479 a03c 8ba9 013d
000001e0: c97a 61bd 2429 0b3d 3575 8cbd 8652 3b3d
000001f0: d960 60bd 8e9f 85bc 301e f5bb e0ea e5bc
-0.02134537 -0.049723707 0.06614616 -0.026222967 0.024094969 0.063596785 -0.059011072 -0.011467259
-0.033072498 0.013730692 0.06841062 0.05837211 -0.044259865 0.036123388 0.068585396 -0.011826836
-0.010301322 0.059334338 0.0037234568 0.034990016 0.066920005 -0.032071855 -0.051447097 0.020441303
-0.046151284 -0.019760787 0.017804988 -0.07151693 0.041562684 -0.064027555 0.012397437 0.014001019
-0.015520576 0.079492465 0.013201921 0.07538321 0.0026587439 0.065628834 0.042479835 -0.071301654
0.012944082 0.05731424 0.04632373 -0.039052285 -0.057002917 0.031156186 -0.051337615 0.05071792
0.004660502 0.055239633 0.05499466 -0.016434949 -0.063862495 -0.04498207 0.07001902 0.024352234
0.061913997 -0.05995862 0.037518986 0.04046443 0.016051063 -0.06155891 0.067608014 -0.04250054
-0.023602106 0.020041412 0.056671638 0.05940059 0.0038509136 0.063401476 0.0065216934 0.03425993
0.073814966 -0.05895604 0.032456223 -0.013941527 -0.0140046 0.029468186 -0.02373669 -0.008160949
-0.0695542 0.0036299874 -0.042014457 -0.06536039 -0.05259707 0.036161892 0.018083662 -0.027553687
0.029224504 0.034601163 0.05566898 -0.0021971688 -0.0026010673 -0.06430124 0.050161976 -0.059881475
-0.0694731 0.06591855 0.06829251 0.045790907 0.07815403 0.04739685 -0.046568934 -0.0075692046
0.0084628835 0.050334454 0.050763715 -0.036662567 0.07170801 0.06336754 0.031432986 0.05225121
-0.016129818 -0.06833049 -0.068421476 0.06740676 0.0515108 -0.051745087 0.019589134 0.03165583
-0.055048738 0.03397478 -0.06858293 0.045732997 -0.05477986 -0.016311433 -0.0074804053 -0.028066099

weight f4 [16, 128]
00000000: a5f4 e9bc 67ca 30bd 5df9 3f3c a986 a03d
00000010: 5b35 053d ac6d 413d a617 fcbc 6497 153d
00000020: 2094 82bd 76fd 8ebd 8486 7c3d 216e 093d
00000030: 153f a4bd 6abf 24bd 9f3b 54bd ff7a 9dbd
00000040: 0e15 a1bd 403b a4bd a57a 70bc 5813 843d
00000050: 91d3 5d3d 9366 b13d a0eb 12bc dbc5 c33b
00000060: de90 6c3d 1652 8bbd 0596 83bd 1083 85bc
00000070: 329b 813d a0fd 963b be0b 9f3d 78fd 943c
00000080: 979c 963d 7873 74bc 0a67 d1b9 6f9b 3abb
00000090: a180 a6bd 0eff a53d 50f3 a03d ae10 73bd
000000a0: 48e5 afbd a805 313d 919e 0fbd 300d 013d
000000b0: 1929 7ebd df42 bb3c a7b5 8b3d ea50 203d
000000c0: 7e87 4f3d 0eaf 5cb8 43a1 dbbc c897 973c
000000d0: f0b7 f53c aafa 083d d469 a3bd 0d2e b53b
000000e0: 09c9 183c bd55 983d 12d3 7c3d 1fbb 753c
000000f0: db7d e23c 308c c23c 7c2c a73d 3137 a13d
00000100: f406 a63d 8f33 283d a673 1fbd 4e8d 413d
00000110: 256e a23d f3b4 20bc 59c9 dc3c 2f11 8abd
00000120: b8cb 73bd 3e4a 71bd ea16 94bd 392d ae3d
00000130: f0c3 973d 2853 f1bc f057 c9bb 8e47 30bd
00000140: d266 2cbd 03e2 b13d 832b 81bd aaea 38bd
00000150: 6026 30bb ec28 53bd 779e dd3c 63ef 0a3d
00000160: 7fbd 46bd 83fc adbd 92fe fa3c 0612 263d
00000170: 4756 593b eac9 d9bc f1b4 37bd 6a4f 7bbd
00000180: 2c0c 123d 2dea 35bc 0e68 763d a345 483d
00000190: f931 b4bc c751 133d d1ce 1cbd 8477 83bc
000001a0: 504b 2abc f36f c23c acd6 823d 171b a33d
000001b0: c1ff 22bd a233 ae3d 78aa 89bd 8307 ca3c
000001c0: bef7 973d 308b 0abc 1ead 6d3d 9a65 263d
000001d0: 38c8 aabc a016 50bc e711 0b3d 7204 aebc
000001e0: 30ca 9b3c 93de 2e3d 09db 68bd fd48 78bc
000001f0: a625 9c3d 5d45 2abc 60fa 4e3b 5b32 963d
00000200: c1b0 a63d 8076 9abc c797 0ebd 7eb5 46bd
00000210: d277 823d a4e1 3abd 84a5 aebd 7a23 363d
00000220: b460 f23c 60fb abbd a534 a9bc 960e acbd
00000230: 5316 913d 8d18 b1ba 4e5c 87bd 133d 473d
00000240: 3e5b a8bd a017 cebb 7c0a 1d3d 7859 ac3d
00000250: 9613 c2bc 0a4a 2cbd 202d a2bb 9674 153c
00000260: 26d7 26bc 2caa debc d7a6 82bd f2f9 6fbd
00000270: 051f 923d d898 3ebc 5ec3 a93d 6ea0 7c3c
00000280: d81e 383c 3b1b e3bc 0161 85bd 18cd f7bc
00000290: ec2d ac3d 9359 543d f700 9b3c e772 31bd
000002a0: 9d1f d7bc 9768 bf3c c313 2abd eb81 813d
000002b0: de1c 033d 81c4 743d 4abd 473d 6e65 cf3b
000002c0: b02a 773c de09 b1bd 13b9 eb3b ee31 443d
000002d0: fce9 55bd c056 f53b 53ec 19bd e144 383c
000002e0: 6d92 923d 956d 3dbd 374e 763b d917 06bd
000002f0: 7ae3 cbbc cec6 79bd e221 ea3c 4ea2 3e3d
00000300: 300c aebc 8a6e 903c ca76 dc3c ff84 77bc
00000310: dc73 a23c b621 a3bd eeff 82bd 4e6b b8bc
00000320: 3e82 a63c d097 15bc 5e97 883d 8dbf 863d
00000330: c36e 44bc d283 a33d aef7 613d 9fdc 8e3d
00000340: c7d1 993d 8570 443d 3662 1c3d 033c 92bd
00000350: 8d69 b33d fad4 31bd eec8 b23c 607d 98bd
00000360: 636d d339 b126 ef3b 90b1 8a3b f05b 7dbc
00000370: 94fc 5fbd 5def a63d bc5f b0bd 3033 4f3c
00000380: f037 d6bb 7cc2 8fbb 7d98 983d 30c0 983d
00000390: 2fe0 21bd 7b61 ccbc ca0a 49bd 7e06 fa3c
000003a0: 8de3 8e3d 03d0 933d a943 e53c 86be cd3c
000003b0: bfdf d9bc 1ede afbc c19d a6bc 163a 243d
000003c0: 2a76 913d 9080 93bd 2ef9 7c3d b589 3abd
000003d0: 66f4 fd3c f0c6 c03b 9aa1 77bd 9e11 883d
000003e0: 3000 74bc ab6f 983c 84b1 893c 3e43 a3bd
000003f0: c94d 143d db02 833d 51f1 34bd 9812 123d
-0.028559038 -0.043161776 0.011717168 0.078381844 0.032521587 0.047223732 -0.030772995 0.03652133
-0.06375909 -0.069819376 0.06165172 0.033552293 -0.080198444 -0.04022161 -0.05181467 -0.07689475
-0.07865344 -0.080191135 -0.014677678 0.06449002 0.054156844 0.086621426 -0.00896731 0.005974514
0.057755344 -0.06802766 -0.06425098 -0.016297847 0.06328429 0.004607871 0.077659115 0.01818727
0.07354086 -0.014920108 -0.00039940357 -0.0028473993 -0.08130003 0.081052884 0.07858908 -0.05934208
-0.08588654 0.043218285 -0.03506333 0.031506717 -0.062050913 0.022859035 0.06821757 0.039139666
0.050666325 -5.261512e-05 -0.026810294 0.018504992 0.029994935 0.033442177 -0.079791695 0.0055291713
0.009325274 0.07438228 0.06172473 0.014998226 0.027647903 0.023748487 0.081627816 0.07871855
0.08106795 0.041064795 -0.03892865 0.0472539 0.07931165 -0.009808767 0.026951479 -0.06741559
-0.059520453 -0.058908693 -0.07230933 0.08504719 0.07410419 -0.029458597 -0.006144516 -0.04303699
-0.042090245 0.086856864 -0.06307127 -0.045145668 -0.0026878342 -0.051552698 0.027053101 0.033919703
-0.04852056 -0.084954284 0.030638967 0.040544532 0.0033162998 -0.026585538 -0.044850294 -0.061355032
0.03565614 -0.011103195 0.060157828 0.048894536 -0.021996485 0.03596666 -0.038283173 -0.0160482
-0.010393932 0.023735022 0.06388602 0.07964151 -0.039794687 0.08505942 -0.067219675 0.024661785
0.074203 -0.008456036 0.058026426 0.04062424 -0.020847425 -0.012700707 0.03395262 -0.021242354
0.019017309 0.042692732 -0.056849513 -0.0151541205 0.07624368 -0.010392514 0.003158234 0.07333823
0.08139182 -0.018855333 -0.034812715 -0.04851293 0.0637051 -0.045625344 -0.08527663 0.044467427
0.029587127 -0.08397555 -0.020654986 -0.084012195 0.07084336 -0.0013511345 -0.066094026 0.04864223
-0.08220528 -0.0062894374 0.038340077 0.08415502 -0.02369098 -0.042062797 -0.004949227 0.009122035
-0.010183131 -0.027180754 -0.063794784 -0.058587976 0.07134823 -0.0116331205 0.082892165 0.015419109
0.0112378225 -0.027722945 -0.06512643 -0.030249164 0.084071964 0.051843237 0.018921359 -0.04332247
-0.026260192 0.023365302 -0.041522752 0.06323608 0.03200995 0.059757713 0.048764504 0.00632923
0.015085861 -0.0864446 0.0071936934 0.04789918 -0.052225098 0.007487148 -0.037578892 0.011246891
0.07156835 -0.046247084 0.003758324 -0.032737587 -0.024888743 -0.06098061 0.02858061 0.046541505
-0.021246046 0.017630834 0.026912112 -0.015107392 0.019830637 -0.07965414 -0.06396471 -0.022512104
0.020325776 -0.009130433 0.06669496 0.06579504 -0.011989298 0.07984127 0.055167846 0.06975674
0.07510715 0.04795887 0.0381796 -0.071403526 0.087603666 -0.043416 0.021824326 -0.074457884
0.00040326556 0.0072983135 0.004232593 -0.015463814 -0.054684237 0.08151124 -0.0861201 0.012646481
-0.00653743 -0.004387198 0.0745096 0.07458532 -0.03952044 -0.024948826 -0.049082555 0.030520674
0.069769956 0.072174095 0.027986364 0.025115263 -0.026595948 -0.021468218 -0.020338895 0.040094458
0.07102616 -0.07202256 0.061761074 -0.045541484 0.031000327 0.00588309 -0.06045685 0.06643985
-0.014892623 0.018607935 0.016808279 -0.0797181 0.036206994 0.06397029 -0.04417545 0.035662264

bias f4 [16]
00000000: 9a87 83bd ec5d 2fbb 298a 243d 877a 0b3d
00000010: cf12 7ebd bfb1 65bc 448a 163d 5786 273d
00000020: 4211 68bd 9ca5 2d3d 76ef e7bd 16c3 edbd
00000030: 4ce6 36bd 3dd3 cabd 67d4 4abd 5e16 1a3d
-0.06422348 -0.0026758863 0.040170822 0.034052398 -0.062029656 -0.014019429 0.036752954 0.0408996
-0.056657083 0.042394266 -0.113249704 -0.11609475 -0.044653222 -0.09903572 -0.04951897 0.037618987
