model-doom.pth (torch, 114543 bytes, 8 tensors)

weight f4 [8, 1, 6, 6]
0.05705199 -0.12074655 -0.10388326 0.08987326 0.12519737 -0.08337323 -0.17992811 -0.007126958
-0.14300674 -0.03697506 0.13259695 -0.07882456 -0.15010522 0.056487203 -0.15220173 -0.0559401
0.01490936 0.06587341 -0.09046017 -0.025307737 -0.0785139 -0.1502265 0.030021656 -0.0590483
-0.023373146 -0.027555203 -0.016141219 -0.017133554 0.13571304 0.10810927 0.034866128 -0.0664766
-0.16064619 0.15254234 0.03755797 -0.11346814 0.026824148 -0.16086312 0.10786887 -0.1865069
-0.011650793 0.09653691 -0.057206787 -0.2210808 0.052434735 -0.1407045 -0.16376865 -0.2566758
0.042411365 -0.03260729 -0.15622233 -0.051443633 -0.10576667 0.0019857446 -0.07778924 0.10971348
-0.043259796 0.06440451 -0.007828653 -0.10973633 0.109061666 0.22191238 0.20098162 0.23266976
0.23061849 0.10157559 0.0131978225 0.01665248 -0.09110453 0.12303663 0.0014717206 0.060966775
-0.073892094 -0.0016431536 -0.12880142 0.11725678 0.05753817 -0.18841071 -0.16931437 0.050661508
-0.020913387 -0.20460358 0.117607445 -0.09865151 -0.014285187 0.080607526 -0.11923403 0.08243737
-0.09176517 0.10616164 0.13690369 0.08328598 0.042696282 -0.10938996 -0.16211477 -0.065204054
0.00581073 0.025591066 -0.037804432 0.14960976 -0.15791719 0.10980111 0.031728595 0.14199038
-0.020094378 -0.042603105 -0.11311052 -0.022051806 -0.085716866 0.0086002285 0.07973815 -0.10662432
0.12225699 -0.10708793 0.035335436 0.019130472 0.096059665 -0.018822 -0.16489266 -0.0065602413
0.11521272 0.090645105 -0.017312547 -0.0009903937 0.02468777 -0.04324285 -0.0336363 0.12979318
-0.02166719 0.16329016 -0.13148023 -0.004564703 0.028387506 -0.07856678 0.14356863 -0.10739153
-0.041080583 -0.13267691 -0.12110041 0.102318354 0.10535922 -0.068198204 -0.13238987 -0.12088633
0.1324394 -0.08820987 0.030259855 -0.13226095 -0.13808365 -0.06828366 0.009071922 -0.051675536
-0.061174665 -0.14376251 -0.08479639 0.057645828 -0.0007138743 -0.052191157 0.15151167 0.028792188
-0.08252031 -0.032881103 0.003500343 0.0456345 0.118259676 -0.028968394 0.14736214 0.06716601
-0.14093329 0.0053060907 0.14811753 -0.10815001 -0.022173708 -0.16533682 0.097552344 -0.113909885
0.08302541 0.083245225 -0.12228277 0.12211369 0.07148997 -0.09664028 -0.065840535 -0.17797013
-0.10093346 -0.13191319 0.062331498 0.11164946 0.11840112 -0.024415882 -0.08454188 -0.1246217
0.06605672 -0.2511158 0.03090124 -0.035113767 -0.0805591 -0.0075580655 -0.058466006 -0.0014494378
0.09701638 0.14297761 0.010754892 -0.15970854 0.14259131 -0.020011833 -0.08883487 -0.05838323
0.17357995 0.13166788 0.025740074 -0.032744896 -0.025527023 0.12114782 0.04000675 0.14350039
-0.10403049 -0.1007608 -0.056573547 0.061576616 0.10901072 0.073391154 0.015947482 -0.17376624
-0.012415065 0.12741777 -0.014871566 -0.17746048 -0.0384413 -0.030979712 0.015631566 -0.064413466
0.017748669 0.045256846 -0.030916624 0.09668744 0.08854934 -0.05337532 0.118426204 -0.14871219
-0.07194172 0.09506934 0.020813555 0.08371375 -0.11875191 -0.15334395 0.066862755 -0.046459105
-0.085723 0.0113460915 -0.16483223 0.16548012 -0.14790109 0.092071496 -0.053890962 0.050342042
00000000: 59af 693d f849 f7bd bfc0 d4bd 790f b83d
00000010: bd33 003e 96bf aabd 133f 38be 4289 e9bb
00000020: 5c70 12be 2973 17bd 7fc7 073e c56e a1bd
00000030: 2fb5 19be 205f 673d c5da 1bbe 7221 65bd
00000040: 6346 743c a3e8 863d 2e43 b9bd 2c52 cfbc
00000050: e5cb a0bd fad4 19be faef f53c a1dc 71bd
00000060: 0a79 bfbc 73bb e1bc 973a 84bc ab5b 8cbc
00000070: 5cf8 0a3e 6568 dd3d c9cf 0e3d e224 88bd
00000080: 6f80 24be 0f34 1c3e 63d6 193d fc61 e8bd
00000090: 51be db3c 4db9 24be 5bea dc3d aafb 3ebe
000000a0: f8e2 3ebc 25b5 c53d aa51 6abd 0163 62be
000000b0: cec5 563d d714 10be f8b2 27be 036b 83be
000000c0: 8ab7 2d3d 398f 05bd bff8 1fbe 8fb6 52bd
000000d0: 329c d8bd 4423 023b f74f 9fbd 76b1 e03d
000000e0: 2f31 31bd 83e6 833d c043 00bc 71bd e0bd
000000f0: b95b df3d 003d 633e 20ce 4d3e fb40 6e3e
00000100: 4127 6c3e dd06 d03d ae3b 583c c86a 883c
00000110: 0395 babd a1fa fb3d c0e6 c03a 4cb8 793d
00000120: bd54 97bd 165f d7ba 85e4 03be 5324 f03d
00000130: 25ad 6b3d bdee 40be bf60 2dbe 7182 4f3d
00000140: 8d52 abbc 9a83 51be 2cdc f03d ce09 cabd
00000150: 6b0c 6abc 8f15 a53d f930 f4bd edd4 a83d
00000160: 61ef bbbd 466b d93d 7b30 0c3e d791 aa3d
00000170: 4ce2 2e3d d807 e0bd 6a01 26be b489 85bd
00000180: f067 be3b 5ba4 d13c d2d8 1abd 4d33 193e
00000190: 0bb5 21be 68df e03d d8f5 013d ed65 113e
000001a0: f79c a4bc 9880 2ebd 7da6 e7bd fda5 b4bc
000001b0: 538c afbd f9e7 0c3c c14d a33d da5d dabd
000001c0: df61 fa3d eb50 dbbd e4bb 103d 82b7 9c3c
000001d0: eeba c43d 9830 9abc 9fd9 28be 4bf7 d6bb
000001e0: a6f4 eb3d 24a4 b93d 0bd3 8dbc 19d0 81ba
000001f0: 023e ca3c 6a1f 31bd 38c6 09bd 81e8 043e
00000200: 647f b1bc 8935 273e c1a2 06be 8193 95bb
00000210: ea8c e83c 9fe7 a0bd a803 133e 17f0 dbbd
00000220: 1d44 28bd 75dc 07be 7e03 f8bd 498c d13d
00000230: 93c6 d73d 80ab 8bbd 3691 07be 4193 f7bd
00000240: 329e 073e 60a7 b4bd 84e3 f73c 6a6f 07be
00000250: cd65 0dbe 4ed8 8bbd 66a2 143c baa9 53bd
00000260: 4992 7abd 7b36 13be bba9 adbd 081e 6c3d
00000270: 4b23 3bba 65c6 55bd e025 1b3e 98dd eb3c
00000280: 6900 a9bd 56ae 06bd 0366 653b 3eeb 3a3d
00000290: 2132 f23d 204f edbc 1ae6 163e 558e 893d
000002a0: d150 10be b7de ad3b 1fac 173e c17d ddbd
000002b0: a3a5 b5bc 0e4e 29be 86c9 c73d 9649 e9bd
000002c0: 3a09 aa3d 797c aa3d 646f fabd be16 fa3d
000002d0: 5569 923d 57eb c5bd 67d7 86bd cd3d 36be
000002e0: 34b6 cebd 4014 07be 504f 7f3d 79a8 e43d
000002f0: 497c f23d d103 c8bc 4b24 adbd a939 ffbd
00000300: bf48 873d 4092 80be 9924 fd3c 74d3 0fbd
00000310: 2bfc a4bd a6a9 f7bb 0d7a 6fbd 10fb bdba
00000320: 86b0 c63d b968 123e 4935 303c a38a 23be
00000330: 7503 123e dbef a3bc 0eef b5bd 4123 6fbd
00000340: f1be 313e f2d3 063e d9dc d23c 831f 06bd
00000350: 0c1e d1bc 591c f83d 1ede 233d c4f1 123e
00000360: f00d d5bd ae5b cebd aab9 67bd c337 7c3d
00000370: 0341 df3d 1a4e 963d 4ba4 823c c7ef 31be
00000380: 8f68 4bbc ce79 023e dea7 73bc 33b8 35be
00000390: a074 1dbd 2ac9 fdbc c50d 803c 35eb 83bd
000003a0: a865 913c 3e5f 393d dc44 fdbc 1104 c63d
000003b0: 5b59 b53d 14a0 5abd 7089 f23d 0248 18be
000003c0: 2e56 93bd b7b3 c23d 3081 aa3c 1d72 ab3d
000003d0: 3434 f3bd 3206 1dbe 57ef 883d e74b 3ebd
000003e0: 8a8f afbd f5e4 393c c8c9 28be 9f73 293e
000003f0: 6273 17be fb8f bc3d c5bc 5cbd 7533 4e3d

bias f4 [8]
0.2737345 2.2585049 0.6746447 -0.13880531 0.037473377 1.3539164 0.5830215 -0.04091752
00000000: ee26 8c3e 588b 1040 84b5 2c3f fb22 0ebe
00000010: af7d 193d 224d ad3f e640 153f 2199 27bd

weight f4 [8, 8, 3, 3]
-0.0025987846 0.005743367 -0.097316094 0.0840918 0.041599978 0.038928796 -0.0076408302 0.061478753
0.06251015 0.05479669 0.06481579 0.07709459 -0.10850943 -0.09360368 -0.104889825 0.058143616
-0.0011878281 -0.06357491 0.093735486 -0.104606554 -0.063092135 -0.065774255 -0.098497935 -0.08023569
-0.067796834 -0.030775571 0.0854364 0.107967146 -0.07309759 0.009172909 -0.0049570873 -0.011485688
0.03759981 0.08480612 -0.078079075 -0.06229685 -0.040633082 -0.054833706 0.032424927 0.060805276
-0.102601305 0.01504785 -0.054985296 -0.1150319 0.09213846 -0.10716257 0.01859998 -0.022118539
0.061125614 -0.050121795 -0.022478975 -0.11049722 -0.079993084 -0.062103815 -0.0772611 0.03881984
-0.06672862 0.017675847 -0.072622195 0.02240471 0.103668384 -0.11026413 0.0287319 -0.053669296
0.029058985 -0.10431522 -0.10625391 -0.013329893 0.00505237 -0.06949611 -0.008407785 -0.10938037
0.07907111 -0.022649158 -0.08106379 0.007993661 0.09382388 0.074487776 0.14840487 0.02237027
0.13037029 0.39224645 0.35067162 0.40018407 0.43918228 0.42177758 0.46379095 0.61451334
0.47576007 0.6059085 0.1878483 0.19987844 0.1082653 0.1253839 0.18221153 0.10584436
0.17717487 0.056126527 0.14847152 0.017056735 -0.09547725 -0.10295731 0.072152466 0.0076597943
-0.08272502 -0.020028377 -0.10629158 0.09236157 -0.06295077 -0.04618722 0.10835775 0.0049329842
-0.11007282 -0.025947005 -0.037072882 0.025026925 0.022958493 0.3252733 0.2923445 0.19661392
0.1950017 0.29230925 0.2637782 0.3382988 0.3414822 0.26060045 0.081321955 0.19373767
0.0060436255 0.20203917 0.10419277 0.1181154 0.035119474 0.19250128 0.019174289 -0.049949206
0.012305475 0.043445874 0.11732705 0.021027992 0.117461786 -0.079891615 -0.046260037 -0.09617589
0.105174296 0.11935387 0.09165084 -0.008121752 -0.027836455 0.082570985 0.11661432 0.037518702
0.07984283 0.23551425 0.20553437 0.0989178 0.19561699 0.13142231 0.095461145 0.34107026
0.30616283 0.27515522 -0.049839318 0.011825162 -0.016506655 0.04792892 -0.0020936597 0.120593295
-0.064956605 0.0063750567 -0.012487054 -0.048681438 0.07366228 0.059217345 0.052889965 -0.04295212
-0.08929033 -0.11138816 0.08865855 0.0716053 -0.05747799 -0.0484103 0.020034306 -0.0638057
-0.11028534 -0.024902135 0.057217505 0.008246008 0.102116376 0.08794836 0.10176699 0.10932715
0.10987846 0.15135834 0.12552193 0.17574464 0.10541503 0.08296048 0.013337513 0.15070374
0.0070181605 0.038819153 0.07638492 0.15068255 -0.036619782 0.1373493 -0.07126786 0.113756076
-0.030580368 -0.009225589 -0.048872065 -0.004728443 0.058218136 -0.0379367 0.108614646 0.013292376
-0.07898497 -0.10485951 -0.107177705 -0.10135531 -0.027152548 0.03612671 0.096969366 -0.112571284
-0.010509486 0.023208957 0.07865074 0.06095342 -0.09750455 -0.010315728 -0.091700695 -0.075521976
0.064717636 -0.027056813 -0.114847004 0.09010494 0.022708185 0.05482771 0.07770899 0.087051354
0.033456936 -0.022589298 0.0067867115 0.10212901 0.09517762 -0.06338798 0.102126844 -0.087162815
-0.032271873 0.04724748 0.021351533 0.10376747 -0.082589895 0.019067802 -0.01666712 0.0652124
00000000: 5f50 2abb db32 bc3b a94d c7bd 5238 ac3d
00000010: bd64 2a3d cd73 1f3d ee5f fabb 25d1 7b3d
00000020: 5205 803d 7e72 603d 24be 843d c5e3 9d3d
00000030: 313a debd 49b3 bfbd 7ad0 d6bd 0028 6e3d
00000040: e6b0 9bba 9033 82bd 64f8 bf3d f63b d6bd
00000050: 7336 81bd a7b4 86bd 49b9 c9bd 9c52 a4bd
00000060: 11d9 8abd 0d1d fcbc 47f9 ae3d e11d dd3d
00000070: 30b4 95bd f849 163c 106f a2bb 782e 3cbc
00000080: 4202 1a3d d5ae ad3d ece7 9fbd fb2a 7fbd
00000090: e06e 26bd 4f99 60bd 00d0 043d f40e 793d
000000a0: a220 d2bd 428b 763c 4338 61bd d895 ebbd
000000b0: 17b3 bc3d 0d78 dbbd fc5e 983c f031 b5bc
000000c0: da5e 7a3d 834c 4dbd d425 b8bc 5e4c e2bd
000000d0: 6ad3 a3bd 9260 7ebd 113b 9ebd 8d01 1f3d
000000e0: 04a9 88bd f0cc 903c f2ba 94bd 158a b73c
000000f0: 1750 d43d 29d2 e1bd 295f eb3c 56d4 5bbd
00000100: 1c0d ee3c 38a3 d5bd a69b d9bd a065 5abc
00000110: 5a8e a53b fa53 8ebd cec0 09bc d102 e0bd
00000120: 09f0 a13d ba8a b9bc c604 a6bd d8f7 023c
00000130: bc26 c03d 0c8d 983d 72f7 173e db41 b73c
00000140: ca7f 053e 87d4 c83e 3b8b b33e ede4 cc3e
00000150: 80dc e03e 3bf3 d73e 0276 ed3e bf50 1d3f
00000160: d396 f33e d21c 1b3f 4e5b 403e efac 4c3e
00000170: 33ba dd3d a364 003e a995 3a3e eec4 d83d
00000180: 546d 353e eee4 653d eb08 183e 91ba 8b3c
00000190: 9489 c3bd 48db d2bd acc4 933d 03ff fa3b
000001a0: bc6b a9bd 8d12 a4bc 66af d9bd 1028 bd3d
000001b0: 55ec 80bd cf2e 3dbd abea dd3d dfa4 a13b
000001c0: dc6d e1bd d08e d4bc bcd9 17bd 4405 cd3c
000001d0: 7313 bc3c 398a a63e 2eae 953e 2955 493e
000001e0: 87ae 473e 8fa9 953e f00d 873e 8035 ad3e
000001f0: c1d6 ae3e 6c6d 853e 208c a63d 2b63 463e
00000200: 9b09 c63b 5be3 4e3e 0563 d53d 7de6 f13d
00000210: 70d9 0f3d 0e1f 453e 6613 9d3c 8a97 4cbd
00000220: e79c 493c 4df4 313d 2a49 f03d e542 ac3c
00000230: ce8f f03d 379e a3bd 2a7b 3dbd ddf7 c4bd
00000240: 9f65 d73d cd6f f43d 70b3 bb3d 1911 05bc
00000250: 4709 e4bc fa1a a93d 7dd3 ee3d 36ad 193d
00000260: a384 a33d a62a 713e 9a77 523e 6a95 ca3d
00000270: d24f 483e 9293 063e 2281 c33d c3a0 ae3e
00000280: 60c1 9c3e 25e1 8c3e 5024 4cbd 53be 413c
00000290: f738 87bc 1d51 443d c835 09bb 9ef9 f63d
000002a0: f807 85bd dae5 d03b 8096 4cbc 3066 47bd
000002b0: 40dc 963d e38d 723d 26a3 583d 90ee 2fbd
000002c0: d9dd b6bd 7a1f e4bd 9d92 b53d cda5 923d
000002d0: 0a6e 6bbd e149 46bd fc1e a43c 90ac 82bd
000002e0: 48dd e1bd 90ff cbbc e75c 6a3d 441a 073c
000002f0: 6422 d13d 451e b43d 366b d03d eae6 df3d
00000300: f507 e13d aefd 1a3e d288 003e 67f6 333e
00000310: d6e3 d73d 2fe7 a93d 9685 5a3c 1552 1a3e
00000320: 99f8 e53b d500 1f3d b26f 9c3d 874c 1a3e
00000330: a0fe 15bd 4ba5 0c3e e2f4 91bd f2f8 e83d
00000340: ae83 fabc ed26 17bc 132e 48bd 0ef1 9abb
00000350: 2476 6e3d 8363 1bbd 5b71 de3d 44c8 593c
00000360: dfc2 a1bd 95c0 d6bd fc7f dbbd 5f93 cfbd
00000370: 056f debc 9af9 133d e097 c63d c68b e6bd
00000380: fb2f 2cbc b620 be3c a413 a13d 4baa 793d
00000390: 77b0 c7bd 4d03 29bc 93cd bbbd 44ab 9abd
000003a0: ae8a 843d 40a6 ddbc e834 ebbd f088 b83d
000003b0: 8406 ba3c 0593 603d e425 9f3d fb47 b23d
000003c0: 240a 093d 310d b9bc 1063 de3b 0429 d13d
000003d0: 7cec c23d 8fd1 81bd e127 d13d 6b82 b2bd
000003e0: 832f 04bd 9386 413d 69e9 ae3c 0a84 d43d
000003f0: e424 a9bd 1434 9c3c 7c89 88bc 148e 853d

bias f4 [8]
0.111163035 0.6048121 0.40298027 -0.10227397 0.39092988 0.27743754 -0.015548378 -0.04203018
00000000: 72a9 e33d f7d4 1a3f 6e53 ce3e 0475 d1bd
00000010: f627 c83e 4b0c 8e3e a0be 7ebc d727 2cbd

weight f4 [128, 192]
-0.016247349 0.03766881 -0.0506265 -0.0020352837 -0.036595162 -0.056485284 0.016257966 -0.0085020615
-0.01105614 0.0166577 -0.018998984 0.05185843 -0.014012522 0.06468358 -0.041430272 -0.034454912
-0.06567873 -0.024848677 0.03626185 -0.046696298 0.013899282 -0.045332536 -0.03934406 0.020844229
-0.038672537 -0.06708778 -0.056942347 0.013314539 0.039595682 0.065764114 -0.025341418 -0.070171244
0.059365027 -0.048894998 0.04228732 -0.054220326 -0.066624686 -0.05470397 -0.03596041 -0.055052243
0.047092076 0.012442076 0.0626441 -0.016950596 0.054939475 0.013599394 0.06896083 0.05819601
-0.030829847 0.026189901 -0.048380222 -0.033328127 0.06459612 0.06468724 0.038192384 -0.07172498
0.00073972374 0.042383526 0.041284725 0.06145497 0.0021675879 0.06968031 0.013701011 0.043790363
0.060931243 -0.015370295 -0.02929513 0.02559149 -0.057357915 -0.03384446 0.06246017 -0.03630966
0.023655534 0.070021056 0.036742102 -0.027985059 -0.033042427 0.018954907 -0.06385318 0.012725592
0.020536663 -0.034032516 0.02352655 -0.044036273 -0.021608533 -0.030869491 0.050108608 0.030449344
0.009039046 0.03789228 -0.016908852 -0.035081588 -0.06832889 0.06247784 -0.020868385 0.04727233
0.027338663 -0.066349946 0.06955795 -0.058024008 0.029756641 -0.035663623 -0.035093416 0.013676433
0.058982484 0.025195252 -0.0154508995 -0.0409823 0.0072839446 -0.024853392 -0.067364946 -0.023071304
0.06866728 -0.041307848 -0.05971442 0.047258243 -0.06852762 -0.017929435 0.06514751 -0.017730692
0.041588906 -0.015756646 0.0076630665 -0.069847845 -0.003938778 -0.04767217 -0.0081474 0.0005259872
-0.037587073 -0.06899892 0.051119443 0.009069686 -0.06613291 0.0063176528 -0.052165467 -0.01874255
0.03767196 0.0005989172 0.03137375 -0.047291454 -0.05985761 0.059010934 -0.034259386 -0.056518797
0.04576987 0.038883932 0.025763199 0.05562438 0.0069970936 0.025432006 0.045704752 -0.049712658
-0.038989447 -0.04664027 0.015295118 0.03573934 -0.035576794 0.030654855 0.051602244 -0.0061803386
-0.060156856 -0.05459067 0.070138395 0.043945424 0.0425189 -0.028855424 -0.006297432 0.0653747
-0.002846094 -0.019088171 0.03609042 -0.04057207 0.057814732 0.024697525 -0.051165394 -0.044863585
0.04060197 -0.021921597 0.05757084 -0.04445112 0.018145178 -0.07032015 0.017043507 0.025259208
-0.0006498617 0.012718087 0.0472502 0.031113336 0.040270768 0.0058438075 -0.032510128 0.048671536
0.047597095 0.061601073 -0.04260091 -0.050175082 0.05400476 -0.05530508 0.010115869 -0.01660185
-0.041993447 -0.027634837 -0.042229846 0.030249514 -0.03123952 -0.0030359253 -0.03300881 -0.05272708
0.042850517 -0.04223545 0.045534864 0.0012810305 0.054383278 0.041967757 -0.044959836 0.03549008
-0.022769425 0.036813933 -0.046074234 0.062216837 0.06279797 -0.017831782 -0.043871924 -0.00053379824
0.06155752 0.048215374 0.017576426 0.08677844 -0.0015996329 0.07498976 -0.00010362142 0.0584631
0.07023325 -0.019304043 0.034525834 0.040692504 0.10297446 0.1022419 0.026638702 0.08919912
0.03299469 -0.032531325 -0.013320349 -0.058278013 -0.032962132 0.05154255 -0.05653092 -0.053150397
-0.00010089393 -0.009048636 0.021539299 0.076544896 0.03420117 0.08182418 -0.045168508 0.068538345
00000000: 2919 85bc 9c4a 1a3d bc5d 4fbd 6562 05bb
00000010: cfe4 15bd 1d5d 67bd 6d2f 853c 3b4c 0bbc
00000020: d024 35bc bb75 883c c2a3 9bbc 8169 543d
00000030: c794 65bc d378 843d cab2 29bd 9820 0dbd
00000040: 9282 86bd 748f cbbc 4e87 143d 9e44 3fbd
00000050: d0b9 633c 9cae 39bd 3d27 21bd 84c1 aa3c
00000060: 1867 1ebd 5165 89bd 613c 69bd 3925 5a3c
00000070: 152f 223d 56af 863d ce98 cfbc f1b5 8fbd
00000080: be28 733d 1f46 48bd 7835 2d3d 2216 5ebd
00000090: 8672 88bd 4511 60bd 394b 13bd 767e 61bd
000000a0: 9fe3 403d d9d9 4b3c 8d4b 803d fadb 8abc
000000b0: 3708 613d fecf 5e3c 563b 8d3d f05e 6e3d
000000c0: e08e fcbc 348c d63c 572a 46bd 1383 08bd
000000d0: f84a 843d be7a 843d 9e6f 1c3d 8ce4 92bd
000000e0: 05ea 413a 599a 2d3d 2c1a 293d 35b8 7b3d
000000f0: 170e 0e3b 8db4 8e3d 357a 603c 865d 333d
00000100: 0a93 793d b1d3 7bbc 57fc efbc 3fa5 d13c
00000110: 22f0 6abd 7da0 0abd 3cd6 7f3d 70b9 14bd
00000120: 40c9 c13c 3367 8f3d e37e 163d ec40 e5bc
00000130: 7f57 07bd 5247 9b3c 75c5 82bd 007f 503c
00000140: 813c a83c ae65 0bbd c0ba c03c 615f 34bd
00000150: 6104 b1bc 04e2 fcbc af3e 4d3d e770 f93c
00000160: 8218 143c ef34 1b3d 6f84 8abc b6b1 0fbd
00000170: 04f0 8bbd c3e8 7f3d 2df4 aabc a1a0 413d
00000180: 55f5 df3c 7be2 87bd 6674 8e3d 95aa 6dbd
00000190: 33c4 f33c 0514 12bd 1dbe 0fbd 1e13 603c
000001a0: 9e97 713d 4666 ce3c c525 7dbc 0edd 27bd
000001b0: 28ae ee3b 5799 cbbc a2f6 89bd 0800 bdbc
000001c0: 6ea1 8c3d 6b32 29bd 1c97 74bd dc91 413d
000001d0: 3558 8cbd c0e0 92bc 0f6c 853d f53f 91bc
000001e0: 2159 2a3d 1514 81bc 761a fb3b 630c 8fbd
000001f0: dd10 81bb e543 43bd ac7c 05bc 67e2 093a
00000200: e7f4 19bd 4e4f 8dbd 9f62 513d 0599 143c
00000210: b170 87bd 5004 cf3b 75ab 55bd fa89 99bc
00000220: ea4d 1a3d a700 1d3a c381 003d afb4 41bd
00000230: 412d 75bd 73b5 713d 9253 0cbd 4180 67bd
00000240: 3079 3b3d c244 1f3d 580d d33c 64d6 633d
00000250: e047 e53b c856 d03c e834 3b3d 809f 4bbd
00000260: 66b3 1fbd de09 3fbd 6098 7a3c 6a63 123d
00000270: f9b8 11bd e41f fb3c e05c 533d 7084 cabb
00000280: 0967 76bd 779a 5fbd b8a4 8f3d 1e00 343d
00000290: 4c28 2e3d 3662 ecbc b05a cebb 2ce3 853d
000002a0: 8985 3abb cc5e 9cbc 8cd3 133d e62e 26bd
000002b0: 24cf 6c3d 7752 ca3c ce92 51bd e1c2 37bd
000002c0: 404e 263d ec94 b3bc 67cf 6b3d 6112 36bd
000002d0: 32a5 943c 0304 90bd d39e 8b3c 66ec ce3c
000002e0: 7b5b 2aba 865f 503c 6d89 413d 65e1 fe3c
000002f0: f6f2 243d 697d bf3b 5729 05bd ce5b 473d
00000300: 2cf5 423d 6851 7c3d 4b7e 2ebd 6384 4dbd
00000310: 1834 5d3d 9487 62bd 08bd 253c 9a00 88bc
00000320: 5201 2cbd 7462 e2bc 34f9 2cbd d4cd f73c
00000330: 06ea ffbc 60f6 46bb 3f34 07bd 5af8 57bd
00000340: 0684 2f3d 14ff 2cbd c482 3a3d 40e8 a73a
00000350: 00c1 5e3d 62e6 2b3d ce27 38bd 0c5e 113d
00000360: f286 babc 35ca 163d 56b8 3cbd 15d7 7e3d
00000370: 399c 803d f513 92bc 0cb3 33bd 98ee 0bba
00000380: bd23 7c3d 7c7d 453d 70fc 8f3c e5b8 b13d
00000390: c6aa d1ba 3b94 993d 544f d9b8 0177 6f3d
000003a0: 73d6 8f3d 8323 9ebc f66a 0d3d 2fad 263d
000003b0: 46e4 d23d 3464 d13d 6839 da3c 07ae b63d
000003c0: 7125 073d 913f 05bd 983d 5abc edb4 6ebd
000003d0: 4d03 07bd 481e 533d f78c 67bd 3bb4 59bd
000003e0: 0497 d3b8 bb40 14bc 2f73 b03c 92c3 9c3d
000003f0: 8716 0c3d 7093 a73d 9d02 39bd d55d 8c3d

bias f4 [128]
-0.021378249 -0.03426004 0.09107494 -0.026873566 0.017014327 0.080550894 -0.059011072 -0.011467259
-0.033072498 0.013730692 0.086531565 0.08658765 -0.04256405 0.09790173 0.09707879 -0.02395877
-0.010301322 0.08183327 0.007840408 0.061867632 0.06809014 -0.032071855 -0.049285583 0.020005265
-0.06734558 -0.019760787 0.038468104 -0.07153828 0.038274992 -0.064027555 0.029722843 0.032362457
-0.015520576 0.16389757 0.032734368 0.08830497 -0.0024927084 0.1100359 0.02521351 -0.055257425
0.07206908 0.04383701 0.04632698 -0.039241776 -0.05712103 0.031156186 -0.051303666 0.05071792
0.004660502 0.058461413 0.07001286 -0.016434949 -0.063862495 -0.044359587 0.079063445 0.025450977
0.0576509 -0.05995862 0.04753115 0.024619842 0.026930718 -0.06155891 0.065476514 -0.04250054
-0.014170557 0.061431278 0.08419601 0.05940059 0.0038474926 0.06138178 0.0064874426 0.03399354
0.1072605 -0.05827102 0.032140408 -0.013108232 -0.017368361 0.024873655 -0.009000643 -0.008160949
-0.0695542 -0.0039453562 -0.042014457 -0.06536039 -0.05259707 0.09161583 0.016197786 -0.0037504232
0.08998142 0.039734364 0.09098329 0.0012333122 0.024258614 -0.06430124 0.093004644 -0.05727913
-0.06616868 0.10369715 0.06828829 0.044438094 0.10370348 0.07119046 -0.046568934 0.02363483
0.0084628835 0.062440023 0.06115517 -0.042039987 0.11272371 0.05902555 0.03466779 0.06541812
0.0002793622 -0.05732326 -0.068421476 0.07536084 0.0515108 -0.051745087 0.019603271 0.02526839
-0.055048738 0.033676777 -0.03439183 0.045715872 -0.06424817 -0.017461961 -0.0074835997 -0.028066099
00000000: 7021 afbc 4154 0cbd 8085 ba3d f425 dcbc
00000010: a161 8b3c def7 a43d 98b5 71bd 2ce1 3bbc
00000020: 0777 07bd b2f6 603c 7637 b13d de54 b13d
00000030: a457 2ebd b480 c83d 3fd1 c63d 2f45 c4bc
00000040: e0c6 28bc 3498 a73d 0e75 003c ea68 7d3d
00000050: d872 8b3d c75d 03bd aedf 49bd 15e2 a33c
00000060: 7bec 89bd 60e1 a1bc bb90 1d3d a982 92bd
00000070: 3dc6 1c3d e120 83bd 527d f33c 7f8e 043d
00000080: 044a 7ebc c4d4 273e 7914 063d 3cd9 b43d
00000090: b55c 23bb 805a e13d 908c ce3c 9c55 62bd
000000a0: f498 933d 708e 333d 5cc1 3d3d fcbb 20bd
000000b0: bef7 69bd 423b ff3c cb23 52bd 98bd 4f3d
000000c0: 20b7 983b 3c75 6f3d e762 8f3d 96a2 86bc
000000d0: 57ca 82bd 66b2 35bd 04ec a13d 917e d03c
000000e0: 5a23 6c3d 2c97 75bd 06b0 423d 8daf c93c
000000f0: cf9d dc3c 3225 7cbd 8d18 863d 0c15 2ebd
00000100: a02b 68bc 5d9f 7b3d f56e ac3d 084e 733d
00000110: 3726 7c3b 766b 7b3d 9d94 d43b cf3c 0b3d
00000120: 65ab db3d 98ad 6ebd a9a5 033d e9c3 56bc
00000130: 1848 8ebc d6c3 cb3c 6f77 13bc 80b5 05bc
00000140: 6f72 8ebd 0c48 81bb 5a17 2cbd abdb 85bd
00000150: 0670 57bd 15a1 bb3d 38b1 843c a9c9 75bb
00000160: 2e48 b83d 80c0 223d 7255 ba3d 17a7 a13a
00000170: 00ba c63c 5eb0 83bd 3879 be3d 859d 6abd
00000180: 7283 87bd 2c5f d43d bbda 8b3d b804 363d
00000190: 7d62 d43d 4ecc 913d 11bf 3ebd d59d c13c
000001a0: e8a7 0a3c 1cc1 7f3d d87d 7a3d 1f32 2cbd
000001b0: b0db e63d c6c4 713d d0ff 0d3d eff9 853d
000001c0: 5c77 9239 cbcb 6abd 8f20 8cbd c956 9a3d
000001d0: fdfc 523d a8f2 53bd 0a97 a03c a8ff ce3c
000001e0: c97a 61bd a9f0 093d 73de 0cbd 9140 3b3d
000001f0: 8b94 83bd 630c 8fbc fc38 f5bb e0ea e5bc

weight f4 [16, 128]
-0.028560046 -0.13097417 -0.21380462 0.07833157 0.030821612 0.0043051615 -0.030772995 0.03652133
-0.06375909 -0.069819376 -0.03824538 -0.09026826 -0.080661796 -0.32303885 -0.23875791 -0.0784883
-0.07865344 -0.1419704 -0.03388028 -0.044024203 0.05126355 0.086621426 -0.026515635 0.0057404665
0.0534972 -0.06802766 -0.13018656 -0.016305597 0.0631927 0.004607871 0.01679827 -0.096427165
0.07354086 -0.4331673 -0.082214884 -0.04189039 -0.08291675 -0.13292953 0.0707506 -0.15690038
-0.37417427 0.039510142 -0.03506333 0.03161949 -0.1007496 0.022859035 0.05698547 0.039139666
0.050666325 -0.0012277556 -0.115442045 0.018504992 0.029994935 0.027046613 -0.08133978 0.005299925
0.0072198464 0.07438228 0.02318536 0.011953789 -0.024079282 0.023748487 0.08082633 0.07871855
0.029971715 -0.11458538 -0.12253702 0.0472539 0.07931081 -0.010029877 0.026950698 -0.08364122
-0.22707516 -0.088028066 -0.072311595 0.022301823 0.074056886 -0.051849056 -0.08577391 -0.04303699
-0.042090245 0.08638776 -0.06307127 -0.045145668 -0.0026878342 -0.30684224 0.026891699 -0.07276451
-0.31905824 -0.119743355 -0.13838017 0.009216582 -0.13277644 -0.026585538 -0.2571615 -0.07216852
0.0041808113 -0.20046376 0.060157824 0.048876133 -0.09111737 -0.07790386 -0.038283173 -0.1667186
-0.010393932 -0.08611594 0.03018321 0.063154764 -0.19365394 0.0825889 -0.12873739 -0.04731975
-0.024723232 -0.09424296 0.058026426 0.03911523 -0.020847425 -0.012700707 0.03395262 -0.021757698
0.019017309 0.042685974 -0.20886011 -0.015154356 0.07808575 -0.013976279 0.0031702148 0.07333823
0.08140127 -0.11756155 -0.2689798 -0.048488818 0.062241554 -0.08147638 -0.08527663 0.044467427
0.029587127 -0.08397555 -0.12126335 -0.20448017 0.054901116 -0.30912206 -0.26661935 0.046807356
-0.08220528 -0.08197201 0.008394215 -0.033752557 -0.026317274 -0.042062797 -0.02201623 0.00888203
-0.0134900715 -0.027180754 -0.12996 -0.058577333 0.07125679 -0.0116331205 0.01865057 -0.10421021
0.0112378225 -0.4752724 -0.14964943 -0.07056718 0.082414046 -0.17424078 0.010356952 -0.1513747
-0.3419034 0.019932967 -0.041522752 0.063922584 -0.017375628 0.059757713 0.042047236 0.00632923
0.015085861 -0.087551974 -0.09498604 0.04789918 -0.052225098 0.004371941 -0.038978264 0.01103282
0.06965087 -0.046247084 -0.03194763 -0.035274368 -0.07486684 -0.06098061 0.027848994 0.046541505
-0.061542906 -0.14325005 -0.06790777 -0.015107392 0.019830633 -0.07985936 -0.06396471 -0.042088453
-0.16804297 -0.047986854 0.06669322 0.00017174621 -0.012024032 0.047746766 -0.03714536 0.06975674
0.07510715 0.051005315 0.0381796 -0.071403526 0.087603666 -0.31662118 0.021699514 -0.18055397
-0.2939158 -0.03813271 -0.17058302 -0.044706922 -0.19560114 0.08151124 -0.30813214 -0.0075946054
-0.03267997 -0.20850104 0.07450959 0.07456576 -0.10991714 -0.14101925 -0.049082555 -0.13323428
0.069769956 -0.04629672 -0.003934426 0.015460774 -0.19362022 -0.023856988 -0.0891265 -0.033715446
-0.030458633 -0.15320423 0.061761074 -0.046963517 0.031000327 0.00588309 -0.06045685 0.06596559
-0.014892623 0.018603927 -0.15507025 -0.0797181 0.0375241 0.051428493 -0.04417428 0.035662264
00000000: c2f6 e9bc 181e 06be 99ef 5abe 4d6c a03d
00000010: 9b7d fc3c 5012 8d3b a617 fcbc 6497 153d
00000020: 2094 82bd 76fd 8ebd 30a7 1cbd 91de b8bd
00000030: 0332 a5bd 5965 a5be f47c 74be 79be a0bd
00000040: 0e15 a1bd b060 11be 0cc6 0abd b952 34bd
00000050: baf9 513d 9366 b13d 5137 d9bc 861a bc3b
00000060: e11f 5b3d 1652 8bbd a04f 05be 5193 85bc
00000070: 2d6b 813d a0fd 963b 879c 893c 9b7b c5bd
00000080: 979c 963d 1bc8 ddbe 4760 a8bd 4295 2bbd
00000090: 42d0 a9bd ae1e 08be b1e5 903d 7eaa 20be
000000a0: c593 bfbe 63d5 213d 919e 0fbd 7083 013d
000000b0: ce55 cebd df42 bb3c 9969 693d ea50 203d
000000c0: 7e87 4f3d a4ec a0ba e16c ecbd c897 973c
000000d0: f0b7 f53c dc90 dd3c 7895 a6bd feaa ad3b
000000e0: 7694 ec3b bd55 983d 39ef bd3c d3d9 433c
000000f0: ea41 c5bc 308c c23c 4688 a53d 3137 a13d
00000100: 3e87 f53c bdab eabd b0f4 fabd 4e8d 413d
00000110: b56d a23d 5a54 24bc b6c7 dc3c 174c abbd
00000120: 6486 68be 0f48 b4bd 1a18 94bd 50b2 b63c
00000130: 23ab 973d ad5f 54bd 3baa afbd 8e47 30bd
00000140: d266 2cbd 11ec b03d 832b 81bd aaea 38bd
00000150: 6026 30bb 6d1a 9dbe fb4b dc3c 8f05 95bd
00000160: 9a5b a3be 013c f5bd 88b3 0dbe 2601 173c
00000170: 8cf6 07be eac9 d9bc acaa 83be 17cd 93bd
00000180: 30ff 883b 5f46 4dbe 0d68 763d 5732 483d
00000190: be9b babd 0f8c 9fbd d1ce 1cbd 48b8 2abe
000001a0: 504b 2abc 8e5d b0bd c742 f73c 4957 813d
000001b0: 384d 46be 5f24 a93d bcd3 03be 5bd2 41bd
000001c0: 6088 cabc 7402 c1bd 1ead 6d3d 4b37 203d
000001d0: 38c8 aabc a016 50bc e711 0b3d 333d b2bc
000001e0: 30ca 9b3c 7dd7 2e3d 6ddf 55be fa49 78bc
000001f0: 6ceb 9f3d c3fc 64bc 61c3 4f3b 5b32 963d
00000200: b6b5 a63d 1cc4 f0bd b8b7 89be 369c 46bd
00000210: 00f1 7e3d 17dd a6bd 84a5 aebd 7a23 363d
00000220: b460 f23c 60fb abbd eb58 f8bd 4063 51be
00000230: fedf 603d 3f45 9ebe 5582 88be 12b9 3f3d
00000240: 3e5b a8bd f1e0 a7bd e487 093c 1f40 0abd
00000250: 5397 d7bc 0a4a 2cbd 615b b4bc ef85 113c
00000260: 7605 5dbc 2caa debc 3c14 05be c9ee 6fbd
00000270: 14ef 913d d898 3ebc 15c9 983c 2a6c d5bd
00000280: d81e 383c e756 f3be b33d 19be 8785 90bd
00000290: b2c8 a83d 2d6c 32be 35b0 293c f801 1bbe
000002a0: f60d afbe 764a a33c c313 2abd d8e9 823d
000002b0: 5557 8ebc 81c4 743d b939 2c3d 6e65 cf3b
000002c0: b02a 773c 734e b3bd 0a88 c2bd ee31 443d
000002d0: fce9 55bd 8042 8f3b aca7 1fbd 00c3 343c
000002e0: 1ea5 8e3d 956d 3dbd 85db 02bd db7b 10bd
000002f0: c953 99bd cec6 79bd 9323 e43c 4ea2 3e3d
00000300: 6a14 7cbd 24b0 12be 3b13 8bbd ff84 77bc
00000310: da73 a23c 4e8d a3bd eeff 82bd f164 2cbd
00000320: 7513 2cbe dd8d 44bd 7496 883d c616 3439
00000330: 7200 45bc 1d92 433d bc25 18bd 9fdc 8e3d
00000340: c7d1 993d f3ea 503d 3662 1c3d 033c 92bd
00000350: 8d69 b33d 2c1c a2be 2ec3 b13c 24e3 38be
00000360: 227c 96be 0b31 1cbd 51ad 2ebe 9b1e 37bd
00000370: aa4b 48be 5def a63d 7fc3 9dbe 2bdc f8bb
00000380: 6fdb 05bd 4c81 55be 7c98 983d efb5 983d
00000390: 3d1c e1bd 5a67 10be ca0a 49bd 916e 08be
000003a0: 8de3 8e3d a1a1 3dbd 5bec 80bb 304f 7d3c
000003b0: 6144 46be bb6f c3bc f487 b6bd 3519 0abd
000003c0: 6284 f9bc 92e1 1cbe 2ef9 7c3d d15c 40bd
000003d0: 66f4 fd3c f0c6 c03b 9aa1 77bd f818 873d
000003e0: 3000 74bc 4367 983c bcca 1ebe 3e43 a3bd
000003f0: dfb2 193d afa6 523d 17f0 34bd 9812 123d

bias f4 [16]
-0.15920284 -0.09037226 -0.04937145 -0.05642026 -0.14712545 -0.11168509 -0.05710305 -0.054843843
-0.14403446 -0.047446355 -0.19697893 -0.20231624 -0.13228506 -0.18912517 -0.13092001 -0.053951703
00000000: 1206 23be 1715 b9bd b839 4abd ee18 67bd
00000010: 0ea8 16be 27bb e4bd e3e4 69bd f0a3 60bd
00000020: c57d 13be 1c57 42bd d8b4 49be fd2b 4fbe
00000030: bc75 07be 07aa 41be e50f 06be 76fc 5cbd
