model-doom.pth (torch, 110383 bytes, 8 tensors)

weight f4 [8, 1, 6, 6]
0	0x3d6f247e	0.05838441
1	0xbd6f2bad	-0.05839126
2	0x3e14682e	0.14492866
3	0xbd226bbc	-0.039653525
4	0xbdc8a7f5	-0.0979766
5	0x3e08b928	0.13351882
6	0xbc4db80e	-0.012556089
7	0x3d1b0cc5	0.037853975
8	0x3e2a20d4	0.16614085
9	0xbdc5a4fb	-0.09650608
10	0xbd069122	-0.032853253
11	0xbd2fecf7	-0.042950597
12	0x3e0b63d5	0.13612302
13	0xbe190595	-0.14943536
14	0x3c5ccd08	0.013476618
15	0xbe13f0f5	-0.14447387
16	0xbe0259ee	-0.12729618
17	0x3dcac62f	0.09901082
18	0x3e1530e5	0.14569433
19	0x3df00ef7	0.11721604
20	0xbdd4b41f	-0.10385918
21	0xbddb5052	-0.10708679
22	0x3df9e252	0.1220137
23	0xbdc1f717	-0.09470957
24	0xbdea0a67	-0.11427765
25	0x3db76ce3	0.08956315
26	0x3d18646d	0.03720515
27	0xbd58c4f7	-0.052922215
28	0xbd7a64f9	-0.06113145
29	0x3dafa70f	0.08576786
30	0xbd8821db	-0.066470824
31	0xbdc9d8b7	-0.09855788
32	0x3cf754fb	0.030191889
33	0x3ce7abf4	0.028280236
34	0xbdf670c0	-0.12033224
35	0xbd53a28a	-0.05166868
36	0xbdcb0242	-0.0991254
37	0x3dcc8bde	0.09987615
38	0x3debea43	0.11519291
39	0x3d8ea5d9	0.06965227
40	0x3e29bcc4	0.16575915
41	0x3d3717db	0.044700485
42	0xbe038fcf	-0.12847827
43	0xbcb62982	-0.02223659
44	0xbd9b6789	-0.07588107
45	0x3d30f8ef	0.04320615
46	0x3d349f64	0.04409732
47	0x3e057a88	0.13035023
48	0x3db97f25	0.09057454
49	0xbde0f4d4	-0.10984197
50	0xbdc5a811	-0.09651197
51	0xbdb6058e	-0.08887778
52	0xbd5d416b	-0.054017466
53	0xbc616d70	-0.013759002
54	0x3dea02f6	0.11426346
55	0x3d836409	0.064155646
56	0x3d21c91f	0.039498445
57	0x3d787bc6	0.060664915
58	0xbe08ff10	-0.13378549
59	0xbd1ddd9d	-0.038541425
60	0x3c5856b8	0.013204269
61	0xbdb22fdb	-0.08700534
62	0xbde6962d	-0.112591125
63	0x3ce8c777	0.028415425
64	0xbe1d0860	-0.15335226
65	0xbd9a9757	-0.07548397
66	0xbd9cbb63	-0.07652929
67	0x3e25630a	0.16151062
68	0xbdbf0b7b	-0.093283616
69	0xbdac9166	-0.0842617
70	0xbdc10203	-0.09424212
71	0xbcd3707e	-0.025810476
72	0x3ca57328	0.020196512
73	0xbd24c1c4	-0.04022385
74	0x3d586744	0.052832857
75	0x3cd1ad00	0.025595188
76	0x3dfa4ab2	0.12221278
77	0xbdaa8948	-0.083269656
78	0xbe1bc287	-0.15210925
79	0xbde68c30	-0.112572074
80	0xbe17ad47	-0.14812194
81	0xbe0515a2	-0.12996534
82	0x3db1565a	0.086590484
83	0x3e162a91	0.14664675
84	0xbd5e8e7c	-0.054335102
85	0x3dc52192	0.09625544
86	0x3da4f5b8	0.0805468
87	0x3d308210	0.043092787
88	0xbc5f4270	-0.01362668
89	0xbd1cc8e4	-0.03827752
90	0xbd40df10	-0.04708773
91	0x3d39bc70	0.045345724
92	0x3d14a990	0.03629452
93	0x3d0cf2e0	0.03441131
94	0xbd8205cb	-0.06348761
95	0x3d14b930	0.03630942
96	0xbdafb386	-0.08579163
97	0xbdfa1f00	-0.12212944
98	0xbe0d205a	-0.13781872
99	0xbe0d7c3b	-0.13816921
100	0xbcff64a0	-0.031175911
101	0xbdfe5cf0	-0.1242007
102	0x3c9e13a8	0.019296482
103	0xbd8209f6	-0.06349556
104	0x3de558e2	0.11198594
105	0x3c9352d8	0.017983839
106	0x3d85bd3e	0.06530236
107	0xbd2e92f0	-0.0426206
108	0x3d6f5be2	0.058437236
109	0x3c8c35d3	0.01711551
110	0xbb5c0043	-0.0033569492
111	0x3dd6d202	0.104892746
112	0x3d8fc6a7	0.07020312
113	0xbdf9dbfd	-0.122001626
114	0xbd9dd3a9	-0.077063866
115	0xbd3beee8	-0.045882136
116	0x3d9587c7	0.07301288
117	0x3e1ac870	0.15115523
118	0xbdcedf6e	-0.101012096
119	0x3d8eba79	0.069691606
120	0x3dc9c941	0.09852839
121	0x3dc6d4c1	0.09708548
122	0x3d7d45ca	0.061834134
123	0x3d8b25ec	0.067943424
124	0xbd985ea0	-0.07439923
125	0xbdda918b	-0.10672291
126	0x3e17421c	0.14771312
127	0xbe18912b	-0.14899127
128	0x3da1e868	0.07905656
129	0xb9eef556	-0.00045577687
130	0x3d971032	0.07376136
131	0xbc14f562	-0.009091707
132	0xbcb45c92	-0.022016797
133	0x3e179608	0.14803326
134	0xbd9ed438	-0.07755321
135	0xbe0f15ee	-0.1397321
136	0x3d239d53	0.039944958
137	0x3e0e0478	0.13868892
138	0xbdb9bbf9	-0.09069056
139	0x3e039578	0.12849987
140	0x3d5e4f15	0.054274637
141	0xbd6f2845	-0.058388013
142	0x3c6be26f	0.014397248
143	0xbdcdb218	-0.10043734
144	0x3e0bf897	0.13669048
145	0x3e02ccdf	0.12773465
146	0x3b5ecd15	0.003399675
147	0xbcc39682	-0.023875479
148	0x3db8247d	0.089913346
149	0x3c97eff8	0.018547043
150	0x3cde556e	0.027140345
151	0x3da73644	0.08164647
152	0x3e2967d1	0.16543509
153	0xbe230b9f	-0.15922402
154	0xbe1eb367	-0.15498124
155	0xbd3ae6bc	-0.0456302
156	0x3de9c553	0.1141459
157	0xbd66a4ef	-0.056309637
158	0x3cfc47b4	0.03079591
159	0x3d7bf9eb	0.061517637
160	0xbd928ea2	-0.07156111
161	0xbdc88027	-0.09790068
162	0x3d6632ce	0.056200795
163	0xbd632251	-0.05545265
164	0xbd4f42ea	-0.050600924
165	0xbdf99772	-0.12187089
166	0x3c0cab7f	0.00858581
167	0x3e245fbe	0.16052148
168	0xbdf132a8	-0.1177724
169	0x3dccb236	0.099949285
170	0xbde23cbf	-0.11046743
171	0x3e13e114	0.14441329
172	0xbdda6412	-0.10663618
173	0xbde3a058	-0.111145675
174	0xbe17397d	-0.14768024
175	0xbde1dc15	-0.110283054
176	0x3d6e6f32	0.058211513
177	0x3de338e4	0.110948354
178	0x3e1d6c8b	0.15373437
179	0x3c24e072	0.010063278
180	0xbe238c84	-0.15971571
181	0xbc777637	-0.015103868
182	0xbdd1dfc3	-0.10247757
183	0xbe030edd	-0.12798639
184	0x3ddd6ae3	0.10811403
185	0x3e038c92	0.12846592
186	0x3b590968	0.0033117179
187	0xbdff281e	-0.124588236
188	0x3d1f60a7	0.038910534
189	0xbcaec424	-0.021333762
190	0x3d90bcd9	0.0706727
191	0x3d99b705	0.07505611
192	0xbdb86184	-0.09002975
193	0x3dc2a306	0.095037505
194	0xbe125385	-0.14289673
195	0xbe128f1b	-0.14312403
196	0xbcce98ea	-0.0252194
197	0x3dc4232f	0.09577023
198	0xbe0d5bf6	-0.13804612
199	0xbd7a46c4	-0.061102644
200	0x3b06d075	0.0020571027
201	0xbda32d2a	-0.07967599
202	0xbd92268c	-0.071362585
203	0xbe02f452	-0.12788513
204	0xbd3b1413	-0.04567344
205	0x3da6a258	0.08136433
206	0x3d4269be	0.047464125
207	0xbddde659	-0.10834951
208	0x3e181dbd	0.14855094
209	0xbd764087	-0.06012013
210	0xbac5e0c3	-0.0015096891
211	0x3de39f1c	0.11114332
212	0x3dd4e53a	0.10395284
213	0x3e259c49	0.161729
214	0x3e080d9d	0.13286443
215	0xbdef9226	-0.116977975
216	0x3dcbacb0	0.09945047
217	0xbe0dd32c	-0.13850087
218	0xbd715080	-0.05891466
219	0xbd34399f	-0.044000264
220	0xbe0aed02	-0.13566974
221	0x3bb5f6ed	0.0055531175
222	0xbd9d7e39	-0.07690091
223	0x3e00834d	0.12550087
224	0xbdc52887	-0.096268706
225	0x3cdadf9c	0.026717953
226	0xbe03744b	-0.12837331
227	0x3d2efb7c	0.042720303
228	0x3e38609b	0.18005602
229	0xbda5c7b6	-0.080947325
230	0xbdca4012	-0.09875502
231	0x3e261c38	0.16221702
232	0x3e1541d9	0.145759
233	0x3e36e93f	0.17862414
234	0x3cd51928	0.026012972
235	0x3e055765	0.1302162
236	0x3af675fd	0.0018803474
237	0x3e3143cd	0.1731102
238	0xbd5c1161	-0.05372751
239	0x3dba3103	0.090913795
240	0x3e25a49e	0.16176078
241	0xbdedc6d3	-0.11610188
242	0xbe13e8ce	-0.14444277
243	0xbd38206e	-0.044952802
244	0xbb44cb1a	-0.0030028285
245	0x3da5c4b3	0.08094158
246	0x3e3ddcac	0.18541211
247	0x3dbe6006	0.09295659
248	0x3d684fbb	0.056716662
249	0x3d8c1a91	0.06841005
250	0xbd503b19	-0.05083761
251	0x3ca02707	0.01954986
252	0x3d3bb3f6	0.04582592
253	0xbb4b44d9	-0.0031016378
254	0x3e1c74cd	0.15278931
255	0x3d869bf7	0.06572717

bias f4 [8]
0	0xbd469a64	-0.048487082
1	0xbdac9538	-0.08426899
2	0xbd8ece86	-0.06972985
3	0xbe24b580	-0.16084862
4	0xbddc45d8	-0.10755509
5	0xbceb3f8a	-0.028716821
6	0x3e655a1b	0.22397654
7	0xbd8f8a8c	-0.070088476

weight f4 [8, 8, 3, 3]
0	0xbd8988b0	-0.06715524
1	0x3db178db	0.086656295
2	0x3dd391f3	0.10330572
3	0x3ce9fb44	0.028562196
4	0xbdb8a99a	-0.09016724
5	0x3d90f3d9	0.0707776
6	0xbde04ad1	-0.1095177
7	0xbd459164	-0.04823436
8	0x3b8515f0	0.004061453
9	0x3cdce574	0.02696488
10	0xbd35fd80	-0.04443121
11	0xbdd97bca	-0.10619314
12	0xbcc3e814	-0.023914374
13	0xbc7c9c48	-0.01541812
14	0x3d97971d	0.074018694
15	0xbba40ed0	-0.0050066486
16	0xbdc1a590	-0.09455407
17	0x3cc281cc	0.023743533
18	0x3d3ea92e	0.04654806
19	0xbd9ad82e	-0.07560764
20	0x3d8a02cb	0.06738814
21	0x3d56bc3e	0.052425615
22	0xbdd3dfa1	-0.10345388
23	0xbb912050	-0.004428901
24	0xbccd826c	-0.025086604
25	0xbd582162	-0.05276621
26	0x3cb9606c	0.022628985
27	0x3c8e3811	0.017360719
28	0x3db982ee	0.09058176
29	0x3dea0e55	0.11428515
30	0x3d6cd89b	0.05782376
31	0xbd58ec9f	-0.052960034
32	0x3d754e99	0.05988941
33	0x3dc0b953	0.09410348
34	0x3dd325e6	0.10309963
35	0x3c99cf7a	0.01877569
36	0xbd1517c4	-0.036399618
37	0xbcd19f48	-0.025588647
38	0xbd7e954f	-0.06215411
39	0x3dbdb47a	0.09262939
40	0x3c62034c	0.013794731
41	0x3d98c276	0.074589655
42	0xbd13cf58	-0.03608641
43	0xbcdc3cd6	-0.026884478
44	0xbdb071ed	-0.086154796
45	0xbda09b1e	-0.07842086
46	0xbc84a6a0	-0.016192734
47	0x3d7fe466	0.062473677
48	0x3da743bf	0.081672184
49	0x3dade28a	0.084904745
50	0x3cb4ffbc	0.0220946
51	0xbcffa23c	-0.031205289
52	0xbdd91d8c	-0.10601339
53	0x3d54efca	0.051986493
54	0xbde5e0d2	-0.11224522
55	0x3d0527ff	0.032508846
56	0xbce7d8a8	-0.028301552
57	0x3dbbe029	0.091736145
58	0x3d6d9671	0.0580048
59	0xbdc395f5	-0.095500864
60	0xbdce7ef8	-0.10082811
61	0xbdcbbb1e	-0.09947799
62	0xbca755e9	-0.020426707
63	0x3dce9669	0.10087282
64	0xbd083a2d	-0.033258606
65	0x3d8fc29d	0.070195414
66	0x3d817266	0.06320648
67	0xbb8b0c5b	-0.0042434162
68	0xbde12a55	-0.10994402
69	0x3cd235b6	0.025660377
70	0xbc05e607	-0.008172519
71	0xbdc8a017	-0.0979616
72	0xbd3e1250	-0.046404183
73	0x3dd1f535	0.10251848
74	0x3ddbc7d1	0.10731471
75	0x3dc18b67	0.09450417
76	0x3d9706d9	0.07374353
77	0x3d8a874f	0.06764089
78	0x3ce98c1c	0.028509192
79	0x3d6026d2	0.054724522
80	0x3d8547c1	0.065078266
81	0xbd803c64	-0.062615186
82	0xbba75dd0	-0.005107619
83	0x3bbd6c70	0.005780749
84	0xbc8d7930	-0.0172697
85	0x3dcd3335	0.100195326
86	0x3c4cff88	0.012512095
87	0x3c39a358	0.011330448
88	0x3dc69b93	0.09697642
89	0xbd9c42b6	-0.076299116
90	0xbdad6576	-0.08466618
91	0xbb741c80	-0.0037248433
92	0xbd280788	-0.041022807
93	0x3dcefea5	0.10107163
94	0x3dca3d4d	0.098749734
95	0x3ced27dc	0.02894967
96	0x3db44f5b	0.08804198
97	0x3cb8970c	0.022532962
98	0xbd1e1a22	-0.03859914
99	0x3da5770e	0.080793485
100	0xbc15d6c9	-0.009145447
101	0x3ccf7f95	0.02532939
102	0x3d1e1786	0.038596652
103	0x3da08f56	0.07839839
104	0x3da73d67	0.081660084
105	0x3dd00d70	0.10158813
106	0x3d7fa1e8	0.062410265
107	0x3d100414	0.03516014
108	0x3de782b3	0.11304226
109	0xbd86c7b2	-0.065810576
110	0x3d9580a6	0.07299928
111	0x3d047c1c	0.032344922
112	0xbc8bbdde	-0.01705831
113	0xbdeca7fd	-0.11555479
114	0x3dbd73d4	0.09250608
115	0xbd592cc0	-0.053021193
116	0x3d79057e	0.060796253
117	0xbcb87cca	-0.022520442
118	0x3c61c708	0.013780363
119	0xbdc65c65	-0.096855916
120	0x3db6d86c	0.08927998
121	0x3db0b715	0.0862867
122	0x3dca03ee	0.09864031
123	0xbdee0ca9	-0.116235085
124	0x3d5e8dde	0.054334514
125	0x3de0e72b	0.10981592
126	0x3cf4384a	0.029811997
127	0x3dc2595a	0.09489699
128	0xbda38a1b	-0.07985326
129	0xbd43b3ec	-0.04777901
130	0x3d891e52	0.06695236
131	0xbdc37d80	-0.095454216
132	0xbdb750d8	-0.089509666
133	0xbd67d0fb	-0.056595784
134	0x3de5d841	0.11222888
135	0x3d80724e	0.06271802
136	0x3c149355	0.00906833
137	0xbba08ca2	-0.0048995772
138	0xbd9c1fea	-0.076232746
139	0xbd6e2570	-0.058141172
140	0x3c977221	0.018487038
141	0x3dcd4443	0.100227855
142	0x3db948eb	0.09047111
143	0xbda402cc	-0.08008346
144	0x3d2b111e	0.04176437
145	0xbd85f7fc	-0.0654144
146	0xbd6243d7	-0.05524048
147	0x3dc3f603	0.095684074
148	0x3c998267	0.018738938
149	0xbdac707c	-0.08419892
150	0x3dd298a1	0.10283018
151	0xbdf00667	-0.11719971
152	0x3da15165	0.07876853
153	0x3d67ac5e	0.056560867
154	0xbcfd6f48	-0.030936852
155	0x3bc72770	0.0060776994
156	0xbdb5ef44	-0.08883527
157	0xbdb30bbd	-0.08742473
158	0xbd3c5c56	-0.045986496
159	0x3d11f1b2	0.03563089
160	0xbd853ca3	-0.06505706
161	0xbd5608ce	-0.05225449
162	0x3d51211a	0.05105696
163	0xbd463272	-0.048387952
164	0xbcefeadc	-0.029286794
165	0x3d8db4b1	0.0691923
166	0x3d6f1066	0.05836525
167	0x3cceb95c	0.02523487
168	0xbc8cc888	-0.017185465
169	0x3dbcf88b	0.09227093
170	0xbdbbbf12	-0.09167303
171	0xbd0d7437	-0.03453466
172	0x3d8a4ff5	0.06753532
173	0x3d2d917e	0.04237508
174	0xbb583eb7	-0.0032996365
175	0xbde29372	-0.11063279
176	0x3d62f8ca	0.055413045
177	0xbcd9c51a	-0.026583243
178	0xbd74914c	-0.05970888
179	0x3cfe734d	0.03106084
180	0xbd134af4	-0.035960153
181	0xbd588905	-0.052865047
182	0xbd90f28b	-0.070775114
183	0x3cf39457	0.02973382
184	0x3d96b8df	0.0735948
185	0xbdeeb508	-0.11655623
186	0xbc604421	-0.013688118
187	0x3da1fef1	0.07909954
188	0x3d284cbb	0.0410888
189	0xbd361723	-0.04445566
190	0xbb9851e2	-0.004648433
191	0x3be647b9	0.007027593
192	0x3db3377a	0.08750816
193	0x3d450385	0.04809906
194	0xbdc85fd4	-0.09783903
195	0xbdc2b21e	-0.095066294
196	0xbddc02d6	-0.107427284
197	0x3d6f8603	0.058477413
198	0x3e0e2998	0.13883054
199	0xbcf2232e	-0.02955779
200	0x3dbbd5fa	0.09171672
201	0x3daac04d	0.0833746
202	0x3dc8f704	0.098127395
203	0x3d231424	0.03981413
204	0xbcd9914e	-0.026558544
205	0x3dd93209	0.106052466
206	0x3c964140	0.01834166
207	0x3c0612b1	0.008183167
208	0x3dce24cf	0.100656144
209	0xbd967e47	-0.07348304
210	0x3c4cb6eb	0.012494783
211	0x3c7d560a	0.015462408
212	0xbca4a1a8	-0.020096615
213	0xbd59f2bf	-0.053210016
214	0x3d7b356e	0.06133025
215	0x3dd40e63	0.103543065
216	0x3d4f4f9f	0.050613042
217	0x3b9d7750	0.004805483
218	0x3d87f587	0.066386275
219	0x3be335dd	0.0069339112
220	0x3dc63893	0.096787594
221	0xbd4cc74e	-0.04999476
222	0x3da86647	0.08222633
223	0x3d6f7ee2	0.058470614
224	0x3cbb22ef	0.022843806
225	0xbde13572	-0.10996522
226	0xbd4b904e	-0.049698167
227	0xbd430026	-0.047607563
228	0xbd18a724	-0.037268773
229	0xbde9243d	-0.11383865
230	0xbbed1f00	-0.0072363615
231	0x3dde6321	0.10858751
232	0x3b09ed58	0.002104601
233	0xbd8e1478	-0.06937498
234	0xbde05c57	-0.109551124
235	0xbd99010a	-0.07470901
236	0x3de930f7	0.113862924
237	0xbd93396d	-0.071886875
238	0x3cac428c	0.021027826
239	0x3ba9e4d0	0.0051847473
240	0xbce10548	-0.027468339
241	0xbda280fe	-0.079347596
242	0x3cc0bf6c	0.023528777
243	0x3bef8e15	0.0073106387
244	0xbd574216	-0.05255326
245	0xbd2a9b61	-0.041652087
246	0x3ddd368f	0.10801422
247	0x3b80df51	0.0039328714
248	0x3dc78791	0.09742654
249	0x3da3c0b8	0.079957426
250	0x3c5dfb23	0.013548645
251	0xbd011a5b	-0.031519275
252	0x3d82b421	0.06382013
253	0x3d7f42b4	0.062319472
254	0x3d03b094	0.03215082
255	0xbc010aa9	-0.007876077

bias f4 [8]
0	0x3a703b36	0.00091640966
1	0xbc0f4ad2	-0.008745866
2	0x3e66712b	0.22504108
3	0x3da54ccf	0.08071291
4	0xbd94a714	-0.0725843
5	0x3e3915d2	0.1807473
6	0x3e12c94f	0.14334606
7	0x3e15e3d1	0.14637686

weight f4 [128, 192]
0	0xbd588eb4	-0.052870467
1	0x3c7d8118	0.015472673
2	0xbd73062e	-0.059332065
3	0xbcdfa34c	-0.027299546
4	0x3d5b54d8	0.05354771
5	0xbd51489c	-0.051094636
6	0x3c6fe750	0.014642552
7	0x3d54fbb2	0.051997848
8	0x3d6b562c	0.057455227
9	0x3d489848	0.04897335
10	0x3cfaca00	0.0306139
11	0xbd8b6fd2	-0.068084374
12	0xbd86c58e	-0.06580649
13	0x3d8cfad8	0.06883782
14	0xbd66f1de	-0.056383006
15	0xbd35012a	-0.044190563
16	0x3d016a82	0.031595714
17	0x3ca1022c	0.019654356
18	0xbd850380	-0.06494808
19	0x3d77647c	0.060398564
20	0x3d3062c4	0.04306294
21	0xbd082f5e	-0.033248298
22	0xbd5691bc	-0.052385077
23	0x3848f800	4.7914684e-05
24	0xbcd3b1be	-0.02584159
25	0x3d237c38	0.039913386
26	0xbd0daeec	-0.034590647
27	0x3d4a47d4	0.049384907
28	0xbd29faca	-0.041498937
29	0x3d1db8e6	0.03850641
30	0xbc3b25a4	-0.011422548
31	0x3d237a54	0.039911583
32	0xbd4b9ef4	-0.049712136
33	0xbd8f99bb	-0.07011744
34	0xbccca0be	-0.024978992
35	0x3d3bfb72	0.045894094
36	0xbd18ff5a	-0.037352897
37	0xbd192b39	-0.037394736
38	0xbc949260	-0.018136203
39	0xbced0a8c	-0.028935693
40	0x3d91505a	0.07095404
41	0xbd23e68b	-0.040014785
42	0xbba7a810	-0.00511647
43	0x3d5f4e30	0.054517925
44	0xbcd10124	-0.02551324
45	0xbc798c98	-0.015231274
46	0x3c9667f0	0.018360108
47	0xbd7e5afa	-0.06209848
48	0xbd636e7e	-0.055525295
49	0xbcbf8fe6	-0.023384046
50	0x3ceda4e4	0.02900929
51	0x3cff82dc	0.031190328
52	0x3d40bc94	0.047054842
53	0x3b260ee0	0.0025338456
54	0xbd7bcb15	-0.06147297
55	0x3d3352b8	0.04378006
56	0xbd6fd984	-0.05855705
57	0xbd380994	-0.04493101
58	0x3d37361c	0.044729337
59	0xbcd3007e	-0.02575707
60	0xbd2b97e0	-0.041892886
61	0x38c7e000	9.530783e-05
62	0xbd0316bd	-0.032004107
63	0x3ad561c0	0.0016279742
64	0x3d4e8368	0.050418288
65	0xbd418608	-0.047246963
66	0x3d89b7e2	0.06724526
67	0xbd4eda12	-0.050500937
68	0xbd6e5984	-0.058190838
69	0x3d253fe4	0.040344134
70	0x3d59f784	0.053214565
71	0xbb11aa20	-0.0022226647
72	0x3cf184fc	0.029482357
73	0xbd5015a3	-0.050801884
74	0xbcd397a2	-0.02582914
75	0xbc0e9970	-0.008703575
76	0xbb2e7ba0	-0.002662398
77	0x3d770448	0.060306817
78	0xbd1ee9b9	-0.038797114
79	0xbcc30d0a	-0.023809928
80	0xbd608992	-0.054818697
81	0xbd901f35	-0.07037202
82	0x3cce4438	0.025179014
83	0xbcd470ca	-0.025932688
84	0xbd2af63e	-0.04173874
85	0xbacf7f80	-0.0015830845
86	0xbd2fb968	-0.042901427
87	0xbd2ba0fc	-0.041901574
88	0x3c96deb0	0.018416733
89	0xbc8e846c	-0.017397128
90	0xbc2f15cc	-0.010686349
91	0x3d2a3cac	0.041561767
92	0x3d6630e8	0.056198984
93	0x3cfbe4fc	0.030748837
94	0xbd59c5bc	-0.05316709
95	0x3d84b2fe	0.064794526
96	0x3c205158	0.009785019
97	0xbd82e136	-0.06390612
98	0x3d70f408	0.058826476
99	0xbd25d5f2	-0.040487237
100	0xbc421668	-0.011846162
101	0xbd91894e	-0.07106267
102	0x3d30378a	0.043021716
103	0xbc4d08f8	-0.012514345
104	0xbd8d5414	-0.06900802
105	0x3c285188	0.010273345
106	0x3d574c32	0.0525629
107	0xbd5fb0f0	-0.0546121
108	0xbd9395d5	-0.072063126
109	0xbd0b7371	-0.03404564
110	0x3c8849a0	0.01663667
111	0x3c83e64c	0.016101025
112	0x3d6b0ebc	0.0573871
113	0xbd6abf3e	-0.05731129
114	0x3d4073f8	0.046985596
115	0xbc8d5b80	-0.017255545
116	0xbc032f48	-0.008006878
117	0x3d2ebcd0	0.042660534
118	0xbc24d1d8	-0.010059796
119	0x3c311178	0.0108073875
120	0x3c379b10	0.011206403
121	0xbca7d61e	-0.020487841
122	0xbd628203	-0.05529977
123	0x3d0c1fd2	0.034210034
124	0x3d779258	0.0604423
125	0x3ce7a278	0.028275713
126	0xbd5b1aca	-0.053492345
127	0xbcab07f8	-0.020877823
128	0x3c91daec	0.017804585
129	0x3bf60550	0.0075079575
130	0x3d4b5580	0.049642086
131	0xba92d240	-0.0011201575
132	0xbc8eafb4	-0.017417766
133	0xbcd66ce0	-0.026174963
134	0x3d0b4516	0.034001432
135	0x3d593188	0.053025752
136	0xbd542454	-0.051792458
137	0xbd935ca0	-0.07195401
138	0xbcc8729e	-0.024468716
139	0x3d0a3aea	0.03374759
140	0x3cfa4c9c	0.030554108
141	0xbd802699	-0.06257362
142	0xbd2f2589	-0.042760406
143	0xbd4edf69	-0.05050603
144	0x3c55add8	0.013041936
145	0x3d18b860	0.03728521
146	0xbd25e965	-0.040505785
147	0xbca90fba	-0.020637382
148	0x3d835b30	0.06413877
149	0x3bd51260	0.0065024346
150	0xbd865404	-0.065589935
151	0x3d8b459a	0.06800385
152	0xbd698bde	-0.057018153
153	0xbd414f82	-0.047194965
154	0xbc506e48	-0.012721606
155	0x3d8d349a	0.068947986
156	0xbc82dae4	-0.015973516
157	0x3c15db68	0.009146549
158	0x3d2fb3a0	0.042895913
159	0x3ce3278c	0.027728818
160	0x3d0d8392	0.034549303
161	0xbc311bac	-0.01080982
162	0x3d920a94	0.07130924
163	0xbd21cc05	-0.03950121
164	0xbd126ffe	-0.035751335
165	0xbd74dc8a	-0.059780635
166	0x3d325b78	0.043544263
167	0x3d21e68a	0.0395265
168	0xbd5faa5e	-0.054605834
169	0xbd0871ac	-0.03331153
170	0x3d4a474e	0.049384408
171	0xbd6fff1e	-0.058592908
172	0x3d11d542	0.03560377
173	0x3cb021b4	0.021500446
174	0xbcb0f60a	-0.021601696
175	0x3d3c0d80	0.045911312
176	0x3d24987a	0.040184475
177	0x3c80c2c0	0.015717864
178	0x3c5c2158	0.013435684
179	0x3c81cda4	0.015845127
180	0x3d6df658	0.05809626
181	0xbba175f0	-0.0049273893
182	0xbc91da38	-0.01780425
183	0xbd34ec0e	-0.04417043
184	0x3cd7623c	0.026291959
185	0x3d221ca4	0.039578095
186	0x3d04efa0	0.032455087
187	0x3c02d148	0.007984467
188	0x3d8325e0	0.064037085
189	0x3d1343c4	0.0359533
190	0x3caad488	0.020853296
191	0x3cd61604	0.026133545
192	0xbc9256b0	-0.017863601
193	0xbd6a62b0	-0.057223022
194	0xbc9b5c00	-0.018964767
195	0x3d8038d6	0.062608406
196	0x3c69f8a0	0.014280468
197	0xbd364ed2	-0.044508763
198	0xbca1395c	-0.019680671
199	0x3d46bad6	0.048518024
200	0xbd3d5f12	-0.046233244
201	0x3b9c6fa0	0.004774049
202	0x3cfa1760	0.030528724
203	0x3ca4bb94	0.020108975
204	0x3bd4e380	0.0064968467
205	0xbc89788c	-0.016781114
206	0x3c285e78	0.010276429
207	0x3c3c21d0	0.011482671
208	0xbc66ac70	-0.014079198
209	0x3ccab9a4	0.024746723
210	0x3c8a84e8	0.016909078
211	0x3d8bc20b	0.0682412
212	0xbcdfe48a	-0.027330656
213	0xbd4cbb07	-0.04998305
214	0x3d64bb2c	0.055842564
215	0xbc829a08	-0.015942588
216	0x3d3dc6f7	0.046332326
217	0xbc3620c2	-0.0111162085
218	0xbd1125f0	-0.03543657
219	0x3bec7bc0	0.0072169006
220	0xbd2b9c62	-0.041897185
221	0xbd8d4ca7	-0.06899386
222	0x3d4cf26f	0.05003589
223	0x3d70e8a1	0.058815602
224	0xbc52e372	-0.01287161
225	0xbd30a83a	-0.043129183
226	0xbc307cc4	-0.010771934
227	0x3d2b3ec8	0.04180792
228	0xbbaa0d4f	-0.005189575
229	0x3d161ca9	0.036648426
230	0xbd4d8eac	-0.05018489
231	0x391382b0	0.00014067697
232	0xbaa7e480	-0.0012809187
233	0xbd62331d	-0.055224527
234	0x3d4b8658	0.049688667
235	0xbd8d0a97	-0.068867855
236	0x3d597a62	0.05309523
237	0xbd3260eb	-0.04354946
238	0x3b965aeb	0.004588475
239	0x3d8ed49d	0.069741465
240	0x3ca46fc6	0.020072829
241	0x3d722ec2	0.059126623
242	0xbd62eb4c	-0.055400178
243	0x3d012daf	0.031537708
244	0x3c967ce2	0.018370096
245	0xbd7a1b5a	-0.06106124
246	0x3d16bd6a	0.036801733
247	0x3b864146	0.0040971367
248	0xbd1dc608	-0.038518935
249	0xbd8e2584	-0.06940749
250	0xbd884c9c	-0.06655237
251	0xbd1f597f	-0.03890371
252	0x3d593aee	0.053034715
253	0xbced442c	-0.028963171
254	0x3be95d1d	0.0071216957
255	0x3d65ac93	0.056072783

bias f4 [128]
0	0xbd8a035d	-0.06738923
1	0xbc1221c2	-0.008919181
2	0xbd8f8504	-0.070077926
3	0xbb4f694f	-0.0031648462
4	0xbcf448aa	-0.029819805
5	0x3da6ff53	0.08154168
6	0xbd167fe9	-0.03674308
7	0x3c7ba7c8	0.015359826
8	0x3d1af568	0.037831694
9	0xbd575b99	-0.05257759
10	0x3cccf2c8	0.02501811
11	0x3c70e9d0	0.014704183
12	0xbd706803	-0.058692943
13	0x3d043757	0.03227934
14	0x3d801f6e	0.06255995
15	0xbc9e6272	-0.019334052
16	0x3d34019c	0.043946847
17	0x3d8e62e5	0.069524564
18	0x3c78d780	0.015188098
19	0x3e237dfd	0.1596603
20	0xbc8190bc	-0.015816085
21	0xbcc85682	-0.024455313
22	0xbc04e208	-0.008110531
23	0xbc575350	-0.013142422
24	0xbd0a03da	-0.03369508
25	0x3d838fbf	0.06423902
26	0x3d5944b9	0.053044055
27	0xbc2322ca	-0.009957025
28	0x3c188da0	0.00931111
29	0xbd142049	-0.036163602
30	0x3d95451e	0.07288574
31	0x3d6dbb64	0.058040038
32	0x3d3ded42	0.046368845
33	0xbd5fa474	-0.054600194
34	0x3c3a44eb	0.01136897
35	0x3daaa823	0.08332851
36	0x3c797348	0.015225239
37	0xbd909210	-0.07059109
38	0x3cf5d641	0.03000939
39	0x3d16ac46	0.036785387
40	0x3d38b3ce	0.04509335
41	0xbc548ef1	-0.012973533
42	0x3c3a4660	0.011369318
43	0xbd5c45b1	-0.0537774
44	0x3c9b83b4	0.0189837
45	0x3d864e10	0.06557858
46	0xbd7eda27	-0.062219765
47	0x3d9db2c5	0.07700113
48	0x3cd21130	0.025642961
49	0x3d644f06	0.055739425
50	0x3d357931	0.04430503
51	0xbc25f4a4	-0.010129128
52	0xbd75ea1a	-0.06003771
53	0xbd6e79d8	-0.058221668
54	0x3bc095a0	0.0058772117
55	0x3d831e7c	0.06402299
56	0xb8ebc0bf	-0.00011241575
57	0xbd24eaf9	-0.04026315
58	0x3d9144b2	0.07093181
59	0xbc5c3443	-0.013440195
60	0xbc85f981	-0.016354324
61	0xbc45e608	-0.0120787695
62	0x3c9fea14	0.019520797
63	0xbd5c46e0	-0.05377853
64	0xbd1da0c7	-0.038483407
65	0xbd14cb0b	-0.03632645
66	0xbc802ef6	-0.015647393
67	0x3cb28f94	0.021796979
68	0xbcbc16a6	-0.022960018
69	0xbc9cc480	-0.019136667
70	0xbd63a57e	-0.055577748
71	0xbca79a88	-0.020459428
72	0xbc3dccca	-0.01158447
73	0x3d22e771	0.0397715
74	0xbca69036	-0.020332437
75	0xbd18f397	-0.03734168
76	0xbd002294	-0.031282976
77	0xbcf46e3b	-0.029837718
78	0x3c84c397	0.016206546
79	0x3d1516db	0.03639875
80	0x3c92fee5	0.017943809
81	0x3bcf719d	0.0063306824
82	0xbc6a780c	-0.014310848
83	0x3d3fcc41	0.04682565
84	0xbd1153c6	-0.035480283
85	0x3d63c894	0.055611208
86	0x3ca0600e	0.019577052
87	0xbd69bf4e	-0.057067208
88	0xbd42bb8d	-0.047542144
89	0x3d9481f7	0.07251351
90	0xbd01fc95	-0.03173502
91	0x3bf1475c	0.007363243
92	0x3c430c14	0.011904735
93	0x3d92ed7c	0.07174203
94	0xbd1485b3	-0.036260318
95	0x3d9651d4	0.07339826
96	0xbd18db79	-0.03731868
97	0x3decca94	0.11562076
98	0x3d739c16	0.059475027
99	0xbd30771b	-0.043082338
100	0x3dc030c7	0.093843035
101	0x3c874b62	0.016515438
102	0xbcdd0db6	-0.026984077
103	0x3cef755c	0.029230766
104	0x3cefb4a9	0.02926095
105	0x3cc58791	0.024112495
106	0xbd916387	-0.070990615
107	0x3d8e470e	0.06947146
108	0xbd911c2a	-0.0708545
109	0x3d89ba06	0.06724934
110	0xbd855aeb	-0.06511482
111	0x3ca26c9e	0.019827183
112	0x3d1f9663	0.03896178
113	0x3d8aac76	0.067711756
114	0xbd358a04	-0.044321075
115	0xbd0f3488	-0.034962207
116	0x3cdacaea	0.026708085
117	0x3cf61e3b	0.030043712
118	0x3dc50e11	0.096218236
119	0xbcc38efa	-0.023871887
120	0x3cc26da4	0.023733921
121	0xbd09414c	-0.033509538
122	0xbce325b1	-0.027727934
123	0x3dbf574f	0.09342825
124	0x3dc9f11d	0.09860442
125	0x3d26f2c0	0.04075885
126	0x3d855b5f	0.06511568
127	0xbd851e16	-0.06499879

weight f4 [8, 128]
0	0x3ccd9930	0.02509746
1	0x3cfa9d5c	0.030592613
2	0x3d216f82	0.039412983
3	0xbd5259ea	-0.05135528
4	0xbd095348	-0.03352669
5	0xbdd5eed4	-0.104459435
6	0x3d0de45a	0.0346416
7	0xbd4cfd66	-0.050046347
8	0xbce39bac	-0.027784191
9	0xbdaa3efe	-0.08312796
10	0xbc06e40b	-0.008233081
11	0x3d82c0d5	0.06384436
12	0xbd3a184b	-0.045433324
13	0x3d3dfb8f	0.046382483
14	0x3d552cad	0.05204456
15	0xbd6a6235	-0.057222564
16	0xbd8a7027	-0.067596726
17	0x3b65e919	0.0035081564
18	0xbb1cb900	-0.002391398
19	0xbdc14ae9	-0.09438116
20	0xbd21bc65	-0.039486308
21	0x3d98c760	0.07459903
22	0x3d2634ba	0.040577628
23	0x3d24c9ee	0.040231638
24	0x3cc34050	0.023834378
25	0x3d0cd21e	0.03438007
26	0xbc3bd048	-0.011463232
27	0x3d5ca29c	0.053866014
28	0x3d72e70a	0.059302367
29	0xbd03d608	-0.032186538
30	0xbd35e027	-0.04440322
31	0xbcbc4028	-0.02297981
32	0x3ca3263a	0.019915689
33	0xbd310578	-0.043218106
34	0x3ce7852d	0.028261745
35	0xbd9c1190	-0.07620537
36	0xbd50eae5	-0.051005263
37	0x3d8f3a0f	0.06993496
38	0x3cf7cf73	0.030250287
39	0x3d9532ff	0.07285117
40	0x3daad87d	0.08342073
41	0x3d274f59	0.040847156
42	0xbd607143	-0.054795515
43	0x3d0bc0b2	0.034119315
44	0xbdb291f4	-0.087192446
45	0x3d530061	0.051514033
46	0x3956a0fe	0.00020468605
47	0xbdadcb45	-0.08486036
48	0x3cdd3e1b	0.027007153
49	0xbdad84fd	-0.08472631
50	0xbd837bd7	-0.06420105
51	0xbb41c940	-0.0029569417
52	0x3d397720	0.045279622
53	0x3d91f080	0.0712595
54	0x3ca8e7e8	0.020618394
55	0x3d3103bb	0.04321645
56	0xbdb4a386	-0.08820252
57	0x3ce56084	0.028000124
58	0x3d4929f7	0.049112286
59	0x3da8bd03	0.08239176
60	0x3da369ee	0.07979189
61	0xbd8a1133	-0.06741562
62	0x3d1f7d9e	0.038938157
63	0x3cf916b8	0.030406341
64	0x3d559586	0.05214455
65	0x3d92f04b	0.071747385
66	0xbd55a855	-0.052162487
67	0x3b54cf88	0.003247233
68	0x3d2517c1	0.040305857
69	0xbc25b478	-0.010113828
70	0xbcb0b5a0	-0.02157098
71	0xbd127b34	-0.035762027
72	0x3c631a62	0.013861271
73	0xbd8d4aae	-0.0689901
74	0xbbdeacd0	-0.006795503
75	0xbdbbc734	-0.09168854
76	0x3d9ecaa3	0.07753494
77	0x3d8b3590	0.067973256
78	0x3d98baa6	0.07457475
79	0x3d4b3958	0.049615234
80	0x3da187fc	0.07887265
81	0xbd355813	-0.044273447
82	0xbd0f70ce	-0.03501969
83	0x3b93d213	0.004511127
84	0x3d39ca16	0.04535874
85	0x3d56d6ca	0.052450933
86	0xbcdb4ce4	-0.026770063
87	0xbcc36034	-0.023849584
88	0xbd5a75a9	-0.053334866
89	0xbddb3acf	-0.10704576
90	0x3d86628d	0.06561766
91	0x3d5a54fa	0.053303696
92	0xbdacd023	-0.084381364
93	0x3aa9e5c4	0.0012962152
94	0x3c5c54f0	0.013447985
95	0xbd6a2a3b	-0.05716918
96	0x3dafa607	0.08576589
97	0x3b6a7708	0.0035776515
98	0xbbfaddea	-0.0076558487
99	0x3cf0a3b5	0.029374937
100	0xbd7e9834	-0.06215687
101	0xbd651ed8	-0.055937618
102	0x3d55ea2a	0.05222527
103	0xbd602565	-0.054723162
104	0xbd483684	-0.048880115
105	0xbdafd96c	-0.08586392
106	0xbccf1e70	-0.025283068
107	0xbd2fc66e	-0.042913847
108	0x3db3070f	0.08741581
109	0xbdb84996	-0.089984104
110	0xbd20598c	-0.0391479
111	0xbd0b3d6b	-0.03399412
112	0xbdb01cdf	-0.08599257
113	0xbd9aecea	-0.07564719
114	0x3dab9a9d	0.083790995
115	0x3d552fbe	0.052047484
116	0x3d7fd40d	0.062458087
117	0xbd095d14	-0.03353603
118	0x3d29f368	0.041491896
119	0xbb504fc0	-0.0031785816
120	0x3d8da0e3	0.06915452
121	0x3d058ff3	0.032607984
122	0xbd4b665a	-0.049658157
123	0xbd8e0b7d	-0.06935785
124	0x3d2f9c0e	0.042873435
125	0xbd2da1c8	-0.042390615
126	0xbbc7530a	-0.006082897
127	0xbccc8aa4	-0.024968453
128	0xbd5a0dc8	-0.0532358
129	0xbcead434	-0.02866564
130	0x3d7c346e	0.06157344
131	0x3d34dc3c	0.044155344
132	0x3d9a4cc9	0.07534177
133	0xbbfb2ad0	-0.0076650158
134	0xbd95f6b3	-0.07322445
135	0xbd7ff182	-0.06248618
136	0x3c8fe2d8	0.017564222
137	0x3d3935ae	0.04521721
138	0xbd52ac0e	-0.051433615
139	0xbd2661f5	-0.040620763
140	0x3d469c46	0.048488878
141	0x3d243851	0.04009277
142	0x3c7aa389	0.015297779
143	0xbc6a8d00	-0.014315844
144	0xbb2c2a5a	-0.002627036
145	0xbc1a5fa9	-0.009422221
146	0xbd56cc3c	-0.052440867
147	0xbde2f222	-0.110813394
148	0x3b8bb050	0.0042629614
149	0x3d0638c5	0.032768983
150	0xbd49cbf6	-0.049266778
151	0xbca38780	-0.019962072
152	0x3d48f8c6	0.049065374
153	0x3db0e3da	0.08637209
154	0x3b31fe7a	0.0027159736
155	0xbd777ec5	-0.06042363
156	0xbc858c4c	-0.01630225
157	0xbd9a6f5e	-0.07540773
158	0x3d9e8fd5	0.077422775
159	0x3dac2cdd	0.084069945
160	0x3da2f77d	0.07957361
161	0x3d110020	0.03540051
162	0x3cb4c7af	0.022067873
163	0xbb4e6250	-0.0031491704
164	0xbc4ddfb0	-0.012565538
165	0xbd13c2eb	-0.03607456
166	0xbcde6f53	-0.027152693
167	0xbd88580e	-0.0665742
168	0xbc0805e0	-0.008302182
169	0xbd9d8c60	-0.0769279
170	0xbdac838f	-0.0842353
171	0x3baa0800	0.005188942
172	0x3c5cd7c8	0.013479181
173	0xbdc683db	-0.09693118
174	0xbdc7b005	-0.0975037
175	0xbd674f95	-0.05647238
176	0x3d9e220e	0.07721339
177	0x3d465bdd	0.04842745
178	0xbd655baa	-0.05599562
179	0x3d9e9ac9	0.07744367
180	0xbb86b136	-0.0041104807
181	0x3d5ee5cc	0.05441837
182	0xbd3eabc7	-0.04655054
183	0xbd7f3bf9	-0.062313054
184	0xbd669286	-0.05629208
185	0xbd053c99	-0.032528494
186	0xbcf0a232	-0.029374216
187	0xbd9fed32	-0.07808913
188	0xbdaf8f93	-0.085723065
189	0x3b911b40	0.0044282973
190	0xbd27b5cd	-0.040944863
191	0x3d2e1f3e	0.042510264
192	0xbd24b03c	-0.040207133
193	0xbd61b8fa	-0.055108048
194	0x3cd49814	0.025951423
195	0xbd6fdd9d	-0.058560956
196	0xbd50a845	-0.050941724
197	0x3d688dea	0.056775965
198	0x3cf0c220	0.029389441
199	0x3d8ef899	0.0698101
200	0x3d9cfe90	0.076657414
201	0x3d9cbefa	0.076536134
202	0xbc36183a	-0.0111141745
203	0xbdc3e1a4	-0.09564522
204	0xbb9ec680	-0.0048454404
205	0x3d885528	0.06656867
206	0xbc901249	-0.017586844
207	0x3d24e699	0.040258978
208	0x3d61399a	0.054986574
209	0xbd925062	-0.07144238
210	0x3c859334	0.016305543
211	0xbd4cf489	-0.050037894
212	0xbdae8a23	-0.08522441
213	0xbc932510	-0.017962009
214	0xbda46a7c	-0.08028123
215	0x3d82b2e4	0.06381777
216	0x3da40eb5	0.08010618
217	0xbc745eb5	-0.014915158
218	0xbd755a6a	-0.05990068
219	0x3d3dd9a7	0.046350148
220	0x3da0b0a4	0.078461915
221	0xbdd6f5ad	-0.10496078
222	0xbd16010a	-0.036622085
223	0x3bf4c969	0.007470299
224	0x3c353758	0.011060558
225	0xbdd6be11	-0.10485471
226	0xbcda5941	-0.026653888
227	0x3d0bbde4	0.03411664
228	0xbd848200	-0.06470108
229	0xbba0cb9c	-0.0049070846
230	0xbd8b5f60	-0.06805301
231	0x3d4207e2	0.0473708
232	0xbd48a3f6	-0.04898449
233	0xbc978469	-0.018495755
234	0x3d2a7a1b	0.041620355
235	0x3d23aada	0.03995786
236	0x3c7098d8	0.014684878
237	0xbd94094c	-0.07228336
238	0x3db21a05	0.08696369
239	0xbdc13671	-0.09434212
240	0xbd6be8b8	-0.057594985
241	0xbcd43dad	-0.025908316
242	0xbd4d9611	-0.050191943
243	0xbcdc809e	-0.026916798
244	0x3dad79b8	0.08470482
245	0x3d38b1b0	0.04509133
246	0x3c036b39	0.008021169
247	0x3d7cccde	0.061718814
248	0xbc95cf70	-0.01828739
249	0x3c8e023d	0.017335052
250	0x3cc11373	0.023568844
251	0xbdf8cf59	-0.121489234
252	0xbdb11a4e	-0.08647595
253	0x3c46ecf0	0.012141451
254	0xbb4d29b1	-0.0031305368
255	0xbd5ac8d3	-0.053414177

bias f4 [8]
0	0xbe35d36e	-0.17756435
1	0xbe0f037a	-0.1396617
2	0xbe796fcf	-0.24359058
3	0xbe5c9050	-0.21539426
4	0xbe1baa8a	-0.15201774
5	0xbe4b4f7e	-0.19854543
6	0xbe3f7fac	-0.18701047
7	0xbddf7987	-0.109118514
