model-doom.pth (torch, 114543 bytes, 8 tensors)

weight f4 [8, 1, 6, 6]
0	0xbdf19a22	-0.117969766
1	0x3e15a691	0.14614321
2	0x3de20794	0.11036602
3	0xbdd8ab68	-0.10579568
4	0xbde08bda	-0.109641746
5	0xbb66ab12	-0.003519718
6	0xbe1aca67	-0.15116273
7	0x3dde6673	0.108593844
8	0xbdc3fce4	-0.095697194
9	0x3b47ebf6	0.0030505634
10	0xbdbb455f	-0.09144091
11	0xbdad3cfe	-0.08458899
12	0xbda329e3	-0.07966974
13	0x3d536f96	0.05162009
14	0xbd913bec	-0.07091507
15	0x3d91b45b	0.07114478
16	0x3d1865e9	0.037206564
17	0x3cc6a137	0.024246795
18	0xbe175466	-0.14778289
19	0x3df8375f	0.12119936
20	0x3db9a263	0.09064176
21	0xbe1e9089	-0.15484823
22	0xbdf83896	-0.12120168
23	0x3a8c4120	0.0010700561
24	0x3bf813ae	0.0075707054
25	0xbba1b5a2	-0.0049349824
26	0x3d0f86b3	0.03504057
27	0x3e0db05a	0.13836804
28	0x3d85c217	0.0653116
29	0xbdec8241	-0.115482815
30	0x3ce82c54	0.02834145
31	0x3cb59113	0.022163903
32	0xbdd022a5	-0.10162858
33	0xbdf5add1	-0.119960435
34	0x3bdef5db	0.0068042106
35	0xbd3854be	-0.04500269
36	0xbd16d885	-0.036827583
37	0x3deb4ce9	0.11489279
38	0xbdc8c369	-0.098028965
39	0x3dad17c9	0.08451802
40	0x3e01c10e	0.12671301
41	0xbd9f1a60	-0.077687025
42	0x3d7ec334	0.06219788
43	0x3e0d9880	0.13827705
44	0x3d2c6abc	0.042093977
45	0xbdd7d49e	-0.105386004
46	0x3de4ddde	0.1117513
47	0x3dda86a8	0.10670215
48	0xbd0030e8	-0.03129664
49	0x3e11bc69	0.14232029
50	0x3d491c58	0.049099296
51	0xbd9c8e5f	-0.07644343
52	0x3dd60d8f	0.10451805
53	0xbddf4f27	-0.10903769
54	0x3df5c30e	0.12000094
55	0xbdb43c6b	-0.08800586
56	0xbcfb8e2f	-0.030707447
57	0xbe29d304	-0.16584402
58	0xbde006bf	-0.10938787
59	0x3c99ab0a	0.018758316
60	0x3cda72a3	0.026665991
61	0xbc6b35e8	-0.014356114
62	0xbe11a70b	-0.14223878
63	0x3dd8568b	0.10563382
64	0x3e0c024c	0.13672751
65	0x3dc5353f	0.096292965
66	0xbd6aed02	-0.057354935
67	0xbda309c1	-0.07960845
68	0x3e0fe58e	0.14052412
69	0xbdefd235	-0.11710016
70	0x3d754b53	0.059886288
71	0x3d9c68a0	0.07637143
72	0x3b9089a6	0.00441094
73	0xbc86d6de	-0.016459879
74	0x3dcfcb93	0.101462506
75	0x3dff1e50	0.124569535
76	0xbd6686cd	-0.0562809
77	0x3d18f0b5	0.03733893
78	0x3dbe925f	0.09305262
79	0x3d91bb17	0.07115763
80	0xbd99d528	-0.075113595
81	0xbcb727fd	-0.022357935
82	0xbd5db63a	-0.054128863
83	0xbd16b677	-0.036795106
84	0x3c7e99a7	0.015539563
85	0xbe099fec	-0.13439912
86	0xbdf762e2	-0.12079407
87	0xbcdd9abf	-0.027051328
88	0xbd006621	-0.031347398
89	0x3dbab7aa	0.091170624
90	0x3abd407a	0.0014438771
91	0xbdf7db38	-0.121023595
92	0x3c001814	0.007818241
93	0xbb64b047	-0.0034895109
94	0x3d32ba7f	0.043634888
95	0x3df87e03	0.1213341
96	0x3dc9009e	0.09814571
97	0xbd3660c4	-0.044525877
98	0x3d6f8e3a	0.058485247
99	0x3e23eb1e	0.16007659
100	0x3de55167	0.11197167
101	0xbdf013a5	-0.11722497
102	0xbdf1878d	-0.117934324
103	0x3dad490b	0.084611975
104	0x3d9f1db9	0.07769341
105	0xbcec1d05	-0.028822431
106	0x3d213baa	0.03936354
107	0xbe16c894	-0.14724952
108	0xbdcf904b	-0.101349436
109	0xbb4d4df9	-0.0031326993
110	0xbdcbb494	-0.09946552
111	0x3dcdbb2d	0.100454666
112	0x3e0d23bf	0.13783167
113	0x3da56f1a	0.080778316
114	0x3d184530	0.037175357
115	0x3e11cb4b	0.14237706
116	0xbce4e294	-0.027940072
117	0x3dc77ec2	0.09740974
118	0xbcaed3b2	-0.021341179
119	0x3d32f2e1	0.04368866
120	0xbd6c111e	-0.05763351
121	0xbce6f817	-0.02819447
122	0x3e112efb	0.14178078
123	0x3d95bb02	0.073110595
124	0x3ddf07f0	0.10890186
125	0x3e0a0192	0.13477162
126	0xbe294d44	-0.16533381
127	0xbe168bd0	-0.14701772
128	0x3c6dd99b	0.014517213
129	0xbe03d4bf	-0.12874125
130	0x3c64089c	0.013918068
131	0xbdd28464	-0.10279158
132	0xbe14e198	-0.14539182
133	0xbd4b6c60	-0.0496639
134	0x3dbd52d7	0.09244316
135	0x3d94adb8	0.07259697
136	0xbd53403a	-0.051574923
137	0x3da26c3f	0.079308026
138	0x3e24fe5c	0.16112655
139	0xbe23a060	-0.15979147
140	0x3ddff0f2	0.109346285
141	0x3c45b39e	0.01206675
142	0xbce61fda	-0.02809136
143	0xbd796e4e	-0.06089621
144	0xbe13c9f6	-0.1443251
145	0xbdf60363	-0.12012365
146	0xbd0e69b4	-0.034768775
147	0xbe25ea73	-0.16202717
148	0x3de3a92e	0.11116253
149	0xbe292377	-0.16517435
150	0x3d957ae8	0.07298833
151	0x3d51a934	0.051186755
152	0x3c8f3fc0	0.017486453
153	0x3cd739c0	0.026272655
154	0xbb115f00	-0.0022181869
155	0xbdb59d16	-0.088678524
156	0xbe15dde7	-0.1463543
157	0xbe126fba	-0.14300433
158	0xbde095a0	-0.10966039
159	0xbe0f271e	-0.13979766
160	0xbd64a980	-0.05582571
161	0xbdf49736	-0.11942904
162	0xbdcd3523	-0.10019901
163	0x3d844c90	0.06459916
164	0x3cc79cd8	0.024366781
165	0xbdb0fc73	-0.08641901
166	0xbe12fefc	-0.14355081
167	0x3d9a6d5e	0.075403914
168	0xbd2096e4	-0.0392064
169	0x3d1754f0	0.036946237
170	0xbe01aad6	-0.12662825
171	0x3dd9a67e	0.10627459
172	0xbddcf50e	-0.10788928
173	0x3ca2d068	0.019874766
174	0xbde3d790	-0.111251
175	0x3e1e9bf1	0.15489174
176	0x3dfaad32	0.12240066
177	0xbe03b26b	-0.1286103
178	0x3bbb1920	0.0057097822
179	0xbd8b63ce	-0.068061456
180	0x3d9027cf	0.07038843
181	0xb99ea6bd	-0.00030260338
182	0x3dae3c14	0.08507553
183	0x3da6ee00	0.08150864
184	0xbc361e2f	-0.011115595
185	0xbd1d9191	-0.0384689
186	0x3da009f9	0.07814402
187	0x3e02b7b1	0.12765385
188	0x3cf33b2a	0.029691298
189	0xbe0a1df6	-0.13487992
190	0x3d1daa97	0.038492765
191	0x3b4f2f95	0.0031614054
192	0x3e0cfaba	0.1376752
193	0x3d3c5fa3	0.045989644
194	0x3e1d4705	0.15359123
195	0xbe0d8843	-0.13821511
196	0xbdf90ff3	-0.12161245
197	0x3ddfab72	0.109213725
198	0xbd2123d4	-0.03934081
199	0xbe1ee63d	-0.15517516
200	0xbdac61c6	-0.08417086
201	0x3d5a41ae	0.053285293
202	0xbc150cfb	-0.009097333
203	0xbd72a990	-0.05924374
204	0x3ced2ef7	0.028953059
205	0xbcf2e4ba	-0.029650081
206	0x3c77d50d	0.015126479
207	0xbdd96a97	-0.106160335
208	0xbd145567	-0.03621426
209	0xbdeea12b	-0.11651834
210	0x3d42229e	0.047396295
211	0xbe095d5a	-0.13414517
212	0x3e1a4be7	0.15068017
213	0x3dad3128	0.084566414
214	0xbda2d8b7	-0.07951491
215	0xbd412f2f	-0.04716414
216	0xbd617b7a	-0.055049397
217	0xbe0aee02	-0.13567355
218	0x3dcf8c9d	0.10134242
219	0x3e04bdca	0.12963024
220	0x3cfbe3de	0.030748304
221	0x3e1172dc	0.14203972
222	0xbd1795c0	-0.037008047
223	0xbd03a6df	-0.032141563
224	0x3dd842be	0.10559605
225	0x3ceaa586	0.02864338
226	0xbba8888f	-0.005143232
227	0x3d00e621	0.031469468
228	0xbd8f12b7	-0.069859914
229	0x3dba40be	0.0909438
230	0xbd777832	-0.06041736
231	0x3d0c525e	0.03425824
232	0xbcf5f2e8	-0.030023053
233	0xbd21dc23	-0.03951658
234	0xbdc0c3fb	-0.0941238
235	0xbd5bf90d	-0.05370431
236	0xbdf42bdc	-0.11922428
237	0x3e06177a	0.13094893
238	0x3d82b2c6	0.063817546
239	0xbe0917a4	-0.13387924
240	0xbd969504	-0.07352641
241	0xbdaca7ab	-0.084304176
242	0xbe09e1f9	-0.13465108
243	0x3e10ce3f	0.14141177
244	0x3cfde68b	0.03099372
245	0x3c257855	0.01009949
246	0xbe1b26a7	-0.15151463
247	0xbdb84531	-0.08997572
248	0x3dc1fde5	0.09472255
249	0xbdb0e03a	-0.08636518
250	0xbe0f27a5	-0.13979967
251	0x3de90b40	0.11379099
252	0x3d9b9928	0.075975716
253	0xbd7b3fa5	-0.061339993
254	0x3c83afc1	0.016075017
255	0x3db20101	0.08691598

bias f4 [8]
0	0x3d8e74bf	0.06955861
1	0xbddd625c	-0.10809776
2	0xbd67429b	-0.056460004
3	0xbda254c9	-0.07926328
4	0xbdc6030e	-0.096685514
5	0xbdcab3ac	-0.09897551
6	0x3d45fd0c	0.048337027
7	0xbd9c36ec	-0.07627663

weight f4 [8, 8, 3, 3]
0	0xbdb80177	-0.089846544
1	0x3d8e76be	0.06956242
2	0x3dcdfbf0	0.10057819
3	0x3d5e581b	0.054283243
4	0x3d5295c5	0.051412363
5	0x3dee1df6	0.11626808
6	0xbd435c3a	-0.047695376
7	0x3d109c76	0.035305463
8	0x3d4944cb	0.04913787
9	0xbd21b470	-0.03947872
10	0xbd7ecdf4	-0.06220813
11	0xbdb86a12	-0.09004606
12	0xbdbaa094	-0.09112659
13	0xbdc6824a	-0.096928194
14	0x3dbe4084	0.09289649
15	0xbdadc164	-0.08484152
16	0xbd261c0e	-0.0405541
17	0x3db1acda	0.08675547
18	0x3d87266c	0.06599125
19	0xbd769034	-0.060196117
20	0x3d647bae	0.055782013
21	0xbde9a4f3	-0.11408415
22	0xbd4e3e03	-0.050352108
23	0x3dc1a3a6	0.094550416
24	0x3d0bc06d	0.03411906
25	0x3db2f434	0.08737984
26	0xbde087af	-0.109633796
27	0xbd15cb4e	-0.03657084
28	0x3dcdb421	0.100441225
29	0xbd55bf34	-0.0521843
30	0xba21eb5d	-0.00061767345
31	0x3d97c694	0.07410923
32	0x3de87a8b	0.11351498
33	0x3dcc2aa1	0.09969068
34	0xbd7700b7	-0.060303416
35	0x3b5a8f24	0.0033349479
36	0xbd82aeb6	-0.0638098
37	0xbb686660	-0.003546141
38	0x3dd2f5c1	0.1030078
39	0x3ddf9a53	0.10918107
40	0x3ded4625	0.11585645
41	0x3cb252bc	0.021767966
42	0x3cc90d5c	0.024542503
43	0xbd73d504	-0.05952932
44	0x3c5515f8	0.013005726
45	0x3cebfc84	0.028806932
46	0xbd2922c6	-0.04129293
47	0xbd772a7a	-0.060343243
48	0xbdc55377	-0.0963506
49	0xbdc8fa50	-0.09813368
50	0xbd92644e	-0.07148038
51	0x3d30bca7	0.043148663
52	0x3daa566b	0.08317264
53	0xbcc23eda	-0.02371161
54	0x3d9bed14	0.076135784
55	0xbbc831bf	-0.006109446
56	0xbdc42d43	-0.095789455
57	0xbcf50062	-0.02990741
58	0x3bb66404	0.005566122
59	0xbd8f3103	-0.0699177
60	0x3d6cf097	0.05784663
61	0xbcdcb7a9	-0.026943045
62	0xbd6004a2	-0.05469192
63	0xbd765ff0	-0.060150087
64	0xbd11f712	-0.035636015
65	0xbd2f6f70	-0.042830884
66	0xbde7c2e9	-0.11316473
67	0x3c48a7f4	0.012247074
68	0x3de819d1	0.11333049
69	0x3ddc95e1	0.10770775
70	0xbc75788f	-0.014982357
71	0xbdc110c0	-0.09427023
72	0xbd7018c4	-0.05861737
73	0x3cb76da4	0.022391148
74	0xbd97807a	-0.07397552
75	0xbc637b79	-0.013884419
76	0x3d9014c6	0.07035212
77	0xbcdf49b1	-0.027256818
78	0x3d1fe5ce	0.03903752
79	0xbd8ad960	-0.06779742
80	0xbdaa8d52	-0.08327736
81	0xbdf0b935	-0.117540754
82	0xbdbd9452	-0.092568055
83	0xbde393e9	-0.11112196
84	0xbd88a433	-0.066719435
85	0x3cbb49be	0.022862311
86	0xbc345914	-0.011007566
87	0xbda138ab	-0.07872137
88	0x3bf18555	0.0073706307
89	0x3d98b76a	0.074568585
90	0xbcc4fcb0	-0.024046272
91	0x3d17625c	0.036959037
92	0xbd891246	-0.066929385
93	0x3ccbbb6d	0.024869645
94	0x3c7dc5f9	0.015489095
95	0xbd8a7bd0	-0.067618966
96	0x3da653f0	0.081214786
97	0x3ca535c2	0.020167235
98	0x3df0d034	0.117584616
99	0x3d4557ed	0.048179556
100	0xbdbba521	-0.09162355
101	0x3cb7094d	0.022343302
102	0x3df0308c	0.117280096
103	0xbde340bb	-0.11096331
104	0x3d913a4d	0.07091198
105	0xbc57efdd	-0.013179746
106	0x3cf73853	0.030178225
107	0x3d015735	0.031577308
108	0xbd8c12b4	-0.06839505
109	0x3bfe0450	0.007751979
110	0xbd8552a5	-0.06509904
111	0x3dcfb397	0.10141676
112	0xbd59d9e2	-0.053186305
113	0xbd5469c4	-0.05185868
114	0x3db63515	0.08896843
115	0x3d9af567	0.07566338
116	0x3d9bae33	0.07601585
117	0xbc333952	-0.010938959
118	0x3dd97e36	0.10619776
119	0x3d7bf65b	0.06151424
120	0x3dd99097	0.106232814
121	0x3d86f2d5	0.06589285
122	0xbdc4d07f	-0.0961008
123	0xbcf14b60	-0.029454887
124	0x3d9e52af	0.077306144
125	0x3c7218e9	0.014776447
126	0x3ddda052	0.10821594
127	0xbd40548d	-0.046955634
128	0x3cfed0b7	0.031105382
129	0x3d82f456	0.0639426
130	0x3c9e6ce6	0.019339036
131	0xbdacfb79	-0.08446402
132	0xbddab64e	-0.10679303
133	0xbb8dbd94	-0.004325578
134	0x3abf4637	0.0014593069
135	0x3dc1b67c	0.09458634
136	0xbcb47892	-0.022030149
137	0xbd8ad4e7	-0.06778889
138	0x3d9b6e97	0.07589453
139	0x3db38374	0.08765307
140	0xbde5de64	-0.11224058
141	0x3abee6d4	0.0014564642
142	0xbd43e28d	-0.047823478
143	0x3d3c56b3	0.04598112
144	0xbdc4556c	-0.095866054
145	0xbd178a6a	-0.036997236
146	0xbcab2870	-0.020893306
147	0xbdc04970	-0.09389007
148	0xbd11cc62	-0.035595305
149	0xbbd686e0	-0.00654684
150	0xbd303770	-0.04302162
151	0xbcf66b90	-0.030080587
152	0x3c1b2398	0.009468935
153	0xbc686d65	-0.014186238
154	0xbbcf66d4	-0.0063293967
155	0xbd384911	-0.044991557
156	0xbde6b874	-0.112656504
157	0xbd06b4d8	-0.03288731
158	0x3da8f5b8	0.08249992
159	0xbd1a25c2	-0.037633665
160	0xbd240a43	-0.04004885
161	0x3d30210d	0.04300027
162	0x3c5b0fc8	0.013370462
163	0x3d852659	0.06501455
164	0x3dd5744f	0.10422575
165	0x3dd1ed1f	0.102503054
166	0x3dacd1aa	0.08438428
167	0x3dea5da5	0.114436425
168	0x3d4788e2	0.048714526
169	0x3d8ffd9f	0.07030796
170	0xbdbd2d57	-0.092371635
171	0x3bdbf0f0	0.0067120716
172	0xbddb1211	-0.10696805
173	0x3d4d9961	0.0501951
174	0x3dc82d23	0.09774234
175	0x3d8a1638	0.06742519
176	0x3d6d634e	0.057956032
177	0xbceef6c5	-0.029170403
178	0x3da11cb7	0.07866805
179	0x3d8a5eeb	0.067563854
180	0x3ccd8374	0.025087096
181	0x3dee94fd	0.11649511
182	0xbd82280d	-0.06355295
183	0xbdc52d4c	-0.0962778
184	0xbb016a20	-0.0019747093
185	0xbdc57bbe	-0.096427426
186	0xbdedb396	-0.11606519
187	0xbd03ce7c	-0.03217934
188	0x3c194a58	0.009356104
189	0x3ccb181c	0.02479177
190	0xbb8b5f70	-0.0042533204
191	0x3bb9a7d0	0.0056657568
192	0xbdeeeef8	-0.116666734
193	0x3db79adf	0.08965086
194	0xbdb14fd4	-0.08657804
195	0x3d751bb6	0.05984088
196	0x3d624ac6	0.05524709
197	0x3c29a81c	0.010355022
198	0xbc9c2423	-0.0190602
199	0xbdb62e1e	-0.08895515
200	0xbc9b698c	-0.018971227
201	0xbdb46a54	-0.08809343
202	0x3d9ebc79	0.07750792
203	0x3b96cbd0	0.004601933
204	0x3d3723cb	0.04471187
205	0x3dbfa15a	0.09356947
206	0x3dd5e975	0.10444919
207	0x3be7e0a9	0.007076342
208	0xbd0de2cb	-0.034640115
209	0x3dc9a3e7	0.09845715
210	0xbddcd8c6	-0.10783534
211	0x3dddbdfe	0.10827254
212	0xbda16670	-0.078808665
213	0x3c5c2ad0	0.013437942
214	0x3d44eb06	0.0480757
215	0xbdcc9368	-0.09989053
216	0xbb0888ac	-0.0020833416
217	0xbcb3f956	-0.021969479
218	0xbc071126	-0.008243835
219	0xbdb04451	-0.0860678
220	0xbceabd66	-0.028654765
221	0x3de07175	0.1095914
222	0xbdbf04c8	-0.09327084
223	0x3ddee28a	0.10883053
224	0xbce994d7	-0.028513355
225	0xbd87eeb9	-0.066373296
226	0xbcdbc6f1	-0.026828261
227	0x3bddef19	0.0067728874
228	0x3b853b0e	0.0040658778
229	0xbbb5476b	-0.0055321953
230	0x3de72d0d	0.1128789
231	0x3d86c32e	0.06580196
232	0xbdad7b0d	-0.08470736
233	0xbdcb7cd9	-0.09935922
234	0xbd0832b2	-0.03325147
235	0xbd6169f2	-0.055032678
236	0x3dd5b6a5	0.10435227
237	0xbda00a12	-0.07814421
238	0xbdb47d8a	-0.08813007
239	0x3d957fd0	0.07299769
240	0x3de5c96c	0.11220059
241	0xbda50434	-0.08057442
242	0xbdb8fc2b	-0.09032472
243	0xbd16844a	-0.036747254
244	0xbc3dcf9f	-0.011585145
245	0xbd50908c	-0.0509191
246	0x3ce0e013	0.027450597
247	0x3da10c2b	0.07863649
248	0xbd8d1964	-0.068896085
249	0x3dd8d507	0.10587507
250	0xbd599c41	-0.05312753
251	0x3d718986	0.058969043
252	0x3dcd56f1	0.100263484
253	0xbd68e53a	-0.056859232
254	0xbcbcaff0	-0.023033112
255	0xbdd4bdae	-0.10387741

bias f4 [8]
0	0xbbdb8e59	-0.006700319
1	0x3d48301f	0.048874017
2	0xbdafc93d	-0.08583305
3	0x3e02929b	0.12751238
4	0xbda6d85a	-0.081467345
5	0x3cdea384	0.02717758
6	0xbbd94123	-0.0066300794
7	0x3da24faf	0.07925355

weight f4 [128, 192]
0	0x3bcdd5bb	0.006281582
1	0xbd803065	-0.062592305
2	0x3d823e11	0.063594945
3	0x3d8f7a72	0.070057765
4	0xbd619ba0	-0.055080056
5	0xbd6bbf31	-0.05755538
6	0x3cc90e3f	0.024542926
7	0x3c853686	0.01626135
8	0xbd8c37ae	-0.068465576
9	0x3c48f07c	0.012264367
10	0xbcd6fbc9	-0.026243107
11	0x3d25fc37	0.040523734
12	0xbd822b15	-0.063558735
13	0xbd856b6d	-0.065146305
14	0xbd7f88e3	-0.062386405
15	0xbd862c7e	-0.06551455
16	0xbd2a32b0	-0.041552246
17	0x3cdd393b	0.027004829
18	0x3b16a842	0.0022988473
19	0xbc4da6ac	-0.012551945
20	0x3ba6f9af	0.0050956826
21	0xbcbfe38f	-0.023423938
22	0x3c047212	0.008083837
23	0x3bc4344e	0.0059876805
24	0x3d25b217	0.040453043
25	0xbd5e6a93	-0.054300856
26	0x3cf98a04	0.030461319
27	0x3d66d7c1	0.056358103
28	0x3d20cb61	0.039256457
29	0x3c93f6d3	0.01806203
30	0xbd762b44	-0.060099855
31	0xbc9d6b25	-0.01921613
32	0xbb7df38c	-0.0038749902
33	0x3d1abf19	0.0377799
34	0xbd749bcc	-0.059718892
35	0xbd927cbe	-0.07152699
36	0x3d29ec1b	0.041484933
37	0xbb6dc6aa	-0.0036281743
38	0x3d340a1f	0.043954965
39	0xbcbcea01	-0.0230608
40	0x3be310da	0.006929499
41	0xbd535366	-0.051593207
42	0xb9e4d724	-0.0004364784
43	0xbd71e42e	-0.0590555
44	0x3d8cdda7	0.06878214
45	0xbd634ebb	-0.055495005
46	0xbb67effc	-0.0035390845
47	0x3d42a286	0.047518276
48	0x3995e800	0.00028592348
49	0x3cedfbc8	0.029050723
50	0xbd2684c6	-0.040653966
51	0x3ca0d1f8	0.01963137
52	0xbd8fecec	-0.07027611
53	0xbd6eadf4	-0.058271363
54	0xbd50297e	-0.05082082
55	0x3ca90ee0	0.020636976
56	0xbd2f18f8	-0.04274842
57	0xbbbe8633	-0.0058143376
58	0xbcd59cb4	-0.026075698
59	0xbd89155b	-0.06693526
60	0xbd24243a	-0.04007361
61	0x3d61f314	0.055163458
62	0xbd1e823c	-0.03869842
63	0xbd003766	-0.031302832
64	0xbc58f169	-0.01324115
65	0xbcdfdc66	-0.027326774
66	0xbd6c73b4	-0.05772753
67	0xbd323ed8	-0.043516964
68	0xbd41829e	-0.047243707
69	0x3d8e0094	0.06933704
70	0xbc465b08	-0.0121066645
71	0x3d56c758	0.052436203
72	0x3d7a01e4	0.06103696
73	0xbd103808	-0.035209686
74	0x3ceb3abe	0.028714534
75	0x3b9fb6e2	0.0048740963
76	0x3d162cca	0.036663808
77	0x3cc6743f	0.024225352
78	0x3d4161ad	0.04721229
79	0x3cc6b432	0.024255846
80	0xbcebe6b7	-0.028796537
81	0x3d79b447	0.06096294
82	0x3d8724ad	0.06598792
83	0x3d8442d3	0.06458058
84	0x3cbb616e	0.022873607
85	0xbc7e1e7b	-0.015510197
86	0xbd08e05c	-0.03341709
87	0x3d2bb629	0.04192177
88	0xbd0e388f	-0.034721907
89	0x3d47bc75	0.04876371
90	0xbd1b43fb	-0.037906628
91	0x3d0895f0	0.033346117
92	0x3d8c531c	0.06851789
93	0xbd758707	-0.059943225
94	0xbb9e1746	-0.0048245518
95	0x3d0fbbc8	0.03509119
96	0x3b5c4900	0.0033612847
97	0x3d87340e	0.066017255
98	0xbd7defac	-0.061996147
99	0x3d729a5c	0.05922924
100	0x3a9c16c0	0.0011908635
101	0xbd0a0131	-0.033692542
102	0x3c4f4d78	0.012652747
103	0xbcf91906	-0.03040744
104	0xbd6eef6e	-0.058333807
105	0xbd88bd94	-0.06676784
106	0x3cb10410	0.021608382
107	0x3c1ed5f0	0.009694561
108	0xbd42d4ee	-0.047566347
109	0x3bc73430	0.0060792193
110	0x3cab1f60	0.020888984
111	0x3d4e80d0	0.050415814
112	0x3c120de0	0.008914441
113	0xbd7e68d6	-0.062111698
114	0xbd53e09a	-0.05172787
115	0xbc2f5310	-0.010700956
116	0x3d4660b8	0.048432082
117	0x3d9117a2	0.07084586
118	0xbd83f1af	-0.06442582
119	0xbd3f14d4	-0.046650723
120	0x3d8ee7ca	0.06977804
121	0x3cf0f7ec	0.029415093
122	0x3d6f1161	0.058366183
123	0x3b2da8fe	0.0026498432
124	0x3d8de120	0.06927705
125	0xbd46b0b4	-0.04850836
126	0xbd209d78	-0.039212674
127	0x3c981693	0.018565452
128	0xbd662a93	-0.056192946
129	0xbd7fbbce	-0.062434964
130	0x3d830a38	0.063984334
131	0x3c915b25	0.017743656
132	0xbd0ef958	-0.03490576
133	0x3c7ad4a1	0.015309484
134	0x3cafb654	0.021449246
135	0x3d6c7d6b	0.057736795
136	0xbcd0f6b1	-0.025508257
137	0x3d8fe81c	0.07026693
138	0x3d2b68f9	0.041848157
139	0x3bb0a906	0.005391243
140	0xbd926e6a	-0.07149966
141	0xbcfb4d1d	-0.030676419
142	0xbc91d31e	-0.017800864
143	0x3d543b25	0.051814217
144	0x3d54ddcb	0.05196933
145	0x3d6b046d	0.057377268
146	0xbcdda1df	-0.027054725
147	0xbd271366	-0.040789984
148	0x3d80f83d	0.06297348
149	0x3d8eab4e	0.069662675
150	0xbc16c9f5	-0.009203424
151	0x3d8096fe	0.062787995
152	0xbc98d459	-0.018655943
153	0x3d344926	0.044015072
154	0xbd02120d	-0.031755496
155	0x3d09039b	0.033450704
156	0xbd4de471	-0.050266687
157	0xbc1b6b30	-0.009486005
158	0xbc60a352	-0.013710814
159	0xbc11f3bf	-0.008908211
160	0xbbebbc5c	-0.007194085
161	0x3d6cebf3	0.057842206
162	0xbd50dcad	-0.050991703
163	0x3d49a24d	0.049227048
164	0x3cb92454	0.02260033
165	0x3d2cce50	0.042188942
166	0xbcbcddda	-0.023055006
167	0x3c5499ed	0.012976152
168	0xbd3d8fa1	-0.046279553
169	0xbc9a444a	-0.01883139
170	0xbd67be0f	-0.05657774
171	0xbcff17b3	-0.03113923
172	0x3c26890c	0.01016451
173	0x3c85c588	0.016329542
174	0x3d8d8b2b	0.0691131
175	0x3d7bf83c	0.06151603
176	0x3d736164	0.05941905
177	0x3d04ac28	0.032390743
178	0xbcf1ed66	-0.029532146
179	0x3d15fbbf	0.036617037
180	0xbd8ee349	-0.06976945
181	0xb8a1d50a	-7.71676e-05
182	0x3c0138ae	0.007887049
183	0xbd8489fa	-0.064716294
184	0xbc85139a	-0.016244698
185	0xbd4706ab	-0.048590343
186	0xbd3d147d	-0.046162117
187	0xbd824d59	-0.06362409
188	0xbd352405	-0.044223804
189	0xbd54be44	-0.051939264
190	0x3ba2f0cc	0.004972553
191	0xbd77e5bc	-0.060521826
192	0x3d43f366	0.047839545
193	0x3d786ec7	0.06065252
194	0xbd80d45c	-0.06290504
195	0x3d0d2cd1	0.03446657
196	0xbd2af808	-0.041740447
197	0xbd88c09d	-0.06677363
198	0x3d398c44	0.045299783
199	0x3c171be3	0.009222957
200	0xbd4d0cbb	-0.05006097
201	0x3d8c4da6	0.06850748
202	0x3ceded40	0.029043794
203	0xbd111127	-0.03541675
204	0xbd8d58f2	-0.069017306
205	0x3d417a76	0.04723593
206	0x3d16beb2	0.036802955
207	0xbc41de58	-0.011832796
208	0x3d43eef8	0.04783532
209	0xbaf307c0	-0.0018541738
210	0x3cdb023c	0.026734464
211	0xbd4f0558	-0.050542206
212	0xbcb8119c	-0.022469334
213	0x3d3564c4	0.04428555
214	0x3d2cc8aa	0.042183556
215	0x3d66f660	0.056387305
216	0x3d27bb21	0.040949944
217	0x3d00f86e	0.03148692
218	0xbd7d4aed	-0.061839033
219	0xbcbc85f5	-0.023013094
220	0xbc8cc74a	-0.017184872
221	0xbca9c315	-0.020722905
222	0xbd192b24	-0.037394658
223	0xbd06106b	-0.0327305
224	0x3cc70fdb	0.024299553
225	0xbd5e6013	-0.054290842
226	0x3d450e30	0.048109233
227	0xbd92a1fc	-0.07159802
228	0xbc24ff01	-0.010070563
229	0x3d505fbc	0.05087255
230	0x3d6fd0c8	0.05854872
231	0xbd56fcc2	-0.052487142
232	0xbb80f37d	-0.003935276
233	0x3c86dc96	0.016462605
234	0x3d7c7dff	0.061643597
235	0x3d6d76aa	0.057974495
236	0x3bb0c9d0	0.0053951517
237	0xbc2540b0	-0.0100862235
238	0xbc88c263	-0.016694253
239	0x3ca906c1	0.020633103
240	0x3c6d4e10	0.014483944
241	0xbd171dae	-0.03689354
242	0xbba52ba0	-0.005040601
243	0xbd0e6819	-0.034767244
244	0xbd00820f	-0.031374034
245	0x3c1b7e18	0.009490512
246	0xbc83d84c	-0.01609435
247	0x3d8857c4	0.06657365
248	0x3d652fb4	0.055953696
249	0x3d2c1292	0.042009898
250	0xbd804794	-0.062636524
251	0x3d720034	0.059082225
252	0xbb525b00	-0.0032097697
253	0xbd79ce87	-0.060987975
254	0xbd4e3cde	-0.050351016
255	0xbc07dd20	-0.008292466

bias f4 [128]
0	0x3d71918f	0.058976706
1	0x3cccc58a	0.024996538
2	0xbc592e65	-0.01325569
3	0x3cd1f955	0.025631586
4	0xbd79a2a4	-0.06094612
5	0xbc9b1731	-0.018931957
6	0xbceaf402	-0.028680805
7	0xbcb22034	-0.021743871
8	0xbd03abaa	-0.032146133
9	0xbbb8cb7a	-0.0056394907
10	0x382da104	4.139637e-05
11	0xbd25a3ef	-0.040439542
12	0x3aaee2b9	0.0013342715
13	0x3d31f136	0.043442927
14	0x3b87e457	0.0041470933
15	0xbd05dc21	-0.032680634
16	0xbd1aeeca	-0.037825383
17	0xbc9941e6	-0.01870818
18	0x3d47521c	0.04866229
19	0xbd376d5c	-0.044782028
20	0xbd35474f	-0.04425746
21	0x3dae2fab	0.08505186
22	0xbd1f8760	-0.038947463
23	0x3bbd7a24	0.0057823826
24	0xbd0a9ebe	-0.033842795
25	0x3da266df	0.07929777
26	0x3cbea57a	0.023272265
27	0xbd3b34c3	-0.045704614
28	0x3cae6778	0.021289572
29	0xb9dcebc3	-0.00042137326
30	0xbd619ea4	-0.055082932
31	0xbd181e89	-0.037138496
32	0xbd34d818	-0.044151396
33	0x3c4c4d48	0.012469597
34	0xbaae905f	-0.0013318172
35	0x3d086d95	0.03330763
36	0xbd848447	-0.064705424
37	0xbcaefc2d	-0.021360481
38	0xbd636498	-0.055515856
39	0xbd55816c	-0.05212538
40	0xbd56c5fa	-0.0524349
41	0xbcf5355a	-0.029932667
42	0xbb637ffa	-0.003471373
43	0x3ba5f590	0.0050646737
44	0x3c827dc5	0.015929112
45	0x3d2026a2	0.039099343
46	0xbd5f2b98	-0.054484934
47	0xbd83053f	-0.06397485
48	0xbcc4be2a	-0.024016459
49	0x3c860cf3	0.016363597
50	0xbd544812	-0.051826544
51	0x3cb26eac	0.021781288
52	0x3b4205b6	0.0029605455
53	0x3b814d60	0.0039459914
54	0x3dbc5722	0.09196307
55	0xbbaebc60	-0.0053325146
56	0xbccbf406	-0.024896633
57	0x3da9c123	0.08288791
58	0xbd74d4c2	-0.059773214
59	0x3d1ff281	0.03904963
60	0x3d3cb7da	0.046073772
61	0xbd8adeb4	-0.067807585
62	0x3cf4ea3e	0.029896852
63	0x3d3040ca	0.043030538
64	0x3d42e1c1	0.047578577
65	0xbc15dc48	-0.009146757
66	0xbd7c8377	-0.061648812
67	0xbbf7aca3	-0.0075584217
68	0x3cb1d9f9	0.021710383
69	0x3c881c2b	0.016614994
70	0xbd02aba8	-0.031901985
71	0xbd057ae4	-0.0325879
72	0xbc185ac0	-0.00929898
73	0xbd862401	-0.06549836
74	0xbd42c6ee	-0.047552995
75	0x3cb5b893	0.022182738
76	0xbd8d0d30	-0.06887281
77	0xbd890eb3	-0.06692257
78	0xbc6b95b8	-0.014378957
79	0x3d285778	0.04109904
80	0x3cedff24	0.029052325
81	0x3d8665d6	0.065623924
82	0x3d1bd8ce	0.038048558
83	0xbd6a4c55	-0.057201702
84	0xbc1a550a	-0.009419689
85	0xbcc77974	-0.024349906
86	0xbc853a0c	-0.01626303
87	0x3cb4c3f0	0.022066087
88	0x3c9dd913	0.019268548
89	0x3d4395b5	0.047750194
90	0x3d2cace2	0.04215706
91	0x3d13851e	0.036015622
92	0x3da9b36f	0.08286177
93	0x3c89af2f	0.016807167
94	0xbc888f06	-0.016669761
95	0x3da893bc	0.08231303
96	0x3d792b40	0.060832262
97	0xbd9059e6	-0.07048397
98	0xbcf2aaa8	-0.02962239
99	0xbd90b74e	-0.070662126
100	0xbc3b8fc6	-0.0114478525
101	0xbd47afbd	-0.04875158
102	0x3ce21d59	0.027601885
103	0x3db82601	0.08991624
104	0x3c9e09ea	0.019291837
105	0x3d5abce1	0.053402785
106	0xbd2e00ba	-0.04248116
107	0x3cf2b2ed	0.029626334
108	0x3cd377f8	0.025814041
109	0xbbd3b1b0	-0.006460391
110	0x3c980992	0.018559251
111	0x3d04855e	0.03235375
112	0xbd36cf72	-0.04463143
113	0x3d12e1f3	0.035860013
114	0x3cd882bf	0.026429532
115	0xbc1ffb2f	-0.009764477
116	0x3c5e7516	0.01357772
117	0x3d5daef8	0.05412194
118	0x3c413f70	0.01179491
119	0x3c44f180	0.012020469
120	0x3c8cbcf3	0.017179942
121	0x3bacc043	0.005271943
122	0x3d12815c	0.035767898
123	0x3d280f93	0.041030478
124	0x3d64bd7a	0.05584476
125	0x3b4ae1c0	0.0030957311
126	0xbb103856	-0.0022006235
127	0xbcaa8e0a	-0.020819683

weight f4 [16, 128]
0	0x3ce3c731	0.027804943
1	0x3d6910c9	0.056900773
2	0xbc9a47c8	-0.018833056
3	0xbc16e3c2	-0.009209575
4	0xbbc2fed0	-0.005950786
5	0x3d3efe52	0.046629258
6	0xbd79398a	-0.06084589
7	0x3d5d8a8e	0.054087214
8	0x3cf8e3ac	0.030382
9	0xbd8a5d92	-0.06756128
10	0xbd80cde4	-0.062892705
11	0xbc81b3a4	-0.01583273
12	0x3c88f1b7	0.016716821
13	0x3d4c9226	0.049944066
14	0xbd69615d	-0.05697762
15	0x3d309d62	0.043118842
16	0x3d947afd	0.07250021
17	0x3d8e956f	0.06962096
18	0x3d750f2d	0.059828926
19	0xbc37f9e0	-0.011229008
20	0xbd9dc41c	-0.077034205
21	0x3d424c3f	0.047435995
22	0x3da7b95d	0.08189652
23	0xbcb6ea10	-0.022328407
24	0x3c319750	0.010839298
25	0xbd473d21	-0.04864228
26	0xbc47e26f	-0.012199982
27	0x3d20fe36	0.039304934
28	0xbd758184	-0.05993797
29	0x3d1a4dc1	0.03767181
30	0x3db2d1e7	0.08731442
31	0xbda32805	-0.079666175
32	0x3d545776	0.05184122
33	0xbd9b4536	-0.0758156
34	0xbc2e65bb	-0.010644372
35	0xbcfc0e25	-0.030768463
36	0xbd0da157	-0.034577694
37	0x3d0154dd	0.031575073
38	0xbce596f0	-0.028026074
39	0xbc6d88e0	-0.014497966
40	0xba5f0780	-0.00085078925
41	0x3c6b7d30	0.014373109
42	0xbccef80c	-0.025264762
43	0xbd9afcab	-0.07567724
44	0x3cf3224f	0.029679446
45	0x3c967538	0.018366441
46	0x3da04213	0.07825103
47	0xbd5e98fe	-0.054345123
48	0x3d62d036	0.055374347
49	0xbd954f3b	-0.07290503
50	0x3ca33094	0.019920625
51	0xbd51e78f	-0.051246222
52	0xbb1b11ff	-0.002366185
53	0x3caafa58	0.020871326
54	0xbd6f2c90	-0.058392107
55	0xbc769da0	-0.015052229
56	0x3caa8170	0.020813674
57	0xbc3c9db8	-0.011512212
58	0xbd6430d2	-0.05571062
59	0xbd458a80	-0.048227787
60	0xbda58d06	-0.08083539
61	0xbc9c737c	-0.019098036
62	0x3be4c152	0.0069810534
63	0xbd8a47d9	-0.06751985
64	0xbce16a96	-0.027516644
65	0xbb790b6a	-0.0038001188
66	0x3ca2ddb0	0.0198811
67	0xbda1fea5	-0.07909898
68	0xbc83af8e	-0.016074922
69	0x3bdff300	0.006834388
70	0x3d4754e2	0.048664935
71	0x3d785ad6	0.060633503
72	0x3baf30f0	0.00534641
73	0xbd9d4349	-0.07678849
74	0x3c68e1b0	0.014213964
75	0xbd2432d3	-0.040087532
76	0xbd1fcd0e	-0.039013915
77	0x3d1907b2	0.037360854
78	0x3cec53f0	0.028848618
79	0x3db00beb	0.08596023
80	0x3d0b6779	0.034034226
81	0xbd14ecb5	-0.036358554
82	0x3bf68ba0	0.007523969
83	0xbd417de7	-0.04723921
84	0xbd869a3a	-0.06572385
85	0x3d508ac6	0.050913595
86	0xbb14e540	-0.0022719651
87	0xbc714360	-0.014725536
88	0x39e02213	0.00042749997
89	0xbdb0ee98	-0.08639258
90	0xbd5a9580	-0.05336523
91	0xbd41b4ea	-0.047291674
92	0xbdb3252c	-0.08747324
93	0x3d3a3980	0.045464993
94	0x3d647482	0.055775173
95	0xbc36ca3a	-0.011156613
96	0x3d6c9601	0.057760242
97	0xbd6be693	-0.05759294
98	0xbd295a9b	-0.041346174
99	0xbd9d792a	-0.07689126
100	0x3d1e7bfa	0.038692452
101	0x3d01b180	0.031663418
102	0x3d510b8e	0.05103641
103	0xbd901348	-0.070349276
104	0x3cbef6be	0.023311015
105	0x3cda1620	0.026621878
106	0xbcd53c44	-0.026029713
107	0x3d80ecae	0.06295143
108	0x3cf07bf0	0.029355973
109	0x3db40a77	0.087910585
110	0xbdafe945	-0.085894145
111	0xbc3427b2	-0.010995792
112	0xbc699540	-0.014256775
113	0x3d0cafc8	0.034347326
114	0x3d00d51b	0.031453233
115	0xbcf78754	-0.030215897
116	0xbd26da73	-0.040735673
117	0x3da0ab8b	0.07845219
118	0xbd95e51b	-0.07319089
119	0x3da00e07	0.078151755
120	0xbca077cc	-0.019588374
121	0xbd4ff624	-0.050771847
122	0x3d96ac27	0.07357054
123	0xbd896e64	-0.067105085
124	0xbcbe11a5	-0.023201773
125	0x3cec8954	0.028874077
126	0xbdb23261	-0.08701015
127	0xbdac517e	-0.08413981
128	0xbdc7cdda	-0.0975606
129	0xba92b6bf	-0.0011193379
130	0x3d97b10a	0.074068144
131	0x3d3e79c3	0.04650284
132	0x3d758c5a	0.059948303
133	0x3d491e17	0.04910096
134	0xbdb3f3b0	-0.08786714
135	0xbbcbf4f0	-0.006224267
136	0xbd52f0af	-0.051499065
137	0x3d745e90	0.059660494
138	0x3c5b2994	0.013376612
139	0xbc7754b8	-0.015095882
140	0xb963727b	-0.00021691054
141	0xbaedf8c1	-0.00181558
142	0x3d10f644	0.035391107
143	0xbd7350fe	-0.059403412
144	0x3d6fdc89	0.058559928
145	0x3d9a6c82	0.075402275
146	0xbda9cd4f	-0.08291113
147	0x3c0a2908	0.008432634
148	0x3c7ca810	0.015420929
149	0xbd0b3f5f	-0.033995982
150	0x3da4ccc7	0.08046871
151	0xbb34247d	-0.002748757
152	0xbcda3f3a	-0.026641477
153	0xbd0396a2	-0.032126077
154	0xbc809c88	-0.01569964
155	0xbd41b3f0	-0.047290742
156	0x3c846814	0.01616291
157	0x3d8a5c36	0.06755869
158	0x3dabf0e9	0.08395559
159	0x3bc4f714	0.0060108993
160	0xbd518f4f	-0.05116206
161	0x3ad64e00	0.001635015
162	0x3cc02ca7	0.023458792
163	0x3d85903a	0.0652165
164	0xbc20e1e0	-0.009819478
165	0x3d8450be	0.06460713
166	0xbdaf7b41	-0.08568431
167	0x3c8f2970	0.017475814
168	0xbdabd8e7	-0.0839098
169	0xbd8e6041	-0.06951953
170	0x3c82b000	0.015953064
171	0x3c6a6b18	0.01430776
172	0xbc4d9712	-0.012548225
173	0x3d75477c	0.059882626
174	0xbce10244	-0.0274669
175	0x3cd5d435	0.026102165
176	0x3c9ab918	0.018887088
177	0x3d579656	0.052633606
178	0x3cc229a0	0.023701489
179	0x3d6d3d11	0.057919566
180	0x3cc2197a	0.023693789
181	0x3cb8d468	0.02256222
182	0xbd56671e	-0.052344434
183	0x3d9456c1	0.072431095
184	0xbcad8e30	-0.021185964
185	0x3d67843d	0.056522597
186	0xbdad8ce1	-0.08474136
187	0xbda5ef68	-0.08102304
188	0x3d409428	0.047016293
189	0xbd4b88c1	-0.049690966
190	0x3db0bde7	0.08629971
191	0x3d439211	0.04774672
192	0x3cddf0b9	0.027092325
193	0xbd867f92	-0.06567301
194	0x3d905d45	0.0704904
195	0xbcba0ff1	-0.02271268
196	0x3d780f35	0.060561378
197	0xbd990418	-0.07471484
198	0x3d60bade	0.05486571
199	0x3ccf91e8	0.025338128
200	0xbd7927d6	-0.060829006
201	0x3db292f1	0.08719433
202	0x3d80db49	0.06291825
203	0xbd70c8b2	-0.058785148
204	0x3ceaa150	0.028641373
205	0xbc0edc20	-0.008719474
206	0x3ce8c898	0.028415963
207	0x3d1ac382	0.037784107
208	0xbdaf5a91	-0.08562196
209	0x3aceb701	0.0015771092
210	0xbc74cc00	-0.0149412155
211	0x3d67664a	0.056494035
212	0x3a98d48e	0.0011660026
213	0xbb294b20	-0.0025832132
214	0xbd72c4c4	-0.05926968
215	0xbb8701e0	-0.0041200966
216	0x3cc53474	0.024072863
217	0xbd7e2a5f	-0.062052127
218	0xbccf75c0	-0.025324702
219	0xbcdc6fd9	-0.026908802
220	0x3c63f106	0.013912445
221	0x3cfed75e	0.031108554
222	0xbd3e7bbb	-0.046504717
223	0xbc5f7ca6	-0.013640558
224	0x3d024da8	0.03181234
225	0xbceca264	-0.028886028
226	0x3d89a3b1	0.06720675
227	0xbbcac100	-0.006187558
228	0x3b954930	0.004555844
229	0x3d8dd749	0.06925828
230	0xbd33e287	-0.043917205
231	0x3c2e6b3b	0.010645683
232	0x3afd1178	0.0019307574
233	0x3d842ede	0.06454252
234	0x3c7f6660	0.015588373
235	0xbdaa685e	-0.08320688
236	0x3da7d3a3	0.081946634
237	0x3ca4c2a8	0.02011235
238	0x3bfcb098	0.0077114813
239	0xbd9b45e7	-0.07581692
240	0xbd6d17f2	-0.057884164
241	0x3d4c193c	0.049828753
242	0xbc818bb8	-0.015813693
243	0xbd7fa61e	-0.06241428
244	0xbd9cb93c	-0.07652518
245	0x3d492b90	0.04911381
246	0xbd4f6ce4	-0.050640956
247	0x3d17ddd0	0.03707677
248	0x3d8e8226	0.069584176
249	0x3afac95b	0.0019133495
250	0x3c94bf6c	0.018157683
251	0xbd5f9cb7	-0.054592814
252	0xbb332a9f	-0.0027338637
253	0x3d9a8b69	0.075461216
254	0xbd16a57a	-0.036778904
255	0x3d5eb5d6	0.05437263

bias f4 [16]
0	0x3be361f7	0.0069391686
1	0xbc878b3b	-0.016545882
2	0xbde7bead	-0.113156654
3	0xbde788ea	-0.11305411
4	0xbdbbc287	-0.091679625
5	0xbe22ae1c	-0.1588673
6	0xbe1f2a36	-0.15543446
7	0xbe043f95	-0.1291488
8	0xbe0b7e6b	-0.13622443
9	0xbdab6402	-0.08368684
10	0xbe0d2840	-0.13784885
11	0xbdebc182	-0.11511518
12	0xbd07c403	-0.033145916
13	0xbc5388fb	-0.012911077
14	0xbe089762	-0.13338998
15	0xbc74500b	-0.014911662
