model-doom.pth (torch, 172399 bytes, 8 tensors)

weight f4 [8, 1, 6, 6]
-0.2165826 -0.1452679 -0.05787036 -0.24243464 -0.11031334 -0.3103162 -0.2391035 -0.3300228
-0.048321754 -0.06988864 -0.12091841 -0.28625822 -0.12415886 -0.25616384 -0.014145076 -0.30441034
-0.24333292 -0.047506645 -0.36473283 -0.066834286 -0.15225774 -0.16171217 -0.279911 -0.12127948
-0.3259005 -0.07219389 -0.21500197 -0.23236685 -0.18531506 -0.123325855 -0.22421914 -0.14407301
-0.013566822 -0.18393111 -0.041113213 -0.034792066 -0.22160661 -0.050012745 -0.056101166 -0.21165405
-0.258268 -0.009665653 0.0318162 -0.10279736 -0.1883741 -0.13279866 -0.07900681 -0.16584864
-0.05891487 -0.16894458 -0.008255795 -0.1845638 0.0019441098 0.03463933 -0.15491205 -0.21517831
-0.19825868 -0.26195234 -0.099252686 -0.20717636 -0.0038249642 0.03692022 -0.11169368 -0.24089545
-0.08795353 -0.05125135 -0.21459386 -0.10319436 -0.19899336 -0.10325967 -0.13621174 -0.041898057
-0.47987086 -0.31207177 -0.6706134 -0.4150132 -0.37823665 -0.48403585 -0.5527903 -0.51302826
-0.32120028 -0.2978009 -0.42569688 -0.42038995 -0.22859219 -0.37204137 -0.35750568 -0.49949065
-0.3263623 -0.40429282 -0.5013452 -0.35502633 -0.6168617 -0.63539404 -0.42689615 -0.48201278
-0.40898508 -0.25000757 -0.432454 -0.3279072 -0.34028608 -0.52334666 -0.23516434 -0.43498385
-0.33716428 -0.17656428 -0.2903291 -0.24019277 -0.09982346 -0.07130216 0.013297185 -0.114568636
-0.09597033 -0.06598544 0.063851 0.14077999 -0.06463504 0.11667906 0.073181376 0.13377507
-0.08050591 0.01873897 0.025811613 0.07343952 0.086744025 -0.13318115 0.11040081 0.008125529
-0.062434755 0.13472654 -0.1655097 -0.15402153 -0.14585064 -0.09843427 0.08034408 0.0045968294
-0.11589609 0.09942208 -0.16654944 -0.119572744 -0.03285308 -0.09491569 -0.021479964 -0.017750844
-0.11310992 -0.0234261 -0.14323695 0.07801628 -0.06341954 -0.042340226 -0.00855735 -0.016172266
0.0478849 -0.17148569 0.11905879 0.033971295 -0.14031953 0.044165444 0.00017291907 0.13211977
0.0072748875 -0.11030126 -0.12056171 -0.005456858 0.07054069 -0.02545253 0.051083125 -0.12740763
0.0677429 0.039262656 0.10048537 -0.04991557 -0.10906489 -0.020194119 -0.16648838 -0.0044109533
-0.13441397 -0.035490375 0.013776727 -0.017782027 -0.15825984 -0.14738658 -0.084553264 -0.05133745
0.04250811 -0.00077273697 -0.15543029 -0.03403683 -0.25276273 -0.23599456 -0.22981647 -0.03598064
-0.10385316 -0.028466456 -0.07936501 -0.030478679 0.031365238 0.07565536 0.05009681 0.013311133
-0.16879314 -0.04688908 -0.236996 -0.23452555 -0.12964714 0.07684559 -0.1705567 -0.11214803
0.018625006 -0.23104873 -0.2211498 0.059916563 0.08985893 0.032700658 -0.09809324 0.01585503
-0.5221741 -0.40435585 -0.5303385 -0.4270114 -0.5441933 -0.43327814 -0.60369897 -0.5823872
-0.56530845 -0.4544445 -0.35018647 -0.32414412 -0.32845613 -0.31105775 -0.34885663 -0.27585095
-0.303846 -0.30993623 -0.29377174 -0.32505953 -0.4380426 -0.30949357 -0.30096576 -0.6326929
-0.45915496 -0.2814778 -0.30984548 -0.4575763 -0.21690941 -0.4966183 -0.49014318 -0.3173234
-0.18812138 -0.3316707 -0.43943104 -0.45479867 -0.40634212 -0.39014986 -0.66591066 -0.5248114
00000000: d4c7 5dbe 1cc1 14be 7809 6dbd c940 78be
00000010: f6eb e1bd c4e1 9ebe 8cd7 74be c0f8 a8be
00000020: 08ed 45bd c621 8fbd 12a4 f7bd 7090 92be
00000030: 0047 febd e827 83be c0c0 67bc acdb 9bbe
00000040: 442c 79be 5496 42bd 43be babe 6ae0 88bd
00000050: 74e9 1bbe e097 25be 7f50 8fbe 6061 f8bd
00000060: 6edc a6be 64da 93bd 7a29 5cbe 93f1 6dbe
00000070: 3bc3 3dbe 4492 fcbd b499 65be e087 13be
00000080: 6047 5ebc 7058 3cbe 5466 28bd 2082 0ebd
00000090: d8ec 62be 2ada 4cbd 56ca 65bd d7bb 58be
000000a0: b43b 84be b05c 1ebc b451 023d 6c87 d2bd
000000b0: 24e5 40be 5ffc 07be 53ce a1bd 3ad4 29be
000000c0: b850 71bd cfff 2cbe 5043 07bc 4bfe 3cbe
000000d0: 80d1 fe3a f8e1 0d3d 44a1 1ebe b457 5cbe
000000e0: 5304 4bbe 9e1e 86be fe44 cbbd 0a26 54be
000000f0: 40ac 7abb a839 173d a8bf e4bd 4cad 76be
00000100: fb20 b4bd f0ec 51bd 7ebe 5bbe 9157 d3bd
00000110: eac4 4bbe ce79 d3bd 177b 0bbe 4c9d 2bbd
00000120: a2b1 f5be dfc7 9fbe 52ad 2bbf 9c7c d4be
00000130: 3ca8 c1be 8cd3 f7be aa83 0dbf d255 03bf
00000140: 5d74 a4be 5c79 98be f1f4 d9be 5a3d d7be
00000150: 1214 6abe 357c bebe fc0a b7be 3dbd ffbe
00000160: f618 a7be 78ff cebe 2958 00bf 03c6 b5be
00000170: a6ea 1dbf 2fa9 22bf 2292 dabe 61ca f6be
00000180: 7e66 d1be fe00 80be 9c6a ddbe 74e3 a7be
00000190: fa39 aebe 0cfa 05bf ecce 70be 34b6 debe
000001a0: cca0 acbe 44cd 34be 04a6 94be 18f5 75be
000001b0: 3e70 ccbd de06 92bd 70dc 593c f6a2 eabd
000001c0: 188c c4bd 6023 87bd 50c4 823d a128 103e
000001d0: 605f 84bd 6ef5 ee3d 1ee0 953d 55fc 083e
000001e0: 48e0 a4bd 7882 993c e072 d33c 7667 963d
000001f0: daa6 b13d a460 08be d219 e23d f020 053c
00000200: 96bb 7fbd c1f5 093e 607b 29be d2b7 1dbe
00000210: df59 15be e897 c9bd 708b a43d 00a1 963b
00000220: ee5a edbd ce9d cb3d f08b 2abe 8ee2 f4bd
00000230: f490 06bd 2863 c2bd c0f6 afbc 386a 91bc
00000240: 2ca6 e7bd 18e8 bfbc b5ac 12be 00c7 9f3d
00000250: 1be2 81bd f26c 2dbd 2134 0cbc b37b 84bc
00000260: f522 443d f299 2fbe 18d5 f33d 7c25 0b3d
00000270: ecaf 0fbe d3e6 343d 9c51 3539 684a 073e
00000280: 2e62 ee3b a1e5 e1bd 0fe9 f6bd 71cf b2bb
00000290: a377 903d d381 d0bc 8a3c 513d 2577 02be
000002a0: cabc 8a3d e1d1 203d 46cb cd3d 4574 4cbd
000002b0: 6a5d dfbd 236e a5bc ee7b 2abe c289 90bb
000002c0: d1a3 09be 5b5e 11bd c8b7 613c 9dab 91bc
000002d0: de0e 22be 82ec 16be 432a adbd 3847 52bd
000002e0: fc1c 2e3d 8091 4aba 1e29 1fbe 346a 0bbd
000002f0: 1e6a 81be 8fa8 71be 0255 6bbe 7060 13bd
00000300: f7b0 d4bd 7c32 e9bc 1f8a a2bd 6cae f9bc
00000310: d678 003d 33f1 9a3d 5032 4d3d f016 5a3c
00000320: 1cd8 2cbe c40e 40bd 14af 72be 7727 70be
00000330: 38c2 04be 3861 9d3d 6aa6 2ebe dead e5bd
00000340: 7893 983c 0a98 6cbe 1875 62be 126b 753d
00000350: f507 b83d 20f1 053d 1ce5 c8bd 68e2 813c
00000360: 34ad 05bf bb07 cfbe 44c4 07bf 3da1 dabe
00000370: 4150 0bbf a2d6 ddbe 048c 1abf 5417 15bf
00000380: 0eb8 10bf f3ac e8be a44b b3be 38f6 a5be
00000390: 672b a8be f642 9fbe 569d b2be 563c 8dbe
000003a0: b491 9bbe f6af 9ebe 4069 96be 346e a6be
000003b0: 1f47 e0be f175 9ebe 2f18 9abe 29f8 21bf
000003c0: 5c16 ebbe dc1d 90be 11a4 9ebe 7147 eabe
000003d0: 801d 5ebe c144 febe 0cf4 fabe 3678 a2be
000003e0: e4a2 40be bed0 a9be 1bfd e0be 5fdb e8be
000003f0: 130c d0be b9c1 c7be 1f79 2abf 0a5a 06bf

bias f4 [8]
-0.41985035 -0.17110866 -1.0348577 -0.10441121 0.093786694 -0.19520417 -0.9912939 -1.0656912
00000000: a0f6 d6be 1c37 2fbe 3876 84bf 8bd5 d5bd
00000010: 3d13 c03d 9ae3 47be 70c5 7dbf 9268 88bf

weight f4 [8, 8, 3, 3]
-0.15443704 -0.15606384 -0.06299791 0.0054358393 -0.071651176 -0.063022345 -0.1691391 -0.11492528
-0.11843659 -0.06673779 -0.1727291 0.040153235 -0.06111437 0.049795046 0.04620838 0.015843555
0.01400955 -0.14035238 -0.34404328 -0.1927672 -0.17471063 -0.32965213 -0.26362553 -0.1696465
-0.32724866 -0.35308903 -0.18449548 -0.015761532 0.08424435 -0.096038125 -0.10743927 0.07350031
-0.01296211 -0.0064468086 -0.009050138 -0.09839713 0.045630768 -0.025868468 -0.09292539 -0.04968171
0.082076706 -0.07003141 0.121854685 -0.08372689 -0.09296832 -0.14065777 -0.11924599 -0.053639337
-0.1153232 0.033629365 0.05602576 0.018875465 -0.11719502 -0.12223999 -0.30675176 -0.20459941
-0.20031467 -0.20884079 -0.34894434 -0.23497233 -0.22626722 -0.35935503 -0.17817265 -0.19456315
-0.291341 -0.25657153 -0.38087764 -0.37337178 -0.25276884 -0.376663 -0.20671877 -0.30673954
-0.08192002 -0.107637376 -0.05850444 0.08091343 -0.038396772 0.04952945 -0.09315905 0.010346808
-0.07754914 -0.04493689 0.094104856 -0.08659224 0.011741757 0.041398495 -0.120998755 0.03004945
-0.050387736 0.080605656 -0.08200076 0.0029074252 -0.0012486279 -0.03978081 -0.0057994872 -0.10138868
-0.10316614 -0.018337116 -0.15917347 -0.10833489 -0.077229984 0.067332305 -0.04236397 0.03987012
0.112598605 -0.005640976 -0.070731774 0.10322205 -0.08145839 -0.044443153 0.078419805 -0.051839326
0.036271203 0.025135208 -0.013896956 0.05807951 0.006919196 0.032878246 -0.04352576 -0.10904493
0.07413678 0.0748847 -0.1083007 0.040354356 0.07584266 0.027616493 -0.14955407 -0.0055766106
-0.035297245 -0.19901665 -0.17193866 -0.18046011 -0.00998956 -0.021056771 -0.020724058 -0.17463805
-0.07176772 -0.042114258 -0.06119497 -0.09507933 -0.101131834 -0.16815917 -0.065364584 -0.11971071
-0.09006263 -0.05962663 0.039617002 0.08108601 0.060912818 0.047758386 0.081466496 0.0768599
-0.07532911 0.0501046 0.033840064 -0.07418316 -0.0039932765 0.013228435 0.1194286 0.0036608162
-0.01918504 -0.076823525 0.120220296 0.09260755 -0.029918473 -0.08238159 0.032598075 -0.07543946
-0.02474139 -0.095136255 0.07530241 -0.104641885 0.012829103 0.04874005 0.11094553 0.03188934
0.053528674 0.081823595 0.017403685 -0.033426456 0.0005983118 0.04800994 0.013666523 0.050659988
-0.003007368 0.112112 0.09202252 0.09249207 -0.10665425 -0.00301628 -0.07918539 -0.11435038
0.0535218 0.008345456 0.096068285 0.06138034 0.10413048 -0.09698928 0.029131314 0.016244449
0.029678298 -0.10253792 -0.08540084 0.009705867 0.093865566 -0.09851164 -0.019699363 -0.09664006
0.055480067 -0.04697754 0.030823488 -0.08754123 -0.03625123 0.10071626 0.060423635 -0.06216085
0.0894146 -0.03809835 -0.060445745 -0.07446459 -0.09741186 -0.09481306 0.09703268 -0.049042165
0.06409733 -0.037221838 -0.06629496 0.02502296 -0.036003135 0.048600864 0.06413352 -0.061624322
-0.08917187 -0.08005828 0.07273148 0.024348546 0.08376511 -0.059472036 0.046671283 0.0914848
0.06575718 -0.03599957 0.06644667 -0.038729206 0.03442707 0.0854752 0.034216173 0.092536874
0.040701084 -0.09661076 -0.08631328 0.09323769 0.066966936 -0.09479057 -0.1162179 0.023099715
00000000: be24 1ebe 33cf 1fbe 0c05 81bd 201f b23b
00000010: dabd 92bd dc11 81bd cd32 2dbe f25d ebbd
00000020: e28e f2bd d3ad 88bd e6df 30be b877 243d
00000030: 1053 7abd e4f5 4b3d 0045 3d3d 58ca 813c
00000040: 5088 653c 89b8 0fbe 7126 b0be c464 45be
00000050: 58e7 32be 2ac8 a8be edf9 86be d0b7 2dbe
00000060: 238d a7be 16c8 b4be 62ec 3cbe 541e 81bc
00000070: 4d88 ac3d a3af c4bd 1f09 dcbd 5587 963d
00000080: 085f 54bc c03f d3bb 0847 14bc 6f84 c9bd
00000090: 54e7 3a3d 1cea d3bc ab4f bebd 0c7f 4bbd
000000a0: d517 a83d a16c 8fbd f38e f93d 0179 abbd
000000b0: 2d66 bebd 9708 10be 3e37 f4bd ecb4 5bbd
000000c0: 922e ecbd f2be 093d 447b 653d b8a0 9a3c
000000d0: f103 f0bd f658 fabd 910e 9dbe 8282 51be
000000e0: 4a1f 4dbe 5cda 55be d5a8 b2be 969c 70be
000000f0: 98b2 67be 62fd b7be e472 36be 903b 47be
00000100: a62a 95be 585d 83be 6502 c3be 962a bfbe
00000110: eb6a 81be f9d9 c0be 16ae 53be f70c 9dbe
00000120: afc5 a7bd fc70 dcbd 5aa2 6fbd f1b5 a53d
00000130: ef45 1dbd 64df 4a3d 2cca bebd a885 293c
00000140: 15d2 9ebd bf0f 38bd 0cba c03d 4657 b1bd
00000150: 8060 403c 7891 293d 32ce f7bd 442a f63c
00000160: 5f63 4ebd 9414 a53d 04f0 a7bd 808a 3e3b
00000170: 00a9 a3ba 34f1 22bd a009 bebb dea4 cfbd
00000180: c548 d3bd b837 96bc 5ffe 22be afde ddbd
00000190: c12a 9ebd 85e5 893d d885 2dbd da4e 233d
000001a0: 199a e63d f0d7 b8bb d2db 90bd 1566 d33d
000001b0: a8d3 a6bd 060a 36bd 909a a03d 7955 54bd
000001c0: 1d91 143d 5ae8 cd3c 0fb0 63bc c8e4 6d3d
000001d0: 6cba e23b 57ab 063d 1148 32bd f352 dfbd
000001e0: 06d5 973d 265d 993d c2cc ddbd 9c4a 253d
000001f0: 6653 9b3d fc3b e23c b424 19be 00bc b6bb
00000200: d893 10bd 05cb 4bbe b010 30be 89ca 38be
00000210: 40ab 23bc 407f acbc 80c5 a9bc 51d4 32be
00000220: f4fa 92bd 0080 2cbd 94a7 7abd f4b8 c2bd
00000230: 351e cfbd eb31 2cbe dedd 85bd e42a f5bd
00000240: c272 b8bd 0e3b 74bd 7045 223d 6c10 a63d
00000250: b87f 793d 4c9e 433d e8d7 a63d b968 9d3d
00000260: 2646 9abd 7b3a 4d3d e19b 0a3d 57ed 97bd
00000270: 08da 82bb 14bc 583c fb96 f43d 4eea 6f3b
00000280: f229 9dbc a755 9dbd 0f36 f63d 07a9 bd3d
00000290: 9617 f5bc aeb7 a8bd 8f85 053d 0180 9abd
000002a0: 75ae cabc ccd6 c2bd 2638 9a3d 7c4e d6bd
000002b0: 2831 523c a6a3 473d 6937 e33d 669e 023d
000002c0: e240 5b3d 2193 a73d 2c92 8e3c 2eea 08bd
000002d0: 06d8 1c3a 12a6 443d 8de9 5f3c d980 4f3d
000002e0: 4317 45bb fa9a e53d 4e76 bc3d 7b6c bd3d
000002f0: 8b6d dabd c8ac 45bb f32b a2bd 8830 eabd
00000300: ad39 5b3d 61bb 083c 73bf c43d f469 7b3d
00000310: 5c42 d53d 51a2 c6bd cba4 ee3c 1413 853c
00000320: e71f f33c 67ff d1bd a3e6 aebd 5b05 1f3c
00000330: 973c c03d 79c0 c9bd 8f60 a1bc 39eb c5bd
00000340: 113f 633d 856b 40bd 8a81 fc3c d148 b3bd
00000350: 2b7c 14bd 5444 ce3d c67e 773d 609c 7ebd
00000360: 001f b73d 040d 1cbd f595 77bd e480 98bd
00000370: df7f c7bd 592d c2bd 12b9 c63d 70e0 48bd
00000380: 7645 833d ed75 18bd a7c5 87bd f3fc cc3c
00000390: 0678 13bd b311 473d 6f58 833d c969 7cbd
000003a0: be9f b6bd 98f5 a3bd 3ef4 943d 9a76 c73c
000003b0: 0b8d ab3d f398 73bd 632a 3f3d 625c bb3d
000003c0: b3ab 863d 4974 13bd 3115 883d 84a2 1ebd
000003d0: 6603 0d3d 9f0d af3d 4226 0c3d f983 bd3d
000003e0: 2eb6 263d dddb c5bd 04c5 b0bd 67f3 be3d
000003f0: f625 893d 8f21 c2bd a603 eebd 9d3b bd3c

bias f4 [8]
0.8234475 -0.00020571759 0.36417198 -0.107050605 0.21421005 0.7954816 2.410851 1.9101622
00000000: 75cd 523f e5b5 57b9 c074 ba3e 593d dbbd
00000010: e159 5b3e afa4 4b3f 624b 1a40 3280 f43f

weight f4 [128, 192]
-0.043039173 0.07138285 0.024673603 0.030253015 0.027359612 -0.06098826 -0.017589357 0.05043345
-0.040577035 0.0050612018 -0.0107783675 -0.055815086 -0.06609978 -0.0021934286 0.024360105 0.04139103
-0.029492471 0.06089759 -0.008919708 0.007936746 0.065000534 -0.06391848 0.032390304 -0.031763937
0.013330191 -0.041452847 0.05249224 0.06664719 0.03635835 0.065440744 -0.018684886 -0.06720622
-0.027242653 -0.058483552 0.026498072 -0.05007472 0.025015377 -0.03813064 -0.050244544 0.0021348745
-0.04381328 0.028016493 -0.06911795 0.04864631 0.003921747 0.010212414 -0.013398666 -0.0018377602
0.07151604 -0.02692018 0.06121248 -0.044634707 -0.00046164542 0.047404096 0.031021558 -0.02610606
-0.028674018 0.06200479 -0.029449534 0.028643057 0.05866848 -0.072149485 0.010358252 -0.010616578
-0.039911803 -0.054601207 0.051084653 0.037486695 0.031727165 -0.0024002641 0.05891548 -0.07047151
-0.036920078 -0.009309553 -0.044334393 -0.054608114 -0.00022296607 0.0011527762 -0.026106138 0.02277653
0.0014360845 0.026767902 -0.057391487 -0.06395653 0.020501785 0.043343976 -0.049028672 0.0010765418
-0.064994305 0.05110477 -0.031046778 -0.015538383 -0.07116119 0.0695886 -0.051998347 -0.030304391
0.045839794 0.061810955 -0.023477457 0.06100203 -0.04480972 -0.0011336878 -0.04809501 0.019841477
-0.05521912 0.021633662 0.03183227 -0.044092573 -0.03260041 0.061992332 0.03664603 -0.06871702
0.016799763 -0.067193575 -0.051273845 0.061923698 -0.038851574 0.015365064 0.05885431 -0.007856131
-0.03344669 -0.0126375 0.015156031 0.011822753 0.06318778 -0.063744925 0.04123406 -0.06429321
0.008807197 -0.0635233 0.036824077 -0.048334938 -0.06433706 -0.038654618 0.063175365 0.070083275
-0.009439461 -0.054525845 0.013265885 -0.016828895 -0.05899251 0.047932327 0.052228257 0.049560234
0.002818428 0.0027100816 0.038774505 0.019690283 0.044560276 -0.0447336 0.005370751 -0.0055237114
-0.024797376 -0.043804333 -0.066736385 0.007077545 0.045389146 -0.02097572 -0.03201573 0.0037066117
-0.06292733 0.05291584 0.012682967 -0.022718526 -0.0605302 0.064667836 0.0303566 -0.04732635
0.039940886 0.023904368 -0.002430074 0.029018335 -0.049304105 0.027767241 -0.013475131 0.029789232
-0.049106404 0.043767072 -0.0054270625 -0.03898538 0.06610635 0.029504567 0.00273633 0.03028021
0.03571678 -0.017957248 0.034135148 -0.06967532 0.045556657 -0.018202346 -0.025681537 -0.032487
-0.06604326 -0.04680735 -0.048987273 -0.051220097 -0.05734385 -0.053626664 -0.031873714 0.052072547
0.016462743 -0.05399618 0.020459227 0.06066881 0.056746364 -0.06177158 0.03140428 -0.01823533
0.04256271 -0.07051498 0.024418958 -0.011547398 0.03283845 0.021534972 -0.047045812 -0.008085988
-0.025326438 -0.02775697 0.04366982 0.06427157 -0.01031797 0.017276287 0.027019352 0.007316157
-0.061085045 0.021542348 0.03387209 -0.053936232 0.061616555 -0.017934483 0.047848247 -0.06682059
0.0014876872 0.00030770898 -0.008456118 0.03248591 0.048698954 -0.0013919994 -0.025885105 -0.058359373
-0.06477911 0.048840888 0.059507325 -0.0035727993 0.0070213825 -0.013661694 0.06175773 -0.039872747
-0.034914117 -0.042828873 0.02103322 0.05214932 0.010778539 0.051774263 0.012951516 0.02396945
00000000: d849 30bd 2c31 923d 4c20 ca3c 2cd5 f73c
00000010: 4421 e03c d3ce 79bd 8e17 90bc 4e93 4e3d
00000020: 1b34 26bd 70d8 a53b c097 30bc 5c9e 64bd
00000030: 525f 87bd a0bf 0fbb d88e c73c a489 293d
00000040: 329a f1bc c06f 793d f823 12bc 2009 023c
00000050: 001f 853d b1e7 82bd b2ab 043d e71a 02bd
00000060: e066 5a3c 76ca 29bd 1a02 573d 527e 883d
00000070: 7eec 143d cc05 863d 0c11 99bc 6aa3 89bd
00000080: fc2b dfbc 738c 6fbd 7c12 d93c 261b 4dbd
00000090: 0ced cc3c e02e 1cbd 39cd 4dbd 40e9 0b3b
000000a0: 8e75 33bd d882 e53c b68d 8dbd 5a41 473d
000000b0: 0082 803b f851 273c 1486 5bbc 00e1 f0ba
000000c0: 0077 923d b687 dcbc f0b9 7a3d e2d2 36bd
000000d0: 0009 f2b9 cc2a 423d ec20 fe3c 60dc d5bc
000000e0: c6e5 eabc bcf8 7d3d 2640 f1bc d8a4 ea3c
000000f0: 5c4e 703d 1cc3 93bd a8b5 293c 28f1 2dbc
00000100: 8f7a 23bd 84a5 5fbd 243e 513d a68b 193d
00000110: 58f4 013d c04d 1dbb 5c51 713d 5e53 90bd
00000120: 8239 17bd 1887 18bc fb97 35bd c2ac 5fbd
00000130: 00cc 69b9 c018 973a 8adc d5bc d895 ba3c
00000140: 003b bc3a 5c48 db3c 5613 6bbd a4fb 82bd
00000150: 5cf3 a73c 7489 313d 4ad2 48bd c01a 8d3a
00000160: bc1b 85bd 3c53 513d d055 febc b494 7ebc
00000170: f5bc 91bd 7884 8e3d 38fc 54bd ea40 f8bc
00000180: 82c2 3b3d 7c2d 7d3d cc53 c0bc 44dd 793d
00000190: 668a 37bd 4098 94ba 46ff 44bd 988a a23c
000001a0: 722d 62bd 1439 b13c 8e62 023d 6a9a 34bd
000001b0: 0288 05bd aceb 7d3d 261a 163d 82bb 8cbd
000001c0: a89f 893c c99c 89bd 8604 52bd b4a3 7d3d
000001d0: d422 1fbd c0bd 7b3c 3811 713d 00b7 00bc
000001e0: 65ff 08bd 840d 4fbc 0051 783c 38b4 413c
000001f0: 9868 813d b38c 82bd 0ce5 283d 29ac 83bd
00000200: 104c 103c 8118 82bd d8d4 163d dbfa 45bd
00000210: 26c3 83bd 4e54 1ebd 1662 813d d287 8f3d
00000220: f8a7 1abc 7e56 5fbd 2859 593c c0dc 89bc
00000230: 21a2 71bd b054 443d 4ced 553d acff 4a3d
00000240: 60b5 383b a09b 313b 04d2 1e3d 844d a13c
00000250: d684 363d 943a 37bd 20fd af3b 4000 b5bb
00000260: de23 cbbc 2c6c 33bd 16ad 88bd c0ea e73b
00000270: f8e9 393d 46d5 abbc ed22 03bd a0ea 723b
00000280: 0be0 80bd 48be 583d 38cc 4f3c 341c babc
00000290: 84ee 77bd 9270 843d 68ae f83c 46d9 41bd
000002a0: 0e99 233d 18d3 c33c e041 1fbb dcb7 ed3c
000002b0: 1af3 49bd 2078 e33c ccc6 5cbc 8c08 f43c
000002c0: cc23 49bd 1a45 333d 80d5 b1bb 22af 1fbd
000002d0: c462 873d 90b3 f13c 0054 333b 340e f83c
000002e0: c24b 123d 141b 93bc 4cd1 0b3d efb1 8ebd
000002f0: 9e99 3a3d 161d 95bc 1662 d2bc 1711 05bd
00000300: b041 87bd 10b9 3fbd e1a6 48bd 2acc 51bd
00000310: 63e1 6abd a2a7 5bbd 038e 02bd 064a 553d
00000320: e0dc 863c 192b 5dbd 1c9a a73c dc7f 783d
00000330: e06e 683d 3204 7dbd c6a1 003d 4262 95bc
00000340: 3c56 2e3d 286a 90bd 440a c83c 4c31 3dbc
00000350: 9c81 063d 1c6a b03c 1cb3 40bd 187b 04bc
00000360: 6479 cfbc 9662 e3bc 20df 323d d0a0 833d
00000370: b40c 29bc 0087 8d3c b057 dd3c 60bc ef3b
00000380: 5034 7abd 9479 b03c 76bd 0a3d 3dec 5cbd
00000390: a461 7c3d 56eb 92bc 86fc 433d 3cd9 88bd
000003a0: 80fe c23a 0054 a139 888b 0abc f20f 053d
000003b0: 8e78 473d c073 b6ba 000d d4bc 3d0a 6fbd
000003c0: e9aa 84bd 620d 483d f4bd 733d a025 6abb
000003d0: a013 e63b 4cd5 5fbc acf5 7c3d 9b51 23bd
000003e0: 1b02 0fbd 546d 2fbd dc4d ac3c 869a 553d
000003f0: 7898 303c 4011 543d 9832 543c 945b c43c

bias f4 [128]
-0.03112875 -0.058288027 -0.027170667 -0.06386377 -0.080469504 -0.019409528 0.339845 0.04944074
0.032098785 0.14390677 0.07904288 -0.062163386 0.057895012 -0.044519052 -0.043718763 0.09868616
-0.028165052 0.018031325 -0.0558073 -0.030154273 -0.008517145 -0.015810423 -0.04981412 -0.021101797
0.013347033 -0.021133337 0.023884151 -0.042191297 -0.02298367 0.028242812 0.09494073 -0.005434006
0.037647463 -0.06754418 0.03843118 -0.032596875 -0.004664466 0.004113993 0.07726075 0.20322028
0.028188473 0.055802863 0.052004486 -0.060728803 0.01358816 0.04249173 0.22697152 0.06562972
0.087767124 -0.03462788 0.013723034 0.046361696 0.026857533 0.021441862 0.062268626 0.004075314
0.07758995 -0.039201077 0.019914472 0.059682682 0.035330046 -0.070033215 -0.049978755 -0.041298747
-0.013553381 0.08971866 0.0654083 -0.025660349 0.13352267 -0.04940237 0.028680319 0.0517942
0.11893921 -0.048394293 -0.031002425 0.005915091 0.0025811784 -0.051841594 0.1061679 -0.030542888
0.04658 -0.064838454 0.002130365 -0.02657729 -0.020037282 -0.029766163 -0.009770583 0.12969269
0.020163614 0.024545792 0.018524865 0.026878152 -0.06773046 -0.06968632 0.04859785 0.08110316
0.010883349 -0.045188956 0.06879773 0.09456497 0.1089208 -0.033194236 0.084081024 -0.039886493
-0.045746334 0.028069345 0.0036725302 -0.06684182 -0.06405803 -0.038287837 0.026128 -0.06441929
0.07573188 0.007763277 -0.054107197 0.118057 0.032131173 0.061044697 0.018499238 0.0059246565
0.29567128 -0.052306198 0.13503501 0.030366186 -0.014424542 0.05418731 -0.015585182 -0.037237868
00000000: b801 ffbc 6dbf 6ebd 0595 debc 02cb 82bd
00000010: 32cd a4bd bb00 9fbc 2a00 ae3e 6082 4a3d
00000020: 047a 033d 4c5c 133e 3ce1 a13d 099f 7ebd
00000030: 5223 6d3d 9c59 36bd 7212 33bd f81b ca3d
00000040: 65ba e6bc 6eb6 933c 3296 64bd 1806 f7bc
00000050: 7f8b 0bbc dc84 81bc e409 4cbd addd acbc
00000060: 84ad 5a3c d21f adbc b2a8 c33c c8d0 2cbd
00000070: 4048 bcbc 785d e73c 4970 c23d bf0f b2bb
00000080: 3a34 1a3d 9a54 8abd 036a 1d3d 4d84 05bd
00000090: 60d8 98bb adce 863b e23a 9e3d fa18 503e
000000a0: 83eb e63c 8b91 643d a802 553d c4be 78bd
000000b0: e0a0 5e3c cf0b 2e3d 396b 683e e068 863d
000000c0: 40bf b33d f7d5 0dbd 94d6 603c c3e5 3d3d
000000d0: 5404 dc3c d8a6 af3c 630d 7f3d 368a 853b
000000e0: 7be7 9e3d 4f91 20bd ad23 a33c d475 743d
000000f0: 3db6 103d 936d 8fbd 86b6 4cbd e028 29bd
00000100: 000f 5ebc 6bbe b73d c9f4 853d a735 d2bc
00000110: 2bba 083e 245a 4abd fdf2 ea3c 2826 543d
00000120: 6796 f33d 1839 46bd ccf8 fdbc 61d3 c13b
00000130: fd28 293b da57 54bd 8e6e d93d 1435 fabc
00000140: acca 3e3d 06ca 84bd 989d 0b3b 9eb8 d9bc
00000150: 3a25 a4bc 2bd8 f3bc cc14 20bc 29ce 043e
00000160: 2a2e a53c 4214 c93c 75c1 973c 922f dc3c
00000170: 44b6 8abd b4b7 8ebd 8a0e 473d 6a19 a63d
00000180: 1350 323c 0e18 39bd d3e5 8c3d 47ab c13d
00000190: de11 df3d aef6 07bd ac32 ac3d 0560 23bd
000001a0: 8260 3bbd aff1 e53c d5ae 703b 5de4 88bd
000001b0: db30 83bd b5d3 1cbd 630a d63c 43ee 83bd
000001c0: 5119 9b3d 1663 fe3b 829f 5dbd dec7 f13d
000001d0: fa9b 033d 010a 7a3d b78b 973c 9f23 c23b
000001e0: 3a62 973e 063f 56bd 9e46 0a3e 82c2 f83c
000001f0: ea54 6cbc 83f3 5d3d fe58 7fbc bc86 18bd

weight f4 [128, 128]
-0.037459582 0.07324829 -0.01684412 0.058884565 0.04100301 -0.040344954 -0.035210826 -0.005095699
-0.038917847 0.32321957 0.10386531 -0.041612785 0.08533274 0.05692417 0.012110457 0.22696155
0.08940511 0.04962071 0.051177647 -0.045475546 -0.015320573 0.04556649 0.07903234 0.20885311
-0.07780703 -0.06536821 0.15244927 0.011735387 0.00975766 -0.06652879 0.01833473 0.13565369
0.16056563 0.053090878 0.09334295 -0.033748813 -0.0048174933 -0.049495503 -0.018205669 -0.014334516
0.29969022 0.041897416 0.21909755 -0.028836122 0.05581916 0.08333544 0.026055839 0.16260865
0.33732334 -0.050883036 0.02193583 -0.02081137 -0.071819566 0.19999585 0.1501357 -0.040264197
0.14182167 -0.031327195 0.0774285 0.2190886 0.013624296 0.03000661 -0.050835736 0.08340757
0.09351824 0.1660996 0.19699462 0.141519 0.18439594 -0.050594267 -0.015018587 0.14351365
0.22137661 0.028525086 -0.08102551 -0.050061688 0.19303966 -0.007776156 0.034960568 0.075529255
0.0126783475 0.024437064 0.15430908 -0.06700685 -0.031011987 -0.035151143 0.29765156 0.026082868
-0.017192166 0.10903323 0.06501827 0.26463073 0.04562328 -0.07444048 0.09050543 0.13123974
-0.06702512 0.013105951 0.08057071 0.15841275 0.09458669 -0.08535382 -0.036016565 -0.07951552
0.09602524 -0.044147566 -0.015803628 -0.063033015 0.06625996 -0.049038745 -0.079457074 0.051404007
0.07900286 0.065362304 -0.042109244 0.20854953 0.015283977 0.037582375 -0.023703003 -0.010490063
0.07922381 0.07499152 0.3409361 0.17830347 0.07721459 0.13397647 -0.07209127 -0.071098536
0.004696645 -0.035156634 0.04325643 0.04962192 -0.028697241 -0.054558076 -0.023372816 0.045225095
-0.08459127 0.30542284 0.02535072 0.033396717 -0.07650172 0.05036474 0.05173316 0.09910071
0.03148438 0.042867772 0.08834413 -0.008807893 -0.07358822 0.02746202 -0.075583965 0.23582256
-0.07590035 0.012267809 0.12710543 0.003514938 0.03842733 0.039772414 -0.020261114 0.15971778
0.105639525 0.06747425 -0.00244965 -0.072071575 0.047586568 -0.06972333 -0.05671547 0.08519193
0.20395383 -0.08476886 0.20968255 0.016975248 0.084905274 0.04980719 0.050084133 0.1706842
0.18156356 0.04232376 -0.079143986 -0.06985904 0.03461524 0.14057729 0.16431133 0.06180543
0.016815417 0.08472968 -0.037608977 0.06989169 0.060797803 0.003069207 0.046420135 0.06809997
0.14698803 0.22302951 0.2861306 0.022091007 0.18951003 -0.059793077 0.018303234 0.11419626
0.27976847 0.06775125 0.074091464 0.050215714 0.19194472 -0.009312585 0.035649206 0.045566745
-0.035349347 -0.07290936 0.17935732 0.06790437 -0.062301807 0.0679427 0.13807037 0.084309444
-0.026234781 0.09012007 -0.08406783 0.21328129 -0.023776166 -0.086493194 0.123186044 0.12394477
0.0006896481 0.01063244 0.040501308 0.11282062 0.15720503 -0.012454954 -0.04458642 0.06271499
0.0629239 0.08099918 -0.07094689 -0.015581787 0.15518913 0.04748456 -0.0059808847 0.05577865
-0.029154474 -0.06261914 -0.0033823177 0.17295772 -0.049005326 -0.010689147 -0.06835465 0.0033394496
0.05844404 -0.06170095 0.1711768 0.06805023 -0.04083056 0.005224255 -0.070205376 -0.044298425
00000000: 386f 19bd 3303 963d aefc 89bc f130 713d
00000010: c6f2 273d c040 25bd 3a39 10bd d2f9 a6bb
00000020: 5268 1fbd 097d a53e 56b7 d43d 2b72 2abd
00000030: eec2 ae3d 5229 693d f06a 463c 9c68 683e
00000040: 071a b73d 163f 4b3d a79f 513d 9144 3abd
00000050: 2403 7bbc eea3 3a3d b5db a13d 97dd 553e
00000060: 4b59 9fbd c5df 85bd a91b 1c3e c845 403c
00000070: 98de 1f3c 3f40 88bd b732 963c cde8 0a3e
00000080: 516b 243e d275 593d 972a bf3d 323c 0abd
00000090: 10dc 9dbb ccbb 4abd 0e24 95bc 51db 6abc
000000a0: ff70 993e a09c 2b3d 1c5b 603e bb39 ecbc
000000b0: a2a2 643d c5ab aa3d 0e73 d53c e282 263e
000000c0: a5b5 ac3e bb6a 50bd c5b2 b33c 9b7c aabc
000000d0: 2316 93bd b6cb 4c3e 2cbd 193e 12ec 24bd
000000e0: b339 113e f250 00bd d592 9e3d c358 603e
000000f0: 7038 5f3c 6cd0 f53c 2239 50bd 97d1 aa3d
00000100: 7e86 bf3d 0316 2a3e f5b8 493e 5bea 103e
00000110: 4ad2 3c3e ef3b 4fbd 8510 76bc 3ef5 123e
00000120: 8db0 623e 71ad e93c b4f0 a5bd 7c0d 4dbd
00000130: 30ac 453e 20cf febb d032 0f3d 15af 9a3d
00000140: d8b8 4f3c 3d30 c83c 3303 1e3e e33a 89bd
00000150: da0c febc a5fa 0fbd c965 983e bdab d53c
00000160: 96d6 8cbc d04c df3d 4c28 853d ae7d 873e
00000170: 7adf 3a3d 4074 98bd e95a b93d b663 063e
00000180: 7744 89bd 58ba 563c 4202 a53d f436 223e
00000190: abb6 c13d fccd aebd 1b86 13bd 08d9 a2bd
000001a0: e2a8 c43d 14d4 34bd 9c76 81bc 7417 81bd
000001b0: 4db3 873d dadc 48bd 64ba a2bd 028d 523d
000001c0: 40cc a13d acdc 853d be7a 2cbd 028e 553e
000001d0: a569 7a3c faef 193d cd2c c2bc 83de 2bbc
000001e0: 1840 a23d 2795 993d 2d8f ae3e 2f95 363e
000001f0: af22 9e3d 2131 093e 96a4 93bd 1c9c 91bd
00000200: 50e6 993b 6700 10bd a82d 313d 5b40 4b3d
00000210: 7a16 ebbc 4a78 5fbd 5978 bfbc f33d 393d
00000220: 303e adbd 6260 9c3e 50ac cf3c ffca 083d
00000230: efac 9cbd 424b 4e3d 26e6 533d 50f5 ca3d
00000240: c4f5 003d 1e96 2f3d c4ed b43d fb4e 10bc
00000250: 6cb5 96bd 08f8 e03c c4cb 9abd 787b 713e
00000260: a571 9bbd ecfe 483c ed27 023e e05a 663b
00000270: fa65 1d3d 66e8 223d a3fa a5bc 0f8d 233e
00000280: 8959 d83d f12f 8a3d 4f8a 20bb 439a 93bd
00000290: 22ea 423d 1bcb 8ebd 7b4e 68bd 1b79 ae3d
000002a0: 46d9 503e 4c9b adbd 06b7 563e ad0f 8b3c
000002b0: d1e2 ad3d a002 4c3d 0525 4d3d d7c7 2e3e
000002c0: cceb 393e ae5b 2d3d 3e16 a2bd 4212 8fbd
000002d0: b6c8 0d3d 7ef3 0f3e 3b41 283e b127 7d3d
000002e0: 7cc0 893c c186 ad3d df0b 1abd 6023 8f3d
000002f0: 1e07 793d c024 493b 0a23 3e3d ff77 8b3d
00000300: 0884 163e d961 643e b67f 923e 33f8 b43c
00000310: eb0e 423e 96e9 74bd aaf0 953c bbdf e93d
00000320: d03d 8f3e 2bc1 8a3d 44bd 973d feae 4d3d
00000330: 288d 443e d093 18bc e704 123d 32a4 3a3d
00000340: 7aca 10bd 8151 95bd 72a9 373e 7211 8b3d
00000350: 2e30 7fbd 8b25 8b3d 5262 0d3e 6eaa ac3d
00000360: 53ea d6bc df90 b83d c12b acbd 6966 5a3e
00000370: 3cc6 c2bc 5823 b1bd f748 fc3d c1d6 fd3d
00000380: 80c9 343a b033 2e3c b3e4 253d 7f0e e73d
00000390: 5bfa 203e dd0f 4cbc 40a0 36bd b770 803d
000003a0: 3fde 803d e6e2 a53d 9a4c 91bd c04a 7fbc
000003b0: e6e9 1e3e 2c7f 423d 4cfb c3bb 2778 643d
000003c0: 5dd5 eebc 773e 80bd e0a9 5dbb d41b 313e
000003d0: cfb9 48bd 8821 2fbc 86fd 8bbd abda 5a3b
000003e0: 0563 6f3d 23ba 7cbd f948 2f3e eb5d 8b3d
000003f0: f23d 27bd 3a30 ab3b d6c7 8fbd 4472 35bd

bias f4 [128]
0.08754833 0.05137912 -0.009645059 -0.056119997 0.0076185144 -0.01809982 0.007944681 0.055825483
-0.03823157 0.085606165 -0.013737171 -0.022843111 0.020165795 -0.01075335 0.010200076 0.02730221
-0.040059153 0.019492649 0.07728928 -0.034631673 0.024759823 -0.03485696 -0.05519202 0.0122725405
-0.052485086 -0.056449782 -0.006623702 -0.024389265 -0.036479242 -0.04728718 0.08430142 0.073087275
-0.046088386 -0.008596368 -0.05310052 0.03819346 -0.007318464 -0.03892029 0.07264903 -0.0445676
-0.07167082 0.0036381907 0.06248966 -0.06481555 0.061386943 0.04805586 0.019608505 -0.038497
-0.039247286 -0.041054565 0.0018497816 -0.07426884 0.0041981535 0.027444273 -0.013257674 -0.020755047
-0.013880075 -0.03853966 0.0915567 0.033120263 -0.05603369 -0.038296957 0.027344951 -0.047841992
0.014670256 -0.041663963 -0.035857677 0.02220608 -0.045743678 0.02953122 0.049606007 0.057080407
0.06252238 0.0412914 0.010638928 0.051710896 -0.055819202 -0.07358046 -0.038747724 0.062530115
-0.0038538978 -0.03042629 -0.01788091 -0.000324618 -0.04391051 0.08148058 -0.020859603 -0.049784377
1.2388949 0.091418706 0.06811506 -0.05127143 0.083398245 0.035354607 -0.026395196 -0.054299768
0.03986072 0.08654891 0.041249778 -0.03520614 -0.070529 0.07619942 0.042841565 -0.0063378597
-0.025556542 0.08818647 0.055306703 0.09164146 -0.006010102 0.04801556 -0.036648583 -0.058635805
0.04411074 0.08634621 0.010847816 -0.04603045 0.047099028 0.064703345 -0.050465073 -0.06957674
0.07337401 -0.00033444003 0.039255537 -0.022363555 0.042848278 -0.05620197 0.010423881 0.06633871
00000000: 8a4c b33d ea72 523d 4f06 1ebc 15de 65bd
00000010: bba4 f93b 1346 94bc 682a 023c 43a9 643d
00000020: b598 1cbd 4952 af3d df11 61bc 7a21 bbbc
00000030: bd32 a53c d22e 30bc 381e 273c e2a8 df3c
00000040: 1115 24bd 0caf 9f3c d849 9e3d f1d9 0dbd
00000050: 1dd5 ca3c 2cc6 0ebd 0711 62bd c412 493c
00000060: 9afa 56bd e337 67bd a40b d9bb ffcb c7bc
00000070: 426b 15bd 34b0 41bd 39a6 ac3d c8ae 953d
00000080: 2dc7 3cbd c8d7 0cbc ee7f 59bd bf70 1c3d
00000090: bacf efbb e26a 1fbd 04c9 943d 848c 36bd
000000a0: 27c8 92bd b66e 6e3b 28f5 7f3d 04be 84bd
000000b0: e070 7b3d 39d6 443d 04a2 a03c 08af 1dbd
000000c0: c3c1 20bd d528 28bd 5f74 f23a 431a 98bd
000000d0: aa90 893b d0d2 e03c b736 59bc 7d06 aabc
000000e0: 4169 63bc c3db 1dbd 1482 bb3d 1da9 073d
000000f0: 9583 65bd 45dd 1cbd 8502 e03c f7f5 43bd
00000100: 835b 703c d5a7 2abd 80df 12bd 86e9 b53c
00000110: b95d 3bbd 75eb f13c ab2f 4b3d 25cd 693d
00000120: bc0b 803d 2c21 293d e64e 2e3c cece 533d
00000130: ada2 64bd 5ab1 96bd efb5 1ebd ca0f 803d
00000140: ad91 7cbb 8e40 f9bc fc7a 92bc 7e31 aab9
00000150: 82db 33bd 4adf a63d c2e1 aabc b4ea 4bbd
00000160: 1c94 9e3f bb39 bb3d e97f 8b3d fe01 52bd
00000170: b3cc aa3d fecf 103d bd3a d8bc 6f69 5ebd
00000180: ff44 233d 8e40 b13d 87f5 283d 5034 10bd
00000190: 8271 90bd 710e 9c3d a37a 2f3d d2ad cfbb
000001a0: f45b d1bc 1c9b b43d 4889 623d 85ae bb3d
000001b0: 64f0 c4bb f7ab 443d d31c 16bd 192c 70bd
000001c0: 77ad 343d 48d6 b03d 0abb 313c 6d8a 3cbd
000001d0: e9ea 403d 3083 843d 77b4 4ebd 407e 8ebd
000001e0: 1d45 963d c857 afb9 6aca 203d c633 b7bc
000001f0: ad81 2f3d 0934 66bd edc8 2a3c 97dc 873d
