model-doom.pth (torch, 110447 bytes, 8 tensors)

weight f4 [8, 1, 6, 6]
0.1253008 0.099343136 -0.11522694 -0.06792591 -0.020676924 0.1790625 -0.015702322 -0.095486574
-0.08058449 -0.064287424 0.015459127 0.0040235547 0.09614745 0.0024593319 0.02121179 0.0063707014
0.1410594 -0.00096229615 0.10607771 -0.073095135 -0.13827379 -0.07190061 0.14455149 0.14360803
0.11261327 0.07248258 0.003767184 0.14241545 0.15170594 -0.030357586 -0.051577166 0.07669772
0.013794563 0.17848383 0.022039464 0.15256116 0.19668935 0.19477794 0.20135571 0.12760897
-0.021617686 0.0061357724 0.09673953 0.024712605 0.15128218 -0.03474609 0.04318071 0.09173494
0.20874734 0.094835445 0.051156025 0.10459881 -0.04205048 0.05409682 0.10788832 0.06927176
0.111167714 -0.090882234 0.17344075 0.1315474 0.050108492 0.08587293 0.16310604 0.07572259
0.14940529 0.058476157 0.18180141 -0.0043084603 0.13074782 0.1314722 -0.10227839 -0.051866665
-0.16317607 0.15303765 -0.02242763 0.03424268 -0.14978416 0.10410906 -0.032146096 0.15837246
-0.013604599 0.0015149286 0.07939686 -0.112663 0.08647252 0.09822604 -0.033678543 0.11779637
-0.16691405 -0.15836054 0.08992603 -0.05199244 0.056362834 0.020903721 -0.13624142 -0.009694258
0.10406395 -0.15648046 -0.10936362 -0.041681953 0.0040486627 -0.031428345 0.110235736 -0.016733684
-0.08783258 0.1301524 -0.115046605 0.08027329 -0.14917928 -0.06459795 0.038899407 0.081167266
-0.111151 -0.10840269 -0.0041680485 0.0012688786 -0.14613257 -0.098376095 0.1032591 -0.14631441
-0.10431282 -0.12893057 -0.055501305 0.009625122 0.08796157 -0.013435051 -0.12018474 -0.105750084
0.04972273 -0.03628838 -0.047193848 0.018104091 0.049962476 -0.07452973 0.09054376 -0.07591331
-0.07806657 -0.098510504 0.1645102 -0.09485221 -0.15034309 0.031322762 0.12528642 -0.10638823
0.00272355 0.07746593 -0.05734727 -0.046826717 -0.086332105 -0.105879374 -0.15976042 -0.01926844
0.11190384 0.14158727 -0.030178828 0.07666477 0.074406125 0.068411365 -0.015822144 -0.097758695
-0.054085173 0.08088404 0.0035751984 0.077723436 0.056926567 -0.14163809 -0.06706512 -0.09651029
0.06741743 -0.044061508 -0.03812592 0.088756666 0.010844333 0.05094593 0.09548045 -0.1353978
0.023184374 0.060547005 -0.03295705 -0.16284603 0.18042323 0.14215498 0.05629678 0.26732257
0.21077259 0.041822247 0.010864395 0.09614179 0.057750728 0.21711338 0.0055942917 0.2305875
0.051102847 0.08432687 0.06801151 0.079127364 0.24989934 -0.016520714 0.10791193 0.0982551
0.19791156 0.23832865 0.07108004 0.20851338 0.18653353 0.16511858 0.22107248 0.19769397
0.19437386 0.19741121 0.21202917 0.065759316 0.24743392 0.123258375 0.21702068 0.051609382
-0.06318003 -0.120953225 0.0023174137 0.0256114 -0.13513689 0.017359063 0.051513717 0.10830392
0.10081895 -0.07254907 0.12742381 -0.09018191 0.08048968 -0.14979485 -0.1283925 -0.08770172
-0.10952775 0.10007478 -0.052488983 0.16400094 -0.056464 -0.072308406 -0.15579563 0.11454214
0.01734759 -0.10631754 -0.049183533 -0.11486524 0.023783028 0.05951841 0.06384151 0.025055528
-0.09360218 0.086213484 0.14208464 -0.13130811 -0.04740209 0.16196674 -0.052289777 -0.056434803
00000000: da4e 003e 6a74 cb3d 1afc ebbd bd1c 8bbd
00000010: a762 a9bc 295c 373e 28a2 80bc 778e c3bd
00000020: 7b09 a5bd 20a9 83bd 4748 7d3c 06d8 833b
00000030: f4e8 c43d be2c 213b 59c4 ad3c 51c1 d03b
00000040: e071 103e 9a42 7cba 453f d93d e7b2 95bd
00000050: a597 0dbe a140 93bd 4e05 143e fc0d 133e
00000060: c9a1 e63d bf71 943d dce2 763b 5bd5 113e
00000070: cd58 1b3e 79b0 f8bc 9442 53bd b213 9d3d
00000080: 9702 623c 77c4 363e 1b8c b43c fe38 1c3e
00000090: ef68 493e de73 473e 3130 4e3e edab 023e
000000a0: 9317 b1bc 970e c93b 601f c63d 1772 ca3c
000000b0: b7e9 1a3e eb51 0ebd 42de 303d 87df bb3d
000000c0: ddc1 553e 1639 c23d fb88 513d e737 d63d
000000d0: 203d 2cbd a194 5d3d 8df4 dc3d 5ade 8d3d
000000e0: e6ab e33d 7720 babd 749a 313e 5db4 063e
000000f0: 903e 4d3d 26de af3d 4505 273e 7214 9b3d
00000100: b3fd 183e b284 6f3d 262a 3a3e fc2d 8dbb
00000110: c2e2 053e a6a0 063e 5577 d1bd 2472 54bd
00000120: a117 27be e7b5 1c3e 26ba b7bc 0d42 0c3d
00000130: 0561 19be 2137 d53d a0ab 03bd 642c 223e
00000140: d3e5 5ebc 9290 c63a d29a a23d dcbb e6bd
00000150: 8118 b13d bc2a c93d 83f2 09bd 393f f13d
00000160: 84eb 2abe 4429 22be 232b b83d 06f6 54bd
00000170: b7dc 663d 483e ab3c df82 0bbe aad4 1ebc
00000180: 7b1f d53d 6a3c 20be 09fa dfbd b2ba 2abd
00000190: a5aa 843b 02bb 00bd 46c3 e13d 1415 89bc
000001a0: 91e1 b3bd ac46 053e 8e9d ebbd 5366 a43d
000001b0: 74c2 18be ee4b 84bd fc54 1f3d 063b a63d
000001c0: 23a3 e3bd 3b02 debd 2094 88bb 8050 a63a
000001d0: c7a3 15be 6879 c9bd 8279 d33d 72d3 15be
000001e0: f6a1 d5bd 6006 04be 5655 63bd b0b2 1d3c
000001f0: 3225 b43d b01e 5cbc 6b23 f6bd 8093 d8bd
00000200: 10aa 4b3d 20a3 14bd 564e 41bd 084f 943c
00000210: 74a5 4c3d 0ba3 98bd 026f b93d 7078 9bbd
00000220: 5ee1 9fbd e0bf c9bd 5d75 283e e041 c2bd
00000230: 8af3 19be 4c4c 003d 154b 003e 13e2 d9bd
00000240: 967d 323b 75a6 9e3d f9e4 6abd 5fcd 3fbd
00000250: e3ce b0bd 49d7 d8bd 3c98 23be d9d8 9dbc
00000260: d72d e53d 41fc 103e 9739 f7bc 6b02 9d3d
00000270: 3d62 983d 421b 8c3d 719d 81bc b635 c8bd
00000280: 6a88 5dbd 88a6 a53d e04d 6a3b 772d 9f3d
00000290: d52b 693d 9309 11be 7059 89bd 30a7 c5bd
000002a0: 2612 8a3d d779 34bd ed29 1cbd 0ec6 b53d
000002b0: 6eac 313c aeac 503d 418b c33d b9a5 0abe
000002c0: 28ed bd3c 2300 783d f9fd 06bd 1cc1 26be
000002d0: dec0 383e 1391 113e 7497 663d 81de 883e
000002e0: c5d4 573e ce4d 2b3d 9300 323c fde5 c43d
000002f0: 078c 6c3d f852 5e3e 5250 b73b 211f 6c3e
00000300: 3851 513d 91b3 ac3d 9e49 8b3d 870d a23d
00000310: 9de5 7f3e 7356 87bc ee00 dd3d f839 c93d
00000320: 54a9 4a3e 6d0c 743e 6992 913d 8884 553e
00000330: a502 3f3e d814 293e d360 623e 4a70 4a3e
00000340: f109 473e 2a26 4a3e 2d1e 593e d2ac 863d
00000350: 515f 7d3e e36e fc3d ab3a 5e3e 5c64 533d
00000360: 8864 81bd 53b6 f7bd c0df 173b 00cf d13c
00000370: 5361 0abe 9834 8e3c 0c00 533d 72ce dd3d
00000380: 2a7a ce3d 9b94 94bd 637b 023e 4bb1 b8bd
00000390: c6d7 a43d d263 19be 5379 03be f69c b3bd
000003a0: 1650 e0bd 02f4 cc3d b0fe 56bd ddef 273e
000003b0: cc46 67bd 6e16 94bd e488 1fbe 1295 ea3d
000003c0: 881c 8e3c 03bd d9bd ac74 49bd 783e ebbd
000003d0: a0d4 c23c 94c9 733d 56bf 823d 4041 cd3c
000003e0: 80b2 bfbd b290 b03d a37e 113e a275 06be
000003f0: b228 42bd 9cda 253e ce2d 56bd 2e28 67bd

bias f4 [8]
-0.022599991 0.22305529 0.001970322 0.028356016 0.021451885 0.38584208 -0.15444219 0.0009232267
00000000: 9e23 b9bc 9b68 643e 8520 013b e04a e83c
00000010: ddbb af3c 188d c53e 1826 1ebe b204 723a

weight f4 [8, 8, 3, 3]
-0.09126821 -0.10997403 -0.09546407 0.105639406 -0.10459093 0.021632485 0.04734703 0.11457991
0.045054294 0.04254877 -0.105007805 -0.00849928 0.056239434 -0.11635802 0.070582815 -0.04994972
-0.1170904 -0.08501906 0.0680315 -0.05559925 0.013145067 0.035350956 0.022705294 0.11215667
-0.007768482 0.02033753 0.079709284 0.0420089 -0.0298414 -0.07524564 0.060486056 0.060885392
0.036781453 0.07160226 -0.064339876 -0.01289352 0.10357537 -0.061933894 0.0032865107 -0.064277515
-0.09989435 0.05001176 -0.005837761 -0.008875757 -0.004988961 0.027765714 0.08397701 -0.02652897
-0.11438351 0.11650918 0.110879906 -0.09807357 0.027744092 -0.10572458 -0.056357544 0.016014732
0.05799613 0.07970867 -0.034341842 0.007647492 0.041182213 0.025195368 -0.05148662 0.07871994
0.013877995 0.004027538 0.073390834 0.05689717 -0.031324394 0.09268998 -0.09880247 -0.094395906
-0.03674613 0.016139695 0.044494566 0.09820709 0.04387343 -0.06943253 -0.0047213878 -0.04175377
-0.085817665 0.12279486 -0.079267494 0.054270722 -0.04281941 0.03775172 -0.023774896 -0.013489345
-0.043050483 0.020522159 -0.008956473 -0.09192976 0.010503803 0.011644775 0.028252065 -0.059798576
-0.07978993 -0.06988226 0.11571356 -0.07843605 -0.017045125 -0.0060419217 -0.10591495 0.028926753
-0.09561263 0.063213326 -0.011051565 0.0409038 -0.07029955 0.024287848 -0.11546323 -0.028808523
0.009757725 -0.04968155 -0.09274981 -0.10101945 0.028748306 0.08715157 -0.017208463 0.048511267
0.04432979 0.09527687 0.061873194 0.09965706 0.0072697606 -0.08568368 0.0875571 0.035880767
-0.01173915 -0.037774622 -0.040881068 0.042667277 -0.02281759 -0.016680911 0.08265116 -0.08271574
0.056078743 -0.09960623 -0.045704354 -0.019498974 0.10319489 0.042953297 -0.059235383 -0.06327081
0.112440266 0.05163151 -0.038036253 -0.00586542 0.08808961 -0.055058394 0.09620568 -0.09719827
0.01927437 -0.009986271 0.04165313 0.11261061 -0.083851516 0.1090204 0.00036934725 -0.095107384
0.08393474 0.04539483 -0.0636864 -0.021697829 -0.0023832868 0.08557781 -0.109253034 -0.0028889356
0.10472211 0.04307273 0.034322366 -0.034836873 -0.03502386 -0.0066836774 -0.096349366 -0.024756134
-0.0485513 0.10658077 0.05536831 -0.042968616 0.0686795 0.10085243 -0.11249966 0.018130355
-0.084703416 0.089554034 -0.026023377 0.10963276 0.011320196 0.046029337 -0.032318465 -0.042485997
-0.051116742 0.05024446 0.13078359 0.04476923 -0.004998101 0.07927499 -0.065494105 -0.091360696
0.045596905 0.11338917 -0.034582347 0.018702157 -0.059958488 -0.049984403 -0.089325085 -0.06286991
0.09422251 0.009496499 0.09105272 -0.047323793 0.0489078 0.08292874 -0.0756157 0.07665938
-0.024856612 -0.09263981 0.01286862 0.08089892 0.08971993 -0.03469737 0.070148714 -0.082951516
-0.020948358 -0.060825292 -0.07344749 -0.0840317 -0.092361584 0.030997567 0.08490949 -0.0604594
0.07342177 -0.011486158 -0.072848074 -0.03391259 0.07166361 0.013440542 -0.02013684 -0.08466283
-0.011030689 0.09044974 -0.0702264 -0.026459597 0.07920662 -0.056351855 -0.021745145 0.059518896
0.096273415 0.07508137 0.092125125 -0.061700825 0.074222855 0.0999599 0.064416416 -0.059770793
00000000: d4ea babd 103a e1bd ab82 c3bd 7959 d83d
00000010: c533 d6bd 9c36 b13c f6ee 413d dfa8 ea3d
00000020: da8a 383d 9e47 2e3d 550e d7bd 9040 0bbc
00000030: 525b 663d 1d4d eebd b98d 903d 1498 4cbd
00000040: 17cd efbd 791e aebd 1954 8b3d 0abc 63bd
00000050: 685e 573c 2acc 103d 7400 ba3c 65b2 e53d
00000060: c08e febb e49a a63c 9f3e a33d 8611 2c3d
00000070: f475 f4bc 631a 9abd 3ac0 773d f662 793d
00000080: 26a8 163d 35a4 923d a0c4 83bd 583f 53bc
00000090: 531f d43d 65ae 7dbd 8062 573b eea3 83bd
000000a0: 6995 ccbd 22d9 4c3d b04a bfbb a06b 11bc
000000b0: 707a a3bb ec74 e33c 23fc ab3d 4853 d9bc
000000c0: e741 eabd 5d9c ee3d 0115 e33d ccda c8bd
000000d0: 9447 e33c 2186 d8bd 2bd7 66bd 5431 833c
000000e0: 5a8d 6d3d 4d3e a33d 08aa 0cbd d097 fa3b
000000f0: aeae 283d 8466 ce3c a2e3 52bd eb37 a13d
00000100: 8860 633c 70f9 833b ef4d 963d 020d 693d
00000110: 024e 00bd 3fd4 bd3d f358 cabd a452 c1bd
00000120: 1c83 16bd 6537 843c ef3f 363d cc20 c93d
00000130: a0b4 333d a432 8ebd dfb5 9abb 0006 2bbd
00000140: 2cc1 afbd df7b fb3d ff56 a2bd fa4a 5e3d
00000150: 6863 2fbd 8ca1 1a3d 92c3 c2bc 6a02 5dbc
00000160: b455 30bd 161e a83c 2cbe 12bc ac45 bcbd
00000170: 2518 2c3c bac9 3e3c e070 e73c 5aef 74bd
00000180: e768 a3bd 6e1e 8fbd 3bfb ec3d 14a3 a0bd
00000190: 38a2 8bbc 50fb c5bb f0e9 d8bd ccf7 ec3c
000001a0: 8ed0 c3bd fd75 813d a011 35bc be8a 273d
000001b0: 36f9 8fbd 4ff7 c63c fc77 ecbd daff ebbc
000001c0: ddde 1f3c e27e 4bbd 9df3 bdbd 49e3 cebd
000001d0: 9181 eb3c 867c b23d c3f8 8cbc c0b3 463d
000001e0: 2793 353d 8520 c33d bf6e 7d3d 0019 cc3d
000001f0: 2c37 ee3b ed7a afbd 2351 b33d b6f7 123d
00000200: 9055 40bc 90b9 1abd e872 27bd e2c3 2e3d
00000210: f4eb babc 68a6 88bc 0345 a93d df66 a9bd
00000220: d3b2 653d 5afe cbbd 7d34 3bbd 50bc 9fbc
00000230: d857 d33d ccef 2f3d cda0 72bd 2094 81bd
00000240: 1547 e63d 907b 533d e7cb 1bbd b632 c0bb
00000250: 5368 b43d e984 61bd 7c07 c53d e30f c7bd
00000260: 49e5 9d3c 759d 23bc 799c 2a3d 64a0 e63d
00000270: 58ba abbd 1646 df3d f3a4 c139 a9c7 c2bd
00000280: fae5 ab3d eeef 393d 046e 82bd a5bf b1bc
00000290: eb30 1cbb 6b43 af3d 0ec0 dfbd 4c54 3dbb
000002a0: 8c78 d63d 086d 303d 9c95 0c3d 1cb1 0ebd
000002b0: 2e75 0fbd c002 dbbb d152 c5bd 60cd cabc
000002c0: badd 46bd 0547 da3d e2c9 623d dcff 2fbd
000002d0: d6a7 8c3d b88b ce3d 3966 e6bd 1c86 943c
000002e0: fc78 adbd 1b68 b73d fa2e d5bc 2487 e03d
000002f0: 5878 393c 4289 3c3d 5e60 04bd cc05 2ebd
00000300: ca5f 51bd 23cd 4d3d 22ec 053e f15f 373d
00000310: 1cc7 a3bb ed5a a23d c621 86bd 511b bbbd
00000320: d2c3 3a3d 9538 e83d 38a6 0dbd 4435 993c
00000330: 0897 75bd 72bc 4cbd 12f0 b6bd f0c1 80bd
00000340: bbf7 c03d 3497 1b3c d979 ba3d 98d6 41bd
00000350: 8c53 483d 8bd6 a93d 67dc 9abd 98ff 9c3d
00000360: 18a0 cbbc f1b9 bdbd e8d6 523c 55ae a53d
00000370: 15bf b73d d41e 0ebd 21aa 8f3d 7ce2 a9bd
00000380: e49b abbc f123 79bd a36b 96bd d018 acbd
00000390: 1228 bdbd 9cee fd3c 07e5 ad3d 47a4 77bd
000003a0: 275e 963d 7030 3cbc 5f31 95bd eee7 0abd
000003b0: 5fc4 923d b835 5c3c 04f6 a4bc b563 adbd
000003c0: 10ba 34bc b73d b93d dcd2 8fbd ccc1 d8bc
000003d0: 1537 a23d 34d1 66bd e022 b2bc 16ca 733d
000003e0: ff2a c53d 43c4 993d 19ac bc3d 01ba 7cbd
000003f0: 2702 983d c7b7 cc3d c1ec 833d 38d2 74bd

bias f4 [8]
-0.05740953 0.119515084 -0.0010417345 -0.0024051368 0.21453984 0.14185901 0.1350617 0.33069074
00000000: 4126 6bbd 53c4 f43d cf8a 88ba 809f 1dbb
00000010: 55b0 5b3e 7d43 113e 9d4d 0a3e 4c50 a93e

weight f4 [128, 192]
0.0403322 -0.005473003 0.0650475 0.051184252 -0.029366005 0.07043952 -0.024353486 0.064549655
0.051896676 -0.016115993 -0.021973688 -0.030486349 0.053429157 -0.048523683 -0.0555856 0.04406424
0.060949326 0.06482194 -0.055379704 0.06320794 0.04453689 0.05306551 -0.005753927 -0.0033581853
0.032588348 -0.04758768 -0.0077278316 -0.061983414 0.051999837 -0.0062928125 -0.03482381 -0.023788918
-0.041031525 -0.021916807 -0.02890547 0.027476065 -0.03422938 0.028243192 -0.02521969 -0.015188336
0.07101345 -0.0070929527 0.04908023 -0.013786748 -0.025109284 -0.019761052 -0.069466665 -0.033351287
-0.0417028 0.030929774 0.06181355 0.016944788 -0.028629702 0.005660832 0.053689107 0.032910965
0.03087338 0.066292405 -0.05985347 -0.0038135424 -0.066503644 -0.048780262 -0.04509653 -0.066932306
0.016651295 0.02807381 0.06892215 -0.008372083 -0.038756844 -3.46601e-05 0.069638684 -0.012852304
-0.06787334 -0.019356616 -0.012213379 0.009317428 -0.024988316 0.010002509 0.014138319 0.047863
-0.046598725 0.031112053 -0.035760626 -0.0018938631 -0.007733099 0.04472767 -0.0011483952 0.02136983
-0.05529054 0.022821113 -0.040461365 0.022040538 0.00021151453 0.014740393 0.0022231638 0.05197849
-0.06726152 -0.034114778 -0.02873762 -0.008113697 0.047833942 -0.055284396 0.004909873 0.028828382
-0.028867237 0.021715656 -0.059207313 -0.06356962 -0.04712569 -0.0090602115 -0.008044809 -0.071853176
0.021226153 0.047216497 -0.03027242 -0.022089995 0.06817688 -0.07021044 -0.012315594 -0.056757793
-0.030939966 0.040884458 0.06303665 0.05938612 -0.037368502 0.06142743 -0.035807204 -0.045022193
0.050037988 0.059859723 -0.06636711 -0.050590403 0.04573798 -0.0011833608 0.05524902 0.007867925
-0.057588812 -0.048344806 -0.063646294 -0.039306156 0.03759343 0.03797643 0.012275159 0.00922814
-0.0664738 0.032076396 -0.0378087 -0.036100272 0.015648693 -0.01644583 -0.03806662 -0.010731842
0.061836496 0.0012760088 0.05244506 0.037584007 -0.042729933 0.050830908 0.0042133704 0.06109467
-0.02263894 -0.018371828 0.026220798 0.052712753 -0.03001811 -0.032996792 -0.035464644 -0.05579428
0.045673884 -0.016902782 -0.033990666 0.036553144 0.0016278103 0.03178162 0.047304295 0.026919544
-0.010730233 -0.028357644 -0.020795543 -0.026081387 0.0570807 -0.035397425 0.06123683 -0.02811014
0.0010864362 -0.020514905 -0.0043467283 -0.0032151565 0.058805287 0.033897564 -0.018167965 -0.06276401
0.05328262 0.046443053 0.03538531 -0.044706136 -0.044871308 0.008295 0.034680016 -0.04067304
0.0404457 -0.039984897 -0.0034293532 0.04681042 -0.061702564 0.060063556 0.011728086 -0.020980682
0.020544909 -0.062409274 0.03273437 0.012786061 0.05432728 -0.050257526 0.0028803498 -0.0018692613
0.018886331 -0.056001924 0.044312112 0.017497646 -0.0065428466 0.05199345 0.03261098 0.023295617
-0.06931209 0.0028123362 0.07235428 0.029749542 0.023860026 -0.044247404 0.004029296 0.036569998
-0.070595704 0.07221603 0.024751702 0.007946716 -0.047831558 -0.060743276 0.032147843 0.03815623
0.060356326 -0.05333867 -0.03246956 0.0019884843 -0.047742445 -0.058404524 0.0670222 0.014752189
-0.060718257 -0.01792069 0.051299147 -0.049253404 -0.06681933 0.029679045 -0.02366656 0.030821757
00000000: 6033 253d e056 b3bb a037 853d 94a6 513d
00000010: fa90 f0bc 9842 903d f680 c7bc 9c32 843d
00000020: 9c91 543d b005 84bc 2a02 b4bc 82be f9bc
00000030: 88d8 5a3d c5c0 46bd baad 63bd b47c 343d
00000040: 00a6 793d 5ec1 843d d4d5 62bd 2a73 813d
00000050: 506c 363d 385b 593d 708b bcbb 0015 5cbb
00000060: 5c7b 053d 4deb 42bd c039 fdbb 52e2 7dbd
00000070: c8fd 543d f033 cebb 69a3 0ebd fae0 c2bc
00000080: ac10 28bd e08a b3bc 2acb ecbc 7c15 e13c
00000090: 1b34 0cbd 445e e73c 8699 cebc 80d8 78bc
000000a0: 806f 913d 006c e8bb 5a08 493d d0e1 61bc
000000b0: fcb1 cdbc eee1 a1bc 8a44 8ebd 5c9b 08bd
000000c0: 8ed0 2abd 7060 fd3c 3430 7d3d cccf 8a3c
000000d0: d688 eabc 807e b93b 1ce9 5b3d a6cd 063d
000000e0: 2cea fc3c 50c4 873d ea28 75bd a0ec 79bb
000000f0: 1033 88bd d0cd 47bd 24b7 38bd ce13 89bd
00000100: 4c68 883c 0cfb e53c 0e27 8d3d 102b 09bc
00000110: 7fbf 1ebd 0060 11b8 ba9e 8e3d 7892 52bc
00000120: 2d01 8bbd c491 9ebc a01a 48bc 20a8 183c
00000130: 4cb4 ccbc 90e1 233c 68a4 673c fe0b 443d
00000140: 4ede 3ebd b4de fe3c bc79 12bd 803b f8ba
00000150: f065 fdbb 5c34 373d c085 96ba c80f af3c
00000160: 5578 62bd 58f3 ba3c d1ba 25bd 5c8e b43c
00000170: 00ca 5d39 b081 713c 80b2 113b 66e7 543d
00000180: 68c0 89bd f0bb 0bbd 286b ebbc 50ef 04bc
00000190: 86ed 433d e471 62bd 00e3 a03b 8029 ec3c
000001a0: fc7a ecbc 08e5 b13c 5e83 72bd ca30 82bd
000001b0: de06 41bd 4871 14bc 60ce 03bc c227 93bd
000001c0: 78e2 ad3c 1666 413d defd f7bc 14f6 b4bc
000001d0: 52a0 8b3d 7eca 8fbd 58c7 49bc dc7a 68bd
000001e0: d075 fdbc 7676 273d 5c19 813d dc3e 733d
000001f0: b70f 19bd 549b 7b3d 93aa 12bd 3169 38bd
00000200: a2f4 4c3d 782f 753d 7beb 87bd e237 4fbd
00000210: c057 3b3d 001b 9bba cc4c 623d 78e8 003c
00000220: 3fe2 6bbd 3405 46bd fd58 82bd 7eff 20bd
00000230: 92fb 193d 2c8d 1b3d c01d 493c a031 173c
00000240: 6a23 88bd 8a62 033d 4cdd 1abd e1dd 13bd
00000250: b031 803c 68b9 86bc beeb 1bbd 9cd4 2fbc
00000260: 4448 7d3d c03f a73a a2d0 563d b0f1 193d
00000270: 9505 2fbd 1234 503d 5010 8a3b 683e 7a3d
00000280: 4c75 b9bc 8480 96bc 00cd d63c 54e9 573d
00000290: 8ae8 f5bc a527 07bd 6043 11bd 8b88 64bd
000002a0: 8a14 3b3d b477 8abc cc39 0bbd c0b8 153d
000002b0: 405c d53a 722d 023d 26c2 413d 6086 dc3c
000002c0: dccd 2fbc 4a4e e8bc 6a5b aabc a2a8 d5bc
000002d0: 74cd 693d e4fc 10bd 78d3 7a3d 3c47 e6bc
000002e0: c066 8e3a e00e a8bc 006f 8ebb 60b5 52bb
000002f0: d0dd 703d 2cd8 0a3d fcd4 94bc 6b8a 80bd
00000300: e03e 5a3d 123b 3e3d 30f0 103d c81d 37bd
00000310: faca 37bd c0e7 073c a20c 0e3d c698 26bd
00000320: 64aa 253d 34c7 23bd 00bf 60bb 48bc 3f3d
00000330: d4bb 7cbd 3405 763d 2827 403c aedf abbc
00000340: cc4d a83c dea0 7fbd 7a14 063d a07c 513c
00000350: 4886 5e3d d6da 4dbd 40c4 3c3b 0002 f5ba
00000360: 82b7 9a3c 4662 65bd 9e80 353d 3957 8f3c
00000370: 6065 d6bb 15f7 543d 1793 053d 73d6 be3c
00000380: 7ff3 8dbd 2c4f 383b 7b2e 943d 50b5 f33c
00000390: 1a76 c33c c43c 35bd 2f08 843b 6cca 153d
000003a0: 7b94 90bd ffe5 933d 15c4 ca3c f132 023c
000003b0: 06eb 43bd f1cd 78bd 75ad 033d b549 1c3d
000003c0: 3238 773d a679 5abd cdfe 04bd 3b51 023b
000003d0: 958d 43bd 9539 6fbd ef42 893d 2ab3 713c
000003e0: b5b3 78bd 69ce 92bc 0e1f 523d f0bd 49bd
000003f0: 93d8 88bd 7821 f33c 60e0 c1bc e97d fc3c

bias f4 [128]
-0.07030601 -0.031377356 -0.0041445396 -0.032586135 -0.03817386 -0.009784441 0.050634764 0.07101969
-0.0128175225 0.059905052 0.018476777 -0.0106787635 -0.015145328 -0.0625993 0.0045507047 0.054815248
-0.054118324 0.05701158 -0.0087638395 -0.03947207 0.00578142 -0.05242066 0.047897868 -0.072013065
-0.019791076 0.060599316 -0.064659715 -0.028914787 0.005796628 0.044083554 -0.017988415 0.01358841
0.022174247 -0.05584244 -0.024453543 0.02795138 -0.049490947 -0.059232768 0.09763445 -0.07590078
-0.010792351 -0.016700037 -0.059587717 0.034617353 0.041924287 -0.024035277 0.034878317 0.015550107
-0.03018689 0.034380794 -0.04647059 0.05024473 0.041286908 -0.0076427134 0.09010464 0.029015332
-0.00090365094 -0.056358118 -0.029949576 0.021095969 0.03525259 0.08213016 0.032411337 0.0015357807
0.010566376 0.070269 0.08143848 0.017432205 -0.031523075 0.028424844 0.07357591 0.026461378
0.010653384 -0.0012735999 -0.028036185 0.030816494 0.012882729 0.058968373 0.02630569 0.04039691
-0.0064167967 0.00068385154 -0.02033959 0.07879372 -0.039522167 -0.054590397 0.041330203 -0.015839167
-0.06548103 0.06581658 -0.024897803 -0.03189315 0.05941111 0.05293778 0.01073613 0.02800814
-0.0032183304 -0.003449111 -0.016750943 0.06599457 0.057081196 0.019497707 0.009185755 -0.022701811
-0.05461576 -0.064264 -0.03286946 0.058525294 0.09386588 0.004166776 0.05197865 -0.022955004
-0.060313284 0.029808603 0.003093876 -0.005159157 0.07427876 -0.011747656 -0.06009032 -0.014416206
0.05941657 -0.022807423 0.066049166 0.053686544 -0.045867637 -0.0382587 -0.0668776 0.04898919
00000000: 99fc 8fbd 8b85 00bd ebce 87bb 0a79 05bd
00000010: 325c 1cbd ec4e 20bc 6666 4f3d c572 913d
00000020: 9600 52bc 005f 753d 9c5c 973c fbf5 2ebc
00000030: 1c24 78bc 1034 80bd 141e 953b f485 603d
00000040: 2dab 5dbd f984 693d 3596 0fbc 77ad 21bd
00000050: 1172 bd3b 0cb7 56bd 8e30 443d 967b 93bd
00000060: e520 a2bc fd36 783d 506c 84bd b4de ecbc
00000070: a4f1 bd3b f590 343d 715c 93bc eca1 5e3c
00000080: c4a6 b53c 0bbb 64bd cc52 c8bc 4bfa e43c
00000090: 05b7 4abd 0f9e 72bd 92f4 c73d de71 9bbd
000000a0: 67d2 30bc 84ce 88bc 4012 74bd edca 0d3d
000000b0: cdb8 2b3d a1e5 c4bc 91dc 0e3d e0c5 7e3c
000000c0: 7f4a f7bc e0d2 0c3d f257 3ebd 6bcd 4d3d
000000d0: 761c 293d ba6f fabb c888 b83d 90b1 ed3c
000000e0: fde2 6cba c5d7 66bd d058 f5bc 74d1 ac3c
000000f0: 0565 103d db33 a83d c0c1 043d 404c c93a
00000100: 981e 2d3c 32e9 8f3d 38c9 a63d fccd 8e3c
00000110: 571e 01bd 38db e83c f7ae 963d 88c5 d83c
00000120: 888b 2e3c ecee a6ba 24ac e5bc df72 fc3c
00000130: 1512 533c d288 713d 087f d73c 3b77 253d
00000140: fe43 d2bb 8044 333a 369f a6bc 9a5e a13d
00000150: ffe1 21bd 2e9a 5fbd dc49 293d 24c1 81bc
00000160: eb1a 86bd d8ca 863d 7af6 cbbc 64a2 02bd
00000170: 1059 733d 49d5 583d 98e6 2f3c 5471 e53c
00000180: a0ea 52bb 7b0a 62bb 4639 89bc 2928 873d
00000190: f9cd 693d a8b9 9f3c d97f 163c 26f9 b9bc
000001a0: c6b4 5fbd d89c 83bd 20a2 06bd 38b8 6f3d
000001b0: c13c c03d 7389 883b 91e7 543d 220c bcbc
000001c0: 100b 77bd 2c31 f43c a0c2 4a3b 250e a9bb
000001d0: 761f 983d 3e79 40bc 4421 76bd f331 6cbc
000001e0: ca5e 733d a2d6 babc c944 873d 6ce6 5b3d
000001f0: b4df 3bbd 28b5 1cbd 20f7 88bd e4a8 483d

weight f4 [8, 128]
-0.043144263 -0.0072773783 -0.06695666 -0.08668517 -0.08484011 -0.05104412 -0.070233874 -0.07478746
-0.11708163 -0.04748971 -0.027085356 -0.014973414 -0.02244822 -0.033893924 -0.031001894 -0.08136732
0.05217507 -0.031043671 -0.052578483 -0.13048054 0.084775925 -0.077622294 -0.010944358 -0.03974346
0.010203144 -0.022152524 -0.0038038269 0.009137131 -0.027954038 -0.1423127 -0.041151866 -0.06239509
-0.09737779 -0.06721497 -0.0025271028 -0.028892634 0.05603624 -0.036191907 -0.14275925 0.017744785
-0.09280069 0.08303743 -0.0133668855 -0.058524277 -0.08851621 0.00087188615 -0.14293142 -0.04258862
-0.045361847 -0.07283026 0.06733283 -0.1038171 0.019759431 -0.1244756 -0.027240396 0.008437157
-0.06610474 0.010048883 0.03242726 -0.03686884 0.05097454 -0.049685527 -0.06789694 0.088343926
-0.06526595 0.086702295 -0.07583781 0.017711751 0.025110513 0.049528006 -0.018343307 -0.10168697
0.009317942 0.029835837 -0.109759904 -0.0058114016 -0.04300538 -0.008669957 0.021191232 -0.030475063
0.0235513 0.023858264 -0.056694854 -0.055250622 -0.060672715 0.025657251 -0.10034404 -0.011563243
0.07370302 -0.027159713 0.06760157 0.07137922 -0.078417435 -0.16928957 0.067650035 0.066729195
0.009390257 -0.07974845 0.0370925 -0.14476392 0.021396607 -0.16841134 0.06577439 0.03761492
0.054536078 0.009827452 0.08234794 -0.05075192 -0.0072089555 -0.09737558 -0.06535882 0.038520925
-0.02512306 0.06181521 -0.06318776 -0.038335558 -0.11667663 0.07402299 0.0708152 0.037401013
0.048395753 0.0071829706 0.032363188 0.05012404 0.04414564 0.058234014 -0.025429245 -0.15134647
-0.0044619516 0.06636218 -0.044407696 0.0046135983 0.03549556 0.08364735 0.019004457 -0.09991022
-0.02573388 -0.06705005 0.02284202 -0.075055346 0.06546091 0.008410238 0.083705716 -0.053584218
0.06842146 0.00912444 -0.042298462 0.07360126 -0.009762988 -0.073917806 -0.03066153 -0.10280181
-0.02873749 -0.031960774 0.011738226 -0.0073509067 -0.05752576 -0.0259096 -0.09828064 0.029057965
-0.065822 0.053321175 0.08220192 -0.107132725 0.058671765 0.060002528 -0.045131788 -0.020680806
-0.07581475 0.07209817 0.041195385 0.07007906 -0.06394474 -0.07060099 -0.037869804 0.07011903
0.032116424 0.018013267 -0.08039529 -0.06573522 -0.019356918 -0.11590409 -0.0837099 -0.011960156
0.058308233 0.083201505 0.029507622 0.069950394 -0.0019605702 0.0797307 0.012898519 -0.069343984
-0.052300002 0.046289243 -0.043439064 -0.048045963 0.049229093 0.024274424 0.035388734 -0.0875604
-0.00741297 0.06291793 0.039776478 0.02971279 -0.062644586 -0.033566304 -0.040407963 0.02147484
0.037264116 0.0030499995 -0.031003833 0.02824221 -0.06419095 -0.015517036 0.04129233 0.066467434
0.03163814 -0.044799455 0.06403924 0.06762675 -0.11397914 -0.024042653 -0.040223412 -0.011009249
0.044879608 -0.03762485 0.06841067 0.0011640862 -0.09753059 -0.0266333 -0.047118295 -0.038988456
0.0025708433 -0.07599606 -0.013319857 0.061268114 -0.023008855 -0.06589754 0.06591607 -0.012873583
0.058761887 -0.03683599 0.07725551 -0.1264735 -0.084988035 -0.015232968 0.05239693 0.0050782245
0.07435617 0.07648944 -0.0737927 0.039094545 -0.03352781 -0.04252821 -0.06558334 -0.052934412
00000000: 0ab8 30bd 1377 eebb 9320 89bd ff87 b1bd
00000010: a7c0 adbd a413 51bd c7d6 8fbd 2b2a 99bd
00000020: 7ec8 efbd 9284 42bd 1ce2 ddbc 0d53 75bc
00000030: 54e5 b7bc 5bd4 0abd aff7 fdbc e9a3 a6bd
00000040: 87b5 553d 4c4f febc 895c 57bd b19c 05be
00000050: 009f ad3d 70f8 9ebd f74f 33bc 0aca 22bd
00000060: 162b 273c 3679 b5bc a049 79bb e8b3 153c
00000070: deff e4bc 6cba 11be dc8e 28bd fe91 7fbd
00000080: 026e c7bd 01a8 89bd c09d 25bb 3fb0 ecbc
00000090: 4286 653d f73d 14bd 7b2f 12be 835d 913c
000000a0: 4a0e bebd 870f aa3d c800 5bbc 27b7 6fbd
000000b0: fd47 b5bd 4a8f 643a 9d5c 12be 6871 2ebd
000000c0: 58cd 39bd 0828 95bd cbe5 893d 0f9e d4bd
000000d0: 88de a13c 10ed febd 4027 dfbc 003c 0a3c
000000e0: ec61 87bd 12a4 243c 72d2 043d c803 17bd
000000f0: aeca 503d 0d83 4bbd 8d0d 8bbd a9ed b43d
00000100: 28aa 85bd f990 b13d db50 9bbd 3c18 913c
00000110: 90b4 cd3c e1dd 4a3d b444 96bc 4241 d0bd
00000120: 48aa 183c 496a f43c cdc9 e0bd 926d bebb
00000130: 6926 30bd 6f0c 0ebc 3c99 ad3c d7a6 f9bc
00000140: a8ee c03c 6872 c33c dd38 68bd 7a4e 62bd
00000150: f483 78bd 282f d23c 2d81 cdbd c273 3dbc
00000160: 9cf1 963d 0c7e debc b172 8a3d 452f 923d
00000170: 5299 a0bd 3f5a 2dbe 1a8c 8a3d 51a9 883d
00000180: 98d9 193c 2853 a3bd 4eee 173d fe3c 14be
00000190: f047 af3c 0674 2cbe b9b4 863d 1a12 1a3d
000001a0: 3961 5f3d 5203 213c 09a6 a83d 3fe1 4fbd
000001b0: 1a39 ecbb d96c c7bd d8da 85bd 1ec8 1d3d
000001c0: e0ce cdbc f231 7d3d 9668 81bd bf05 1dbd
000001d0: 28f4 eebd 5e99 973d 8f07 913d ce31 193d
000001e0: a03a 463d 205f eb3b 438f 043d de4e 4d3d
000001f0: 0fd2 343d ca86 6e3d fe50 d0bc 92fa 1abe
00000200: 9035 92bb e5e8 873d d8e4 35bd ab2d 973b
00000210: cb63 113d 4d4f ab3d 3caf 9b3c bb9d ccbd
00000220: dccf d2bc 8951 89bd 301f bb3c 9eb6 99bd
00000230: 5f10 863d 18cb 093c e76d ab3d 207b 5bbd
00000240: 8d20 8c3d ad7e 153c 2741 2dbd 42bc 963d
00000250: f1f4 1fbc 3862 97bd e42d fbbc c189 d2bd
00000260: e26a ebbc 4de9 02bd b051 403c e0df f0bb
00000270: 22a0 6bbd 5f40 d4bc 5c47 c9bd f80a ee3c
00000280: afcd 86bd 4e67 5a3d 7b59 a83d 6768 dbbd
00000290: ce51 703d 36c5 753d 1cdc 38bd cb6a a9bc
000002a0: c344 9bbd 35a8 933d 7ebc 283d 9c85 8f3d
000002b0: 76f5 82bd 4097 90bd 5e1d 1bbd 919a 8f3d
000002c0: 838c 033d 8f90 933c 49a6 a4bd 30a0 86bd
000002d0: 6692 9ebc 205f edbd 1970 abbd 88f4 43bc
000002e0: 9dd4 6e3d 8d65 aa3d f8b9 f13c 2742 8f3d
000002f0: e97c 00bb d949 a33d 4f54 533c 3804 8ebd
00000300: 8738 56bd ca99 3d3d 29ed 31bd d8cb 44bd
00000310: 72a4 493d 28db c63c c7f3 103d de52 b3bd
00000320: 80e8 f2bb 1edb 803d a9ec 223d 3d68 f33c
00000330: ce4b 80bd d27c 09bd d282 25bd 01ec af3c
00000340: 42a2 183d 80e2 473b c0fb fdbc 355c e73c
00000350: 8b76 83bd 2b3b 7ebc 2522 293d 1420 883d
00000360: ff96 013d a27f 37bd 0127 833d e57f 8a3d
00000370: e56d e9bd 19f5 c4bc 4ec1 24bd 2360 34bc
00000380: aed3 373d 841c 1abd e51a 8c3d 4094 983a
00000390: 1ebe c7bd 142e dabc 1dff 40bd 5cb2 1fbd
000003a0: 987b 283b d3a3 9bbd 883b 5abc 46f4 7a3d
000003b0: 117d bcbc 4af5 86bd 01ff 863d b8eb 52bc
000003c0: 4eb0 703d 56e1 16bd 2338 9e3d 4582 01be
000003d0: 350e aebd b393 79bc 2a9e 563d 3c67 a63b
000003e0: 0c48 983d 7fa6 9c3d a120 97bd 9a21 203d
000003f0: 7554 09bd 0f32 2ebd 8f50 86bd c1d1 58bd

bias f4 [8]
-0.15187043 -0.03512778 -0.21626723 -0.06241821 -0.13918146 0.009281917 -0.18356106 0.048994724
00000000: ec83 1bbe 26e2 0fbd 2875 5dbe 3daa 7fbd
00000010: 9685 0ebe 2e13 183c 6ef7 3bbe b1ae 483d
