model-doom.pth (torch, 110383 bytes, 8 tensors)

weight f4 [8, 1, 6, 6]
000000 b5 97 ca bc a0 de 08 3e 89 ca f5 bd e5 85 1a 3e
       -0.024730543 0.13366175 -0.12001521 0.15090139
000010 34 7c f5 bd 64 aa 12 be ad 96 e7 bd 27 88 0d 3e
       -0.119865805 -0.14322811 -0.11308036 0.13821469
000020 01 5d bd 3d 3f 07 f3 bc 10 36 ab bc 17 9c cf bd
       0.09246255 -0.029666541 -0.020899802 -0.10137194
000030 2d 5b 89 bd 88 cf 1e 3e 48 b2 21 3e 89 e3 47 bd
       -0.067068435 0.15508854 0.15790665 -0.04880098
000040 da 02 f9 3d d5 bf 15 3e 7a 73 88 bd 4f 87 19 be
       0.12158747 0.1462396 -0.066626504 -0.14993022
000050 e5 54 20 3e 77 8e 4a 3d ac 35 cb 3d d5 32 3a bd
       0.15657385 0.04945227 0.099223465 -0.045458633
000060 9f 45 d3 3d 68 27 86 bd 12 b7 3e bd 04 d4 19 bd
       0.103160135 -0.06550485 -0.04656131 -0.03755571
000070 a2 33 38 3e 7b b4 64 3c cc d0 0f 3e 32 60 e5 bd
       0.17988446 0.0139590455 0.14044493 -0.111999884
000080 c5 a8 ee 3d 25 f4 58 bd cf 33 32 3e 99 74 87 3c
       0.11653284 -0.05296721 0.17402576 0.01653509
000090 27 26 a7 3d 84 9f 96 bd 10 51 1e 3e a7 97 5d bd
       0.08161574 -0.07354644 0.1546061 -0.054099705
0000a0 58 23 14 3e f9 53 a9 bd 4f 58 b2 3c 92 77 0e be
       0.14466608 -0.0826797 0.021770624 -0.139128
0000b0 67 79 58 3d 98 e3 f6 bd 86 36 bd 3d b6 ca 23 3d
       0.052850153 -0.12055129 0.09238915 0.039988242
0000c0 7c d9 00 be e1 c9 5f bc d4 e9 a6 3d ac 87 28 be
       -0.12582964 -0.0136589715 0.08150068 -0.16458005
0000d0 6a a8 e4 bd 8a f2 c1 3d a5 78 c3 3d a5 17 19 be
       -0.11164935 0.09470089 0.095444955 -0.14950426
0000e0 2a fa 29 3d 43 a4 7f bd cf c4 6a 3d c3 50 01 3e
       0.04149834 -0.06241251 0.057316598 0.12628464
0000f0 15 55 77 3d af a7 f1 3d 89 6c c0 bc be 81 ee bd
       0.060383875 0.11799561 -0.023489254 -0.1164584
000100 38 14 17 3e 7e fa be 3d 57 cf f4 3b ab 36 ec bd
       0.14753807 0.09325121 0.007471006 -0.115338646
000110 cb 31 c0 bd 6b 41 90 bd 56 cd 07 3d d1 80 a9 3d
       -0.09384497 -0.070437275 0.033154808 0.08276523
000120 bf 15 7e b9 d7 ae e4 bc 8b 50 75 3d 58 f2 a2 bd
       -0.00024231429 -0.027915401 0.059891265 -0.0795638
000130 cb a9 00 3e 6d 82 a7 3b 1a df 01 be 2e 20 9e bd
       0.12564771 0.0051119835 -0.12682763 -0.077209815
000140 45 6c 69 bc ef 84 ad bd 78 1d 17 be e0 c8 9a bd
       -0.014247005 -0.08472621 -0.14757335 -0.07557845
000150 a8 3e ce 3d 4d 7b 72 bd fc 65 f8 bd 86 02 0e 3e
       0.100705445 -0.05919962 -0.12128827 0.1386815
000160 f0 08 19 3e 03 8a 1c bd 0e a4 ca bd e1 ee f7 bd
       0.14944816 -0.038217556 -0.09894572 -0.121061094
000170 21 4d 0e 3e 46 9f fa 3d ed b7 23 be 8e b9 e2 3d
       0.1389661 0.1223741 -0.15988131 0.11070548
000180 51 e8 f1 3d a5 31 be 3d c8 8b e6 bc cb 5c 29 be
       0.11811889 0.09286813 -0.028142825 -0.16539304
000190 33 78 d6 3d f9 08 47 3c ec 24 9f bd 07 f4 ce 3a
       0.10472145 0.012148135 -0.07770714 0.0015789279
0001a0 df ab 41 bd 2c 01 e5 3d 1f ac d3 bd 2e 67 24 be
       -0.04728305 0.11181864 -0.10335564 -0.16054985
0001b0 eb 28 d4 bd 80 2d 6f bc 90 a8 80 3d 00 4a 3a 3d
       -0.10359367 -0.01459825 0.06282151 0.04548073
0001c0 9a b4 c3 3d 68 a5 df bc b0 41 8c bd 9e 44 ee 3d
       0.095559314 -0.027300552 -0.068484664 0.116341814
0001d0 c8 f9 b9 3c 90 9a 65 bd b3 36 1c be d8 fd b1 bd
       0.022702113 -0.056055605 -0.15255241 -0.08690995
0001e0 80 4c f0 ba 6a 28 bf 3d d0 73 55 bd 9e ec a1 3d
       -0.0018333346 0.0933388 -0.0521124 0.07906459
0001f0 a7 5e 27 be 76 4f a4 3d 73 45 f6 bd db 74 f3 bd
       -0.16344701 0.080229685 -0.12024965 -0.11887523
000200 ea 4b fe 3d 38 b9 9f bd bb fa be bd 50 93 98 bd
       0.12416823 -0.077989995 -0.09325167 -0.07449973
000210 f1 d7 1c 3e 18 aa c7 bc c0 f8 60 3c 68 85 97 bd
       0.1531675 -0.0243731 0.013731182 -0.07398492
000220 9b dd c9 bd 66 38 85 bd 1a 94 95 3d 63 5b 16 be
       -0.09856721 -0.06504898 0.07303639 -0.14683299
000230 c0 8c 6e 3b 99 2f 1f 3e 44 0e 22 be b6 a1 24 be
       0.0036399812 0.15545501 -0.15825754 -0.16077313
000240 42 62 a4 3d ca 52 f1 3d 25 59 1f 3e 67 ed 31 bd
       0.08026554 0.11783369 0.1556135 -0.043439295
000250 99 90 5a bd da 4b b9 3d f0 d3 41 bd 70 e8 f0 3d
       -0.053360555 0.09047671 -0.04732126 0.11763084
000260 ce ce 02 be db f2 e3 bd 27 3a c8 bd b9 86 be bc
       -0.12774202 -0.111303054 -0.09776717 -0.0232576
000270 0a aa 81 3b 3b 74 d1 bd b7 0b 04 3e 28 b1 98 bc
       0.003957038 -0.10227247 0.12895094 -0.018639162
000280 ff 8e 6a bd b6 48 48 3d e6 4b 99 bd 6e 5e d1 bd
       -0.057265278 0.048897468 -0.074851796 -0.10223089
000290 1b be 03 3e 42 2c 22 be 74 68 27 be ff d5 0e be
       0.12865488 -0.15837196 -0.1634844 -0.1394882
0002a0 1e 19 e8 bd a6 dc 03 3e bb f5 0e 3d b0 67 6b bd
       -0.11332916 0.1287714 0.034902316 -0.05747193
0002b0 65 61 ad 3d f5 ee a6 3d 2c d9 16 3e 6f 00 ec 3d
       0.08465842 0.08151046 0.14731282 0.1152352
0002c0 e7 8c b0 3d cf e3 14 3e 25 b7 f5 bd 9d 95 25 3e
       0.08620625 0.14540027 -0.11997823 0.16170354
0002d0 fa c9 93 3d 9d 1c ba 3d 5a 05 99 3d 0c e2 26 3e
       0.07216258 0.09087489 0.07471724 0.16297168
0002e0 f0 31 14 3e 38 f6 e5 bc 10 e3 1e 3c b7 7f c3 3c
       0.14472175 -0.028071508 0.009697691 0.02386461
0002f0 90 69 93 bd 32 51 97 bc 2a 63 3b 3d 3c 1c a9 3d
       -0.07197869 -0.018471334 0.045748867 0.082573384
000300 5d 81 1a be f6 2a 82 bd c3 00 f1 3d ea f5 15 be
       -0.1508841 -0.063558504 0.117677234 -0.1464459
000310 91 ac ed 3c 5e 8a 01 be b4 c1 cb bd c2 7b 0f 3e
       0.02901295 -0.12650439 -0.09949055 0.14012054
000320 b0 fc 02 be ae 86 e7 3d 17 11 e3 3d 54 83 a6 3d
       -0.12791705 0.11304985 0.11087244 0.081305176
000330 e6 da 1d be c4 b5 9a bd 29 f5 f1 3d f4 7c ad 3c
       -0.15415534 -0.075542 0.11814339 0.021177746
000340 c4 c6 c0 3d a9 b0 1e be 00 35 bc bd 18 c6 03 3d
       0.094129115 -0.15497078 -0.091897964 0.03217134
000350 5d c7 db bc 18 92 2c bd 01 5f 1b 3e a1 51 d2 bd
       -0.026828462 -0.042131513 0.1517296 -0.10269476
000360 83 a8 b7 3d d0 de ee bd 29 8f d2 3d 84 a0 bd 3d
       0.08967688 -0.11663592 0.10281212 0.092591316
000370 2a f4 2a be 41 d6 03 3e 49 c2 52 bd 3e ee f9 3d
       -0.16694704 0.128747 -0.051454816 0.12203644
000380 4a ef ba bc 2e 81 7b 3d 51 f3 f5 bc bf fc 94 bd
       -0.02281918 0.061402492 -0.030023249 -0.0727477
000390 ea 03 17 be 1b ce 1b be f7 d5 60 bd a7 88 90 3d
       -0.14747587 -0.15215342 -0.054891553 0.07057314
0003a0 e6 41 ca bc b9 76 e8 bb 19 ba e3 bd 3c 47 ae 3a
       -0.024689626 -0.007094231 -0.1111948 0.0013296376
0003b0 83 44 cc bd 40 fd f5 bd 31 60 2d bd c0 aa c1 bd
       -0.09974005 -0.12011194 -0.042328063 -0.09456396
0003c0 14 8c 74 b8 6f 98 e3 3c a8 11 a6 3d 6d 3a 1a be
       -5.830459e-05 0.027782647 0.081088364 -0.1506135
0003d0 c4 16 cd 3d 0d c1 8a bd 67 2d 20 be 56 d5 df 3d
       0.10014108 -0.06775103 -0.1564232 0.109293625
0003e0 d6 bc 1c bd 60 1a de 3d ab b5 f0 3d 76 bf ba 3d
       -0.038266025 0.108448744 0.117534004 0.091185495
0003f0 91 2a 11 3e b1 46 f1 3c 7c 2c b8 bd d6 09 bc bd
       0.14176394 0.029452654 -0.0899286 -0.091815636

bias f4 [8]
000000 f7 b8 0d 3e d0 6b e8 bd ef c9 0b 3e 0b 69 db bd
       0.1384009 -0.113486886 0.1365125 -0.10713395
000010 c9 89 0a bd 39 21 a4 bb 85 14 9b 3d f3 ca 19 3e
       -0.03382281 -0.0050088433 0.07572273 0.15018825

weight f4 [8, 8, 3, 3]
000000 39 eb e9 3d c3 3c 5c 3b d0 e6 ae 3d 18 d5 5b 3d
       0.11421818 0.0033605553 0.08540118 0.05367002
000010 6d 06 60 3d a0 e4 81 3d 63 2c 56 bc 9a 78 10 3e
       0.054693628 0.06342435 -0.013072106 0.14108506
000020 80 8a 0c 3e 22 2b b0 bd 7c 2e 37 3d ed 0a de 3d
       0.13724709 -0.08601977 0.044722065 0.10841928
000030 db 58 0b bd c0 50 99 3c 85 4a 8c 3d 38 71 13 bd
       -0.034020286 0.018715262 0.06850151 -0.035996646
000040 13 c5 57 bd 37 f6 cc bd cc dc 85 3c ab 24 37 bd
       -0.05267818 -0.10007899 0.016340636 -0.044712704
000050 29 6e c4 3d 24 b2 40 3c e3 7d e6 bd 55 b4 f3 3d
       0.09591324 0.011761222 -0.1125448 0.1189963
000060 d4 c6 1d bd a2 9d 9d ba a3 de 8c 3d a8 42 6c 3c
       -0.038519695 -0.0012025128 0.06878402 0.014420189
000070 41 fd d1 bd d6 45 02 bd a5 fd 97 3d ab 94 bd 3d
       -0.102533825 -0.031804882 0.07421426 0.09256872
000080 dc 0c b7 3c a5 84 9d 3d b4 b8 eb bc 94 79 e4 3c
       0.022344999 0.076913156 -0.028774597 0.027890004
000090 3c f1 ea bc 22 0a af 3d bb 62 1f bd af 8f 4d 3d
       -0.028679483 0.085468546 -0.038912516 0.050185855
0000a0 22 0b 9d 3b 59 d7 99 bd e0 62 4d 3c fd 0f 33 bc
       0.004792587 -0.075117774 0.012535781 -0.010929105
0000b0 83 fb 10 3d 6e d3 f6 3d cc 51 c9 bd a7 17 bf bc
       0.03539611 0.12052046 -0.09830055 -0.023326708
0000c0 66 52 96 bd f4 44 3e 3d 0d 97 60 3d b0 bb 96 3d
       -0.07339935 0.046452478 0.054831553 0.07360017
0000d0 31 c5 cf bd 45 b6 98 3d e9 0e 1e 3b 4a 0a 58 3d
       -0.10145033 0.0745664 0.0024117774 0.052744187
0000e0 59 bf d2 bd db ec 78 3d 73 10 21 bd e4 11 ba 3d
       -0.10290403 0.060772758 -0.039322328 0.090854436
0000f0 07 0c ea 3c af 95 82 bd f9 f5 d8 bd ea 5e 09 bd
       0.028570188 -0.06376206 -0.105937906 -0.033537783
000100 f4 8d c3 3d f9 2e 3d 3d 24 39 46 3d a4 44 02 3d
       0.0954856 0.046187375 0.048394337 0.031803742
000110 96 dd 00 3e 22 03 7e 3d 8a 78 bc 3d 7b 38 af 3d
       0.12584528 0.062014706 0.092026785 0.08555695
000120 8a f6 33 3d 30 f5 f8 bb 1f ec cc bd 6c d8 cc bd
       0.04393629 -0.007597588 -0.10005974 -0.10002217
000130 a0 e0 b6 bb 9a e4 bb bd 0c f1 ee 3c 44 0d b3 3c
       -0.0055809766 -0.09174462 0.029167674 0.021856911
000140 58 a9 54 bc 10 26 93 3b be e5 61 bd 97 ec 8a 3d
       -0.012979828 0.0044906214 -0.05515074 0.06783407
000150 62 b5 ca bd 34 54 21 bd 3e 98 14 bd db b7 ae bd
       -0.09897877 -0.039386943 -0.036278002 -0.085311614
000160 bc a8 89 bd 4b b8 b6 bd a9 2a a9 3d d6 e2 43 bd
       -0.06721637 -0.0892187 0.0826009 -0.04782375
000170 84 e9 a7 3c dc cb aa 3c 40 e5 9a ba 8f d8 a3 3d
       0.020497091 0.02084916 -0.0011817589 0.0800029
000180 1d 06 b1 3d 49 c1 a4 3d 68 05 3b 3c d9 cd c1 3d
       0.08643744 0.08044679 0.011414863 0.094630904
000190 f5 d6 86 bd 28 e7 6b 3c 78 91 59 3c a6 63 11 3d
       -0.065839685 0.014398374 0.013279311 0.035495423
0001a0 b8 38 ad bd 7c 05 4c bd d8 31 4c bd 38 62 b7 bd
       -0.08458084 -0.049809918 -0.049852222 -0.089542806
0001b0 6f 02 9e 3d 40 7b 0d bb ec d6 8d bd 5a b2 0c bd
       0.07715308 -0.0021588355 -0.06925759 -0.034349777
0001c0 2c 3d f3 bc ae 3d 43 bd fa 9b 44 bd 00 0b 6d bb
       -0.029692255 -0.047666244 -0.048000313 -0.0036169887
0001d0 6d f4 80 3d 64 43 e6 3c 8a 32 4b 3d 48 e4 8b bc
       0.062966205 0.028108306 0.049608745 -0.017076626
0001e0 3e d4 19 3d d0 9d fc bc 46 6e 12 3d 58 65 70 bc
       0.037555926 -0.03083697 0.035749696 -0.0146726
0001f0 54 99 fc 3c b0 e4 5e bd 74 48 dd bd 20 71 da bc
       0.030834831 -0.054417312 -0.10804835 -0.02666527
000200 ca b0 71 3d c0 24 9f 3a fb 08 84 3d 10 80 4a bd
       0.05900649 0.001214169 0.064470254 -0.049438536
000210 22 b1 7d 3d 1a 2f 1c bd 21 67 78 bd b6 a5 0a 3d
       0.061936505 -0.038130857 -0.060645226 0.03384944
000220 68 3a 9e bd 96 bd 79 3d a6 ae 3a 3d 8d 02 d8 bd
       -0.07725984 0.06097182 0.045576714 -0.105473615
000230 d8 99 cc bd 5b 3b 90 3d b7 77 b7 3d 00 47 4f 3b
       -0.09990281 0.07042571 0.08958381 0.0031628013
000240 70 75 1e bd 79 c4 cd bd 95 15 e1 bd 1d b6 55 bd
       -0.038686216 -0.1004724 -0.109904446 -0.05217563
000250 7e 4b e6 bd ae a1 61 3c 96 c2 d8 3d d9 17 e0 bd
       -0.11244868 0.013771458 0.10583989 -0.109420486
000260 42 ef 22 bd 32 62 4e 3d ac c1 89 bd 7c 9f 20 bd
       -0.039778955 0.050386615 -0.06726393 -0.039214596
000270 a6 9f 16 3d e2 59 77 3d 82 ca 18 bd 6a a1 33 3d
       0.036773346 0.060388453 -0.0373025 0.04385511
000280 07 01 c3 3d 3e da ad bd 29 21 d6 bd 81 35 4c 3d
       0.0952168 -0.08488892 -0.104555435 0.049855713
000290 83 c1 d8 bd f0 9d 89 bd cd 3b 9c bb 32 59 4b bc
       -0.105837844 -0.06719577 -0.004767871 -0.012411403
0002a0 5c b7 bb bd cd a5 9a bd 62 de 93 bd 1c 48 b2 bd
       -0.091658324 -0.07551155 -0.072201505 -0.0870516
0002b0 97 6d a7 3d b7 50 ea bd 36 ae dd bd e8 c6 7f bc
       0.081751995 -0.114411764 -0.10824244 -0.015611388
0002c0 c1 9b aa bd 35 75 96 3d cc 40 f9 3c 28 5c 43 3c
       -0.08330489 0.07346574 0.030426405 0.011923827
0002d0 51 9d ec 3d 40 63 8d bd a6 1b d3 3c cc 79 9c 3d
       0.11553443 -0.06903696 0.02577002 0.076404184
0002e0 65 84 b7 3d 26 b0 b4 3d 94 4e c2 bd a6 1e 0b bd
       0.08960799 0.0882266 -0.09487644 -0.033964776
0002f0 df ac 91 3d 05 0d cd 3d 32 57 e0 bb 3e d6 2d bd
       0.07113051 0.10012249 -0.006846332 -0.042440645
000300 2a b8 a3 3d 89 29 b9 3d a9 60 4d bd 97 aa 3e 3d
       0.07994111 0.09041125 -0.05014101 0.046549406
000310 51 ba d8 bd 40 c9 de 3d 7b 8a ee 3d 9c 3e 29 bd
       -0.10582412 0.10878229 0.11647507 -0.041319475
000320 22 94 b1 3d e6 9f da bd 76 c1 10 3d 00 18 f3 38
       0.08670832 -0.106750295 0.03534075 0.00011591613
000330 10 8c 3c bc a9 1e e0 3d a6 d8 62 3d 1f b1 94 bd
       -0.011508003 0.10943348 0.055382393 -0.07260346
000340 17 42 a9 bd c8 8a 7c bd 97 dd 69 bd 6a 03 42 bd
       -0.08264559 -0.06165579 -0.05709609 -0.047366537
000350 5e 84 d1 3d da d6 75 bd fe 15 b8 3d 69 84 e2 bd
       0.10230325 -0.06001935 0.0898857 -0.110604115
000360 20 ad 9b 3b 68 e3 e8 bc 51 06 a6 3d fc a1 ea bc
       0.0047508627 -0.028428748 0.081066735 -0.028641693
000370 00 0e 6e 3a c0 5d 59 bd 7b e8 85 3d 90 45 73 bd
       0.00090810657 -0.053067923 0.06538483 -0.05939251
000380 2c b7 80 3c ca 50 cf bd 2e e1 62 3d 0e e7 06 3d
       0.015712343 -0.10122831 0.05539053 0.032935195
000390 54 fe 9a 3c 18 76 80 bc 6c 96 a1 3c 74 81 53 bd
       0.018920101 -0.015681311 0.019725047 -0.051637128
0003a0 1e 69 ba bd 24 87 f6 3c 30 8a 33 bc 47 7b d1 3d
       -0.09102081 0.030093737 -0.010958239 0.102285914
0003b0 00 ee e0 bc 22 95 0e bd 50 36 b1 3b 78 1d 69 3c
       -0.027457237 -0.034810193 0.005408086 0.014228217
0003c0 bd cd d8 3d 92 3e ab bd c8 02 28 3c 1f 7e d4 3d
       0.105861165 -0.08361544 0.010254569 0.10375618
0003d0 a8 d3 7c bc 1c 4d d4 3c dc 8c db bc 01 ec 9d 3d
       -0.015431322 0.025915675 -0.026800565 0.0771103
0003e0 17 2c 97 3d 9b 51 ea 3d f6 79 1c 3d 03 18 65 bd
       0.07381456 0.11441346 0.03820225 -0.055931102
0003f0 4f 4e 8d 3d f0 59 60 bc 37 1e 9b 3d b4 ca 4a bd
       0.06899702 -0.013693318 0.075741224 -0.04950972

bias f4 [8]
000000 e6 9c 5d 3e a4 91 ca bd 81 4b ce 3d 2c 1f ed bd
       0.21641883 -0.0989106 0.10072995 -0.11578211
000010 8a 40 19 3e 9b d2 d1 3c f1 bf ce 3d f7 88 91 3b
       0.14966026 0.02561312 0.10095204 0.0044413763

weight f4 [128, 192]
000000 9a 5c 04 3d 0a 39 3b bd a5 b7 9b bc 4b 61 17 3c
       0.032314874 -0.045708694 -0.019008467 0.009239505
000010 fa 93 35 bd 91 a5 28 3d ff 37 e4 3c 5a 47 f9 bc
       -0.044330575 0.04117352 0.027858732 -0.03042953
000020 fb a8 93 3c fc a6 79 3c 86 af 4a 3d b0 89 8a 3d
       0.018024912 0.015237566 0.0494838 0.06764543
000030 59 57 c0 3c f3 c6 d4 3c a5 24 41 bd 20 51 5a bd
       0.02347915 0.025973773 -0.047154088 -0.053300023
000040 fb 54 03 3d 51 f5 74 3d 39 5f 50 bd ca 50 9d 3c
       0.032063466 0.059804264 -0.05087206 0.019203562
000050 5b 0f 01 bd 56 29 ee 3c a0 e6 57 bd 7a 2c ff bc
       -0.031508785 0.029072445 -0.052710176 -0.031149138
000060 dd 2b 88 bd 06 28 4b 3d b6 e0 91 bc 4e 1d 54 bd
       -0.06648991 0.049598716 -0.017807346 -0.05178576
000070 44 6d d1 bc c5 e5 82 bd e2 53 5f bd 18 7d 2f 3c
       -0.025564797 -0.06391481 -0.054523356 0.010710977
000080 40 3b 73 3d 90 e2 f1 3c 0c a0 ef 3c a2 da 16 3d
       0.059382677 0.029526979 0.029251121 0.0368296
000090 d2 9f 53 3d 0a d0 c7 bc cc 16 78 3d 6c b6 57 bd
       0.05166609 -0.024391193 0.060568616 -0.052664205
0000a0 85 0d 78 bd a0 48 36 bc 98 b7 e0 3c f8 ae 50 bd
       -0.06055977 -0.011125714 0.027431294 -0.050948113
0000b0 ef 75 32 bd bc 3f 0e bd b8 f0 89 3c 1c 49 1d bd
       -0.0435695 -0.03472875 0.016838416 -0.0383998
0000c0 6f 8b 5b bd e4 3e a7 3c 82 fa a2 bc 08 ed 27 3d
       -0.05359977 0.02041573 -0.019894842 0.040997535
0000d0 3c 37 82 3c 80 f2 f3 3c 05 52 70 bd a8 cc 55 bc
       0.015895478 0.029778719 -0.05867197 -0.013049282
0000e0 90 97 70 3d 84 af d0 bc 90 c5 53 3c 82 a1 41 3d
       0.05873829 -0.025474317 0.012925521 0.047273166
0000f0 ba 7f 24 3d 02 73 a4 bc 71 4e 10 bd ff f0 3a bd
       0.040160872 -0.020074371 -0.035231058 -0.045639988
000100 48 88 2e bd cf df 90 bd ae 38 47 3d 0a eb 42 bd
       -0.042610437 -0.07073938 0.04863804 -0.047587432
000110 90 ad 0f 3d d2 19 95 bc bc 24 61 3d 58 28 99 3c
       0.03507763 -0.018200789 0.054966673 0.018695995
000120 bf 94 22 bd b8 53 3b bc 2e 6f 85 bc 98 ee 38 bd
       -0.039692637 -0.011433534 -0.016288366 -0.045149416
000130 8e 2d 25 3d e9 82 52 bd a4 78 86 bd 54 2b 0a bd
       0.040326647 -0.051394377 -0.06565979 -0.033732727
000140 cc b6 04 3d 66 a2 91 bd b8 7e ae 3c 7f 0a 8b bd
       0.03240089 -0.07111053 0.021300659 -0.06789111
000150 e0 6b 5b 3b 1c 83 2a bc 10 57 93 bb 90 cd b6 bb
       0.0033481047 -0.0104072355 -0.0044964626 -0.005578704
000160 f0 46 c3 3b b2 6c 4d bd c3 57 92 bd fc 97 49 3d
       0.005959384 -0.050152488 -0.071456455 0.04921721
000170 a1 08 2c bd a0 9c 49 3b 0c a0 5d bd 41 f6 8d bd
       -0.042000417 0.0030763522 -0.05410771 -0.06931735
000180 14 ee 53 3d 9b 6c 16 bd 25 51 3f 3d dd 48 7f 3c
       0.05174072 -0.036724668 0.046708245 0.015581337
000190 27 31 92 bd 02 44 f8 bc b0 49 88 3d ff 87 87 3d
       -0.07138281 -0.030305866 0.0665468 0.06617736
0001a0 87 c2 0a 3d 1e 8a 42 3c e8 55 76 bd 2d 85 4a 3d
       0.033876922 0.01187375 -0.06014052 0.049443413
0001b0 ce 99 e9 3c e1 5e 6f bd d2 21 ce 3c 63 25 82 bd
       0.028515723 -0.058440093 0.025162611 -0.06354787
0001c0 13 02 2d bc 25 a9 45 bd 8a 8c d8 bc 71 41 32 3d
       -0.010559577 -0.048257012 -0.026434202 0.04351944
0001d0 ee 40 24 bd 0e ca 7b bd ee 5e 4d bd 8d 8f 23 3c
       -0.040100984 -0.06147199 -0.05013936 0.009982956
0001e0 c3 7a 19 bd 65 2f 89 bd 4e 77 7c 3c 8a ea 41 3c
       -0.03747059 -0.06698493 0.015409304 0.011835704
0001f0 6b 29 93 3d 80 6b 8b 3d 14 1a 26 3d e7 1e 5a bd
       0.07185634 0.068076134 0.040552214 -0.053252127
000200 a6 e1 0e 3d 2e 58 c8 bc 78 aa 1d 3c 88 9e 45 3d
       0.034883164 -0.02445611 0.009623162 0.04824689
000210 a8 b5 20 bd 00 8b 3a bd a6 9d 80 3d a0 67 27 bd
       -0.03923574 -0.045542717 0.06280069 -0.04087031
000220 10 e6 48 3d 4b ba 92 3d 73 62 90 bd 60 92 06 bb
       0.04904753 0.07164439 -0.07050028 -0.0020534024
000230 b0 e6 51 bc 7d 96 12 3d 61 0c 85 3d ba 9d 06 bd
       -0.012811348 0.035788048 0.06496502 -0.032865264
000240 9b bd 31 bd ac e2 80 bc 7a b3 02 3b 72 f4 56 3d
       -0.043393712 -0.015733086 0.0019943402 0.052479215
000250 2f 79 bb 3c d9 eb 25 3a c3 b4 87 bd 62 12 90 3d
       0.022884933 0.00063293945 -0.066262744 0.07034756
000260 db 4a 83 bd 0f 83 3f ba 02 68 86 3c 39 b6 05 bd
       -0.06410762 -0.0007305601 0.016407017 -0.032644484
000270 d2 b1 22 bb df 35 1a 3d ff 79 e3 bc 73 e7 15 bd
       -0.0024825227 0.03764903 -0.027768133 -0.03659768
000280 82 d1 6f 3d ae 52 3d bd 80 c7 23 bd 6c 6b 01 bd
       0.05854941 -0.046221428 -0.03998518 -0.031596586
000290 32 3e 84 3c 86 56 66 3c 40 91 7a 3d da dc 98 3c
       0.016142938 0.014058715 0.061173677 0.018659998
0002a0 20 ac ee 3c 64 00 27 bc ea ae 87 3d 10 b0 e5 3b
       0.02913481 -0.010192964 0.06625159 0.0070095137
0002b0 e4 bc 5f 3d a7 80 34 bd 28 60 95 3c 7c 4e d6 3c
       0.0546235 -0.044068005 0.018234327 0.026160471
0002c0 68 49 79 3c 60 26 59 3b 90 3e d4 bc 16 e7 86 bc
       0.015215255 0.0033134446 -0.025908738 -0.016467612
0002d0 d0 dd bd bb 74 11 42 3d b2 dc 00 3d 1c 0e 75 3d
       -0.0057942644 0.047379926 0.03146047 0.05982791
0002e0 00 5e 26 b9 60 79 69 bb 3c 35 71 bd 2c 49 87 bd
       -0.00015866011 -0.0035625324 -0.05888866 -0.06605753
0002f0 55 1e 4e bd 27 eb e6 3c df ae 8e bd 5c af ac 3c
       -0.050321896 0.028188301 -0.06966948 0.021079712
000300 ec 0b 71 3d 84 36 56 3d 8e e6 5a bd 8e 1b 5b bd
       0.05884926 0.052298084 -0.05344253 -0.053493075
000310 98 f6 4a 3d f8 73 4a bd a0 a1 5d bd 96 92 86 bd
       0.049551576 -0.049427003 -0.054109216 -0.06570928
000320 f9 1c 6d bd da 4c a8 bc 1e 65 15 3d 9c 01 11 3d
       -0.05788896 -0.020544458 0.036473386 0.035401925
000330 3a 8d 0f bd f2 b3 09 3d 10 94 83 bd 6b e2 88 bd
       -0.035046794 0.033618875 -0.06424725 -0.06683811
000340 62 b6 86 3d 05 9a 75 bd 5c fe 69 3d 57 3a 8c bd
       0.065777555 -0.059961338 0.05712734 -0.06847065
000350 a0 9f c1 bb 9a 12 e2 bc ac d5 b1 3c 48 e3 15 3c
       -0.0059089214 -0.02759676 0.021708332 0.009148426
000360 a0 50 63 3d 9c 38 6a bc 5e 58 89 3d 9c c6 88 3c
       0.055496812 -0.014295723 0.06706308 0.016696267
000370 66 8c 13 3d 64 f3 79 3d e8 c6 9d 3c 22 aa 11 3d
       0.036022566 0.06102313 0.019259885 0.035562642
000380 94 70 93 3d aa 8e 05 bd f0 75 d6 3c e6 4e 3a 3d
       0.07199207 -0.03260676 0.026179284 0.0454854
000390 6e f6 81 3d e6 73 e0 bc 10 8b c5 3b bc c0 67 3d
       0.06345831 -0.027399015 0.0060285404 0.05658029
0003a0 02 a7 00 bd 68 5f 91 bd 4f a0 8f bd d4 d3 ee 3c
       -0.03140927 -0.070982754 -0.07012998 0.029153742
0003b0 1a 36 22 3d c0 77 5a bb 90 74 92 3d 20 b1 65 3c
       0.039602377 -0.0033335537 0.07151139 0.014019281
0003c0 b8 6c 87 bd 74 3c bf 3c 60 e7 1c 3b 1e ec 2e bd
       -0.06612533 0.023344256 0.0023941621 -0.042705648
0003d0 80 ce 37 ba ba de 1a 3d 00 8b 2d 3d 14 0f 8d bc
       -0.0007011667 0.037810065 0.04236889 -0.017219104
0003e0 2b aa 93 bd a0 8c 8e 3c e6 73 89 3d 84 b4 27 3d
       -0.07210191 0.01740104 0.06711559 0.040943637
0003f0 80 2d fc 3a 14 ce c0 3c 14 0a f0 3c f0 1c 44 3c
       0.0019239634 0.023535766 0.02930168 0.01196979

bias f4 [128]
000000 91 06 8f 3d 3f 77 93 bd 02 ed 30 3d 26 c6 20 bd
       0.06983674 -0.07200479 0.04319478 -0.03925147
000010 7f ff 01 bc 40 ed 44 bd 8b 5d bb 3c b0 e0 6a bc
       -0.00793445 -0.04807782 0.022871753 -0.014335796
000020 45 e7 37 bd 74 a0 78 bd 32 05 6d 3d da fc 6f bd
       -0.04489829 -0.060699895 0.057866283 -0.058590747
000030 9b b6 f4 3c 58 bf 3b 3d 80 52 09 3b 29 ac 34 bc
       0.02987223 0.045836776 0.0020953715 -0.011027374
000040 65 9f 82 3d f6 0b 3b 3d bc eb 48 bc 8a 4e da 3d
       0.06378058 0.045665704 -0.012263235 0.106595114
000050 28 66 84 bc c0 e4 c4 bb 10 f6 85 3d 44 2e 58 3d
       -0.016161993 -0.0060087144 0.06541073 0.052778497
000060 f1 12 13 bd 74 06 c9 3c ab 1d c4 3c a2 80 36 bd
       -0.035906736 0.02453921 0.023939928 -0.044556268
000070 06 ab 98 bc bd ab 82 3d 7b 48 3a bc 89 6d 3e bd
       -0.018636238 0.06380413 -0.01136982 -0.04649118
000080 1a 35 96 3d 78 0a 4a bd dc a5 93 3d 36 cb 85 bc
       0.07334347 -0.04932639 0.072093695 -0.01633225
000090 57 14 93 bc a1 bc 01 3d 6c b2 5e 3d e0 ff 6c 3d
       -0.017954035 0.03167403 0.054369375 0.05786121
0000a0 1c 44 f6 3c 6b 26 70 bc b2 61 82 bd ea 0a c6 bc
       0.030061774 -0.014657597 -0.0636629 -0.024175126
0000b0 08 a4 57 bd f9 68 3b bd dd ff c4 3c 25 55 48 bd
       -0.052646667 -0.045754407 0.024047786 -0.048909325
0000c0 3d 3b 7b 3d d1 49 94 bc ff de 03 3d 39 ed 81 bc
       0.06133579 -0.018101605 0.032195088 -0.015860187
0000d0 b6 c6 28 3d 9b 32 cb 3c 86 ee 24 3d fb 4f 5a 3b
       0.04120513 0.024804404 0.040266536 0.0033311832
0000e0 5f 02 3b bd aa 38 01 bd f4 f3 55 bd 83 55 4e bd
       -0.045656558 -0.03154818 -0.052234605 -0.05037452
0000f0 23 28 2d bd 81 c2 20 bd 2a 68 bc bc 16 df 8d 3d
       -0.042274605 -0.039247993 -0.022998888 0.06927316
000100 20 bd 28 bc 7a f0 8e 3d 89 40 b2 3d 2b 44 13 bd
       -0.010298997 0.06979461 0.08703715 -0.035953682
000110 83 ff 30 bc e1 51 9f bc ab e6 21 bd 92 25 c3 3c
       -0.010803106 -0.019448223 -0.039526623 0.023821626
000120 c2 29 93 bd 24 28 2a 3d 21 a8 68 bd 29 f1 ae bb
       -0.07185699 0.041542187 -0.056800965 -0.005338807
000130 6f e3 dd bb c7 32 39 3d 48 25 c0 bc 40 4e 7c bd
       -0.006771497 0.04521444 -0.023455277 -0.061598063
000140 c7 65 13 3d 80 7b 65 bb 5a aa 64 3d d9 a6 27 bd
       0.035985734 -0.0035016239 0.055826522 -0.040930603
000150 0d ac 7b bd a6 bc 6e 3d 00 95 50 3c 08 da 0d 3c
       -0.061443377 0.058285378 0.012730837 0.00865794
000160 70 c9 d5 bc 30 9e 73 3d 33 52 74 3d 8d 2d f3 3c
       -0.02609703 0.05947703 0.059648704 0.029684806
000170 2a 05 e8 bc 46 fa 84 3d 6e 68 79 3c 0b d9 d0 3c
       -0.028322775 0.06493048 0.015222652 0.02549412
000180 ad fe 4e bd 10 da 1e bc 31 d3 ba 3d f1 67 19 bd
       -0.050535847 -0.009695545 0.09122313 -0.037452642
000190 58 6d 35 3c 56 09 00 bd b7 49 d3 3c 4d 74 81 3d
       0.011073433 -0.031258903 0.025791986 0.06321011
0001a0 44 1f 59 3d fa 49 83 3b 3c 4d 34 bc 17 d9 54 3d
       0.053008333 0.0040066214 -0.011004742 0.051964846
0001b0 b2 60 23 3d 37 be 71 3d a2 34 84 bc 56 8a 6e bd
       0.039887138 0.059019294 -0.016138379 -0.058237396
0001c0 ec 87 ed 3c 30 1f a7 bc 0e 45 18 3d 32 59 50 3d
       0.028995477 -0.020400614 0.03717523 0.050866313
0001d0 db 87 09 bd f7 04 48 bd 1f df cf bb b6 2d e1 bc
       -0.033576827 -0.04883286 -0.006343737 -0.027487617
0001e0 90 38 ea 3b 8e 71 31 bd 90 18 a9 3d 77 3b c3 3c
       0.007147856 -0.043321185 0.08256638 0.023832066
0001f0 f7 30 27 3c 74 30 3e bd 59 7b 83 3d 1d 2a 76 bd
       0.010204545 -0.046432927 0.06420011 -0.060098756

weight f4 [8, 128]
000000 4c 8c d0 3c 02 4f 1c 3d 02 df bf ba 0c ff b9 bd
       0.025457524 0.038161285 -0.0014638605 -0.090818495
000010 4c fa 4b 3d e8 29 81 bb 45 07 4d 3d 44 e4 ab bc
       0.04979925 -0.003941763 0.05005576 -0.020982869
000020 f2 cc 39 3d c4 9e 97 bc fb d7 99 3c 29 48 56 3b
       0.045361467 -0.018508323 0.018779745 0.003269682
000030 69 54 82 bc e0 d3 3d 3c 30 96 fa bc 81 b3 40 3d
       -0.01590939 0.0115861595 -0.030589193 0.04704619
000040 15 ac 56 3c 26 79 60 3d 1e 0d 52 bd 52 af cf bd
       0.013102551 0.054803036 -0.05128204 -0.101408616
000050 1a 73 b1 bd 3e 64 11 3d df 93 5b 3d 2e 5e 63 3c
       -0.08664532 0.03549599 0.053607818 0.013877435
000060 bd 46 17 bd a5 8f 4c 3d 30 1a 00 3d c4 30 df 3c
       -0.036932696 0.049941678 0.031274974 0.027244933
000070 d0 29 d2 3c a7 e3 8e 3d 60 16 1a bd e6 e9 26 3d
       0.025654703 0.06977015 -0.037618995 0.040750407
000080 db 6b 07 bc 5f 7a 9c 3d 6c 3f 8f bd f9 97 ae 3d
       -0.008265461 0.07640528 -0.06994519 0.0852508
000090 71 27 e5 3c 9b 0a 99 bd 35 ac 96 3d 00 9f d0 bc
       0.027972909 -0.07472726 0.07357065 -0.025466442
0000a0 40 64 d4 ba ba d7 24 bd 84 cc 91 bc f2 a1 4e 3d
       -0.0016204193 -0.040244795 -0.017797716 0.05044741
0000b0 75 e7 82 bd 77 ab 86 3d b6 27 24 3d a8 dc 8a 3d
       -0.06391803 0.06575673 0.040076934 0.06780368
0000c0 a0 ad 8c bd f8 09 0f bc 8b ff 93 bd 04 9b 21 bd
       -0.06869054 -0.008730404 -0.07226475 -0.039454475
0000d0 be 47 19 3d 95 5e 1d bd f0 ca b0 bc 28 f4 76 3d
       0.037421934 -0.03842028 -0.021581143 0.06029144
0000e0 c7 93 a7 3d 5b 11 2b bd ac ae 13 3d 78 bc 82 3c
       0.08182483 -0.0417646 0.036055252 0.01595901
0000f0 0c 5b b1 3c 3b 3d 8e bd 39 87 94 3d 4c d4 a0 bd
       0.02164986 -0.069452725 0.07252354 -0.078529924
000100 3e fd 5c 3d 85 7a c3 bd 7f f3 cc bd fa 16 95 bd
       0.053952448 -0.09544853 -0.10007381 -0.07279773
000110 a3 25 b1 bd 83 18 86 3d 90 86 41 3c 6c 63 24 ba
       -0.08649757 0.06547644 0.011811867 -0.00062709185
000120 52 77 53 3d 90 60 0d 3d db 47 91 bd e0 fd 4c 3d
       0.051627465 0.034515917 -0.070937835 0.0500468
000130 9e 5d 82 ba 61 8c 09 bd 16 b3 29 bd 58 c3 80 bd
       -0.0009946113 -0.03358114 -0.041430555 -0.06287259
000140 f4 f1 8b 3d 51 e9 8b 3d b8 5c 8e bb 54 c9 a1 bc
       0.06833258 0.06831611 -0.004344549 -0.019749321
000150 09 17 81 3c 38 f0 9e bd 5a 30 35 3d 00 1d 84 3b
       0.015758054 -0.07760662 0.044235565 0.0040317774
000160 68 51 01 bd a2 b4 18 bd 35 d9 ba 3c b4 8b 8c 3d
       -0.031571776 -0.03728164 0.02280865 0.06862584
000170 02 15 70 3d 5d 04 f1 3c f5 c5 a2 bd 0d 7e 89 3d
       0.058613785 0.029421026 -0.079479136 0.067134954
000180 95 33 aa 3d b6 c0 79 3d e4 3d de bd 95 a5 b3 3d
       0.0831062 0.0609748 -0.108516484 0.08771817
000190 76 bd a2 bd 1f 64 28 bd 84 f4 cc bd b1 93 24 bd
       -0.07946293 -0.041111108 -0.10007575 -0.040179912
0001a0 ab e7 d3 bd 5d 9f e0 bc 0a c1 54 3d 2a 37 d5 bd
       -0.103469215 -0.02741974 0.05194191 -0.10410912
0001b0 f3 5f 16 bd 3e 06 a7 3b 6d fd a4 bd e8 3d 63 3c
       -0.036712598 0.0050971797 -0.0805615 0.01386974
0001c0 a4 68 c9 3c 40 3f 6a 3c e5 c8 a9 3d 6d 06 75 bc
       0.02458603 0.014297307 0.08290271 -0.014955145
0001d0 80 5d 07 bb 24 ba 0c bd 61 a9 1f 3d 2c d8 0c bd
       -0.0020655096 -0.034357205 0.03897989 -0.034385845
0001e0 0e 01 03 3d c2 23 77 3d dc 16 cf bd b7 56 e5 3b
       0.031983428 0.060336836 -0.10111782 0.0069988626
0001f0 84 38 bf bd ce cd 94 bd c1 e6 35 b8 60 44 c3 bb
       -0.093369514 -0.07265817 -4.336867e-05 -0.0059590787
000200 ad b6 0d 3d 00 aa 8e 3a c7 92 0c 3d a0 f3 10 bd
       0.03459804 0.0010884404 0.034319665 -0.03538859
000210 f4 d6 fc bc e5 31 82 bc ff 9a 92 3d e8 13 31 bd
       -0.030864216 -0.015892932 0.071584694 -0.043231875
000220 76 ef 3e 3d 50 e2 99 bb 98 be 3d 3d c0 2a 7d bc
       0.046615086 -0.004696168 0.046324342 -0.015452087
000230 55 89 3a bd c0 55 bd 3a a2 39 05 3c 01 74 5d 3d
       -0.045541126 0.0014445111 0.0081314165 0.054065708
000240 df d1 81 3d 16 48 90 bd 21 7a 2f bd 8f e2 81 3d
       0.06338858 -0.07044999 -0.04284108 0.06342041
000250 40 b0 84 3a fd b6 a3 3d d1 df 9d bd a9 7d 35 bd
       0.0010123327 0.079938866 -0.07708705 -0.044309292
000260 78 9f f4 3c 48 08 41 3d 0e 18 3c bd 3b 37 37 bd
       0.029861197 0.04712704 -0.045921378 -0.044730406
000270 da b9 08 3d 56 37 de 3b ae 1c 55 3d e0 51 41 bc
       0.033380367 0.006781499 0.052029304 -0.011799306
000280 8f 0f 13 bb d2 41 16 bc 8b d9 89 bd 39 e2 9f 3d
       -0.0022439694 -0.009170966 -0.06730946 0.078068204
000290 27 62 67 3d 8e 40 47 bd 5b 1c 84 3d a5 a3 6d bd
       0.05649009 -0.04864555 0.06450721 -0.05801739
0002a0 c9 ec 04 bd 8b 25 41 bd 90 5f ec 3b 3d b6 a3 3d
       -0.03245238 -0.047154944 0.0072135404 0.079937436
0002b0 c0 17 a6 bd 5d f8 f1 bc 42 3c 7b bd 5c 62 90 3d
       -0.08109999 -0.029537374 -0.061336763 0.070500106
0002c0 47 2d 21 bc 18 89 76 3c 8e 5f 1b bd 7b 71 68 3d
       -0.009837455 0.015047334 -0.037932925 0.05674885
0002d0 1d 91 15 3d c2 9c 53 3d 1e 71 54 3d b4 ea 85 3d
       0.036515344 0.051663168 0.05186569 0.06538907
0002e0 a5 74 a3 bd 0d 61 88 3d 56 fd ab 3d dc e1 29 3d
       -0.079812326 0.06659136 0.08397929 0.041475162
0002f0 5c 5d 17 3d 22 47 5b bc 7c 51 dd bc aa b0 a5 3d
       0.03695427 -0.013383659 -0.027016394 0.080903366
000300 6c 11 d9 3c 90 ae 83 3d 5a 14 be bc f2 18 22 3d
       0.026497565 0.064297795 -0.023203064 0.03957457
000310 6f 88 9d 3d 10 ec 3b bd a2 27 64 3d 8e 02 86 3d
       0.07692038 -0.045879424 0.05570186 0.06543456
000320 de 95 c3 3c 28 d3 ba 3c d4 e2 a9 bd 58 bb 95 3d
       0.023875173 0.022805765 -0.08295217 0.073111236
000330 fa 93 aa bd b6 19 b4 bd 91 61 66 bd 20 85 02 3d
       -0.083290055 -0.087939665 -0.05624539 0.03186524
000340 6d a3 ad 3d 20 e4 d0 3c de 44 1d 3c 88 0f 88 bc
       0.084784366 0.025499403 0.009598939 -0.016608968
000350 27 ca 5c bd a3 86 83 3d 70 99 47 3c 5c d7 e2 3c
       -0.053903725 0.06422164 0.012182578 0.027690582
000360 5b 6d 9d 3c 38 a6 8d 3b f9 d8 8a 3d fd a4 55 3d
       0.019217184 0.0043227933 0.067796655 0.0521593
000370 00 80 1f ba 06 70 38 bd 94 7c 91 3d be b4 7a 3b
       -0.0006084442 -0.04502871 0.071038395 0.0038254703
000380 5b 60 7f 3d c8 ad 79 bd a5 a5 aa 3d 26 b9 2d 3d
       0.06234775 -0.060956746 0.083323754 0.0424129
000390 4b 4d 8e 3d b4 54 09 bd e4 cc 4c 3d bf c0 0b 3d
       0.06948336 -0.033528045 0.050000086 0.034119364
0003a0 5e b1 a2 bd c5 be 8c 3d 15 9d a8 3d 69 ef fa 3b
       -0.07943986 0.06872324 0.08233086 0.0076579344
0003b0 af 28 92 bd 15 3b 95 bc 09 19 8e bd a0 2e db bc
       -0.07136666 -0.01821665 -0.06938369 -0.026755631
0003c0 8c e0 fd 3c a0 77 41 bd 44 42 05 3d 8e a8 b4 3d
       0.030990861 -0.047233224 0.0325339 0.08821212
0003d0 94 09 99 bc ec 85 47 bd aa 27 8a bd dd 8f 95 3d
       -0.018681325 -0.048711702 -0.067458466 0.0730283
0003e0 90 81 8c bd bc 01 b3 bd 9d 4a 50 3c 3f 55 90 bc
       -0.068606496 -0.08740565 0.012713102 -0.017618774
0003f0 40 9b 21 bd 23 64 23 bd ee 1c 85 3c 1d 92 ae bd
       -0.0394547 -0.03989042 0.016249146 -0.08523963

bias f4 [8]
000000 7c 0f 78 be 4b b8 9f bb 80 04 80 be 78 11 c1 bc
       -0.24224657 -0.0048742644 -0.25003433 -0.0235679
000010 8d b3 22 be b1 78 c8 bd 69 80 74 be e7 23 a8 bd
       -0.15888806 -0.09788645 -0.2387711 -0.08209973
