model-doom.pth (torch, 110383 bytes, 8 tensors)

weight f4 [8, 1, 6, 6]
00000000: 741c d43d 0e16 0e3e 8b3d 0a3e fdb1 033e
00000010: bdcb ce3d 9738 063e 14e7 af3c ae19 ed3d
00000020: ce8a 06be e67d e2bd 0770 0d3d e8f7 13be
00000030: 4cd6 b3bd 9729 9a3d 3467 d3bc 5abd ae3d
00000040: a3ec 18be 9b64 803d c724 403c 952c f3bd
00000050: 0439 7bbd 648d 193d 5060 36bc 0ea9 d03b
00000060: 27bd a43d 83c9 1abe be90 79bd ab25 05be
00000070: 05ca 25be 88ed 1cbe 3f68 db3d a50e 10be
00000080: f67e a2bd 3da7 a3bc 5668 b23c 5da7 aa3d
00000090: ffc3 75bd a91e 103e d494 58bc cef7 babd
000000a0: c4d4 4dbd 46f9 91bd 4d1a 593d 12ab 9cbd
000000b0: ea69 213d 5dc7 ec3d 6859 073e 70f8 16be
000000c0: 7ee0 123d 8eb4 42bd e105 223e da49 bb3d
000000d0: 5fe8 aabb 2c67 003e cfd8 13be e3c4 e7bc
000000e0: a90d 70bd cf65 883d de32 053c 9b06 0bbd
000000f0: fa4c 12be cae5 a93d cb38 19be e58f 1e3e
00000100: 5ae3 c53d 7144 20be 67a8 dd3d 4196 8c3d
00000110: 0c1e c53b e5c3 9fbd ee33 d63d 26fc 2a3d
00000120: cc11 1c3d 18cb c8bc 28ea f5bc d04c 33bd
00000130: 2735 12be 8e70 9cbd 00ff bb3c 481a a8bd
00000140: 4234 8a3d 7e38 a53d 21e5 133e 948e 5d3d
00000150: ced9 80bd a8bc 9e3c b8e3 f8bd 50ae b0bd
00000160: fb46 053e 1e86 f83d 64f6 18be da84 803d
00000170: 168c fcbd f3d2 0e3e e0ff d13c 5a76 c53d
00000180: 0812 ab3c 9e35 c3bd ba41 09be 2e8a bfbd
00000190: 2be4 c8bd c0dc ad3c 84d1 0fbe 9e8c eebd
000001a0: f091 73bd 8f4f 253e 6e6c b4bd 68ce a4bd
000001b0: 12b0 2a3e 5c68 21be e10c bb3d cb23 7d3d
000001c0: dcd6 02bd e597 c4bd 67e2 693c de0b a6bd
000001d0: bb5c 01be 2688 14be e151 c4ba d3ea 783b
000001e0: 8f78 bc3d cf8d 853d a8e5 15bd 2015 dd3d
000001f0: a138 02bc 5d0a c73d 5a8a c2bd 3d2b 273e
00000200: 4907 32bd f7eb f3bd 02ae 04be 80d3 f33d
00000210: db89 143e 95c0 0a3e b2d4 72bc 90eb b93d
00000220: 9002 fc3d b979 e7bd cc99 4bbd 8eb2 243e
00000230: 3757 b5bd 7856 d9bd 129e 30bd 61e7 acbc
00000240: 2175 48bd b199 f63b d389 243e af68 053e
00000250: bf09 1e3e ecd1 303d c262 583d 4b00 35bd
00000260: 4560 e93d c26d 9f3c f1da f53d 0662 c3bd
00000270: 668b 203e c52e 3a3b b004 d43d 0295 2b3e
00000280: de88 b43c fe33 cfbd e547 2a3e b2db ea3d
00000290: 59fd a5bd 1dcc 00bd 9a50 cdbd cc4a 09bd
000002a0: aa69 02be 1002 2b3e fa47 16be 5bef a3bd
000002b0: 98be 173e 7ed9 77bd aed7 1cbe 19b9 1a3d
000002c0: 38d4 d73d cab0 75bd 8de9 0e3e 61d8 423c
000002d0: 1894 d03c be28 c3bd f0fc eabd 6c5a 393d
000002e0: 8dba 1a3e 784e 863d c878 bfbc ce6a 8a3d
000002f0: 2b40 bdbd d008 0cbe 562a f5bd 40c1 893c
00000300: 801a e0bb 7ba9 25be 5030 15bd 48a4 a0bc
00000310: bbd8 e3bd 6286 c43d 6015 36bd a0e0 b9bb
00000320: 6801 f0bd 2edb e1bd 8aca ea3d 00c8 59ba
00000330: b431 24be 2bb0 f1bd a9a2 013e c839 82bd
00000340: 0080 fd38 bba4 10be b09e 343c 865d 923d
00000350: 8256 d13d 16a8 e9bd 20a9 9b3b 7324 afbd
00000360: 0aae 9cbc 792d 943d 5954 e43d 8833 813d
00000370: b34d e7bd 5ee6 293e a4fe babd 84c0 17be
00000380: 4988 67bd 1b82 163e 2d83 17bd dbc3 093e
00000390: 25f6 233d e816 5f3d 8584 97bc 4580 17bd
000003a0: 97fb f6bd 4613 a5bc 2c00 a9bd a488 26be
000003b0: 4e6a 883d 402f 5b3d 6db7 b33d 3d63 06bb
000003c0: 6191 fabd 60bb b1bc 06e4 d13d 5923 51bd
000003d0: b2a4 e13d 1419 11be 0c78 78bd d190 173e
000003e0: f415 39bd 99b2 18bc 736a d13d cc54 bb3d
000003f0: 77d4 0cbb 2b5a ba3b 7b9f b2bd e199 0d3c
0.103569895 0.138756 0.1350004 0.12860866 0.10097454 0.13107525 0.021472491 0.11577164
-0.13138887 -0.110591695 0.034530666 -0.14450037 -0.08781108 0.07527464 -0.025806047 0.0853221
-0.1493402 0.06269189 0.011727518 -0.11873738 -0.06133367 0.037488356 -0.011131361 0.006367809
0.080438904 -0.15115933 -0.060929053 -0.1300265 -0.16190346 -0.15324986 0.10713243 -0.14068086
-0.07934372 -0.019977206 0.021778267 0.08332703 -0.06000137 0.14074196 -0.013219077 -0.09129296
-0.050251737 -0.07127623 0.053003598 -0.076498166 0.03940765 0.11561463 0.132177 -0.14743209
0.035858624 -0.04753547 0.15822555 0.091449454 -0.005215689 0.12539357 -0.14438175 -0.028292125
-0.058606777 0.066600434 0.008129803 -0.033941846 -0.14287177 0.08295782 -0.14963071 0.15484579
0.096625045 -0.15651108 0.10823136 0.06864596 0.0060155448 -0.07801036 0.104591236 0.041744374
0.03810291 -0.024510905 -0.030018881 -0.043774426 -0.14278089 -0.076386556 0.022948742 -0.08208138
0.06748249 0.08067416 0.14442874 0.05409105 -0.06291543 0.019377068 -0.12152809 -0.086269975
0.13015358 0.12134956 -0.1493774 0.062753394 -0.12331407 0.13947658 0.025634706 0.096417144
0.020882621 -0.09531711 -0.13403979 -0.093525276 -0.098091446 0.021223426 -0.14044768 -0.11647914
-0.05946535 0.1614363 -0.08809744 -0.08047181 0.16668728 -0.15762466 0.09133316 0.061801713
-0.031943187 -0.09599284 0.01427517 -0.08107732 -0.1263303 -0.14505062 -0.0014978015 0.0037981763
0.09202682 0.065211885 -0.03659597 0.10795045 -0.007948072 0.097187735 -0.09499045 0.16325088
-0.04346398 -0.11910241 -0.12957004 0.11905575 0.14505713 0.13550027 -0.014821218 0.09078133
0.12305176 -0.11302514 -0.04970722 0.16083738 -0.088545255 -0.10612196 -0.043119498 -0.021106424
-0.048939828 0.0075256457 0.16068201 0.13028215 0.15433405 0.043168947 0.052828558 -0.044189733
0.11395315 0.019461516 0.120046504 -0.09540181 0.15678176 0.0028409224 0.103524566 0.1675606
0.02203792 -0.101173386 0.16628988 0.11467685 -0.08104963 -0.031444658 -0.10025139 -0.033518597
-0.1273562 0.16700006 -0.14675894 -0.08004638 0.148188 -0.06051015 -0.1531665 0.03777418
0.105385244 -0.059983052 0.1395628 0.011892409 0.025461242 -0.09529255 -0.11474025 0.04525225
0.15110226 0.065579355 -0.023373023 0.067586526 -0.09240755 -0.13675237 -0.119709656 0.016815782
-0.0068390965 -0.16177933 -0.036423028 -0.019609585 -0.111253224 0.09595944 -0.04445398 -0.0056725293
-0.11719018 -0.11028133 0.114644125 -0.00083076954 -0.16034585 -0.118011795 0.12659706 -0.06358677
0.00012087822 -0.1412534 0.011024162 0.071467444 0.10221578 -0.11409013 0.004750386 -0.08551874
-0.019125957 0.07235236 0.111489005 0.06308657 -0.11294117 0.16591784 -0.091306 -0.14819533
-0.056526456 0.14698069 -0.036990333 0.13453619 0.040029664 0.054465204 -0.018495807 -0.03698756
-0.12059706 -0.020150792 -0.08251986 -0.16263062 0.06660901 0.053511858 0.0877522 -0.0020505928
-0.1223476 -0.021695793 0.1024857 -0.0510591 0.11017741 -0.14169723 -0.06066136 0.14801337
-0.04518695 -0.009319925 0.10225382 0.09147033 -0.0021488944 0.0056870184 -0.08721825 0.008642645

bias f4 [8]
00000000: dacb 343d 23a8 a5bd 6e1b d7bd 8814 193e
00000010: 7486 65bc b668 17be 1c88 07be ebb8 d6bd
0.04413972 -0.0808871 -0.10503279 0.14949238 -0.014009107 -0.14786038 -0.13235515 -0.10484489

weight f4 [8, 8, 3, 3]
00000000: 77b9 3cba 8d97 9abd 5f6f ae3d 8d85 473c
00000010: bc81 ffbc c536 64bd 2575 3ebd c01a fd3c
00000020: 278b b03c 9db5 b3bd f6a3 c0bc a21d f13d
00000030: 6749 55bc ce86 b6bd b65b 86bc feb5 aa3d
00000040: 7f97 c1bc 275b 64bd c07a debb 699f 75bd
00000050: 402b 6fbc 7011 ddbd c868 eabd 0d7a d73d
00000060: 7a24 86bd d565 943d ccae b3bc a998 5ebd
00000070: 66c4 3e3d 5fc8 28bd e076 e63d 61e4 d9bd
00000080: 94fa c8bd bb05 24bd ca33 f33d 9b45 273d
00000090: c33e 09bc 448b b5bd 70b6 06bc 2240 a43d
000000a0: dd40 1c3d 3d55 733d e074 e63d 4671 d23d
000000b0: ccfc 8b3d 953b 923d f0e1 a7bd 0d60 a83d
000000c0: d058 56bd a286 153d 1847 89bc 6ffa c6bd
000000d0: e1f9 ea3d 4d53 ab3d 1623 4fbd 88ee 93ba
000000e0: 29e7 6e3c d2d3 c33c 1132 223d da4a 18bd
000000f0: 65a0 c93d 9ea1 82bd b596 963d d97f 323d
00000100: 1115 45bd dd95 a8bd 30fc b33d aaf8 c6bd
00000110: ba71 b13a 74b2 b63d 62d0 ecbc b2b1 d4bd
00000120: 86a3 ec3c 8555 7bbd ed49 e8bd 544a 143c
00000130: d999 18bd cc55 c5bd 8fa7 5d3d 6d4d 57bc
00000140: 034b 563d 212a 573d 6d9c fc3c 2b13 953d
00000150: e9f7 c43d 4929 b2bc 383f 0fbd 0ed0 783d
00000160: 904f 1f3c 370b 68bd 88c7 653c f0b0 10bd
00000170: 94f0 3dbd ca8b cebd 2325 c73d 8c60 f83c
00000180: 9fe9 9a3d 87c6 e73d 54f4 2cbd 3b20 f73d
00000190: 620c e13d 2fed d43b 5bee 123d ab89 bdbd
000001a0: 37d9 dd3c 01e1 ed3d b48a 33bc 55cb c0bd
000001b0: 652b c3bd 51d3 04bd a29a 473b fb62 f63b
000001c0: c83e f53d 5ad3 09bd 6948 03bc 755a d63d
000001d0: c57f f03c b2b6 1a3d 7df3 debd f3bb a23d
000001e0: d03e efbd c0f2 c73b 09d0 963d e4ef a23c
000001f0: 3b3a b73d faad 1fbd ca90 acbd e3d7 50bd
00000200: 5f55 953d 203d 563d 84d4 ba3c fb55 92bd
00000210: b536 cabd cae2 d53c eb1e 673d 2f62 d7bd
00000220: 3c6e 773d 6df9 f9bb 6666 a63d 9794 9fbd
00000230: d309 10bd d7a2 b9bd 0417 d1bd 1e44 75bd
00000240: 1859 e03d 05f7 ce3d abc9 31bd c15f 9bbb
00000250: eac1 813d f807 dc3c f3f1 9e3d b38f ab3c
00000260: 4815 3c3c 4fe0 c93d 8c96 a03d 7240 a3bd
00000270: 5fa7 b5bc f6b0 b13d 2a88 e53c d83f da3d
00000280: 6d5b 21bd 0cd1 f0bc c6b8 593d 2af9 463d
00000290: f0da 8bbc 8000 32bc 1c66 a4bc 82e9 233d
000002a0: 52ca b4bd e053 cfbd ba42 0f3d 7a6f 0fbd
000002b0: 6a63 e2bd 7ec4 e43d f56f 5f3d b018 a33d
000002c0: 84c0 54bd 5496 4ebd 9532 373d 7dbf cf3d
000002d0: 09ff d3bd a29a 923d ab2a 2c3d 43d0 e13d
000002e0: 6be7 5c3a b1f7 93bd 5b47 6c3d 859c ef3d
000002f0: b080 5cbd dce4 ecbc a73b df3d aa56 323d
00000300: dc3d 82bc 0a06 293d fb6c 843d caba 3c3d
00000310: 80ec bb3b 4055 c9bb 8140 2ebc c67a 5fbd
00000320: ac3f 9c3b 6a88 cb3d 821d cb3d 603f 473b
00000330: 2b76 523d 960f 5fbd 3e79 1b3d 059e af3c
00000340: a664 76bc db91 e6bd bea2 c5bd dc08 d63d
00000350: 9db6 af3d f48a afbd a780 8f3b 3247 c43c
00000360: 8ed7 d83d 025a ca3d 4169 27bd f9a6 d7bd
00000370: b0ab 33bd 690b ed3d 5e43 533d 7a9b 8fbd
00000380: d1f6 273d 2241 35bc d8d0 723d 3c09 b63d
00000390: 0657 c53d c586 673d a1ab 75bd 3773 a5bc
000003a0: c5f6 d73d 2c2b 5b3d 82eb 243d e068 5fbb
000003b0: edd9 b83d 8fa4 a43d 8abf 5d3d caef 423d
000003c0: 9ba8 aa3d 486e 3dbc ce73 58bd 373e 673d
000003d0: 373f 39bd c909 95bd fa88 7abc 98eb dfbd
000003e0: 8fd9 993d cb4c 8d3d e30b dcbd 4b28 b0bd
000003f0: 8cbb b23c b766 ffbb 8ce3 cdbd 9306 0bbc
-0.0007199267 -0.07548437 0.08517336 0.012177837 -0.031189792 -0.055716295 -0.046498436 0.030896544
0.021550728 -0.08774874 -0.023515683 0.1177323 -0.013017989 -0.08912431 -0.016401153 0.083354935
-0.02363181 -0.055750992 -0.0067895353 -0.05996648 -0.014597714 -0.107943416 -0.11445767 0.10521326
-0.06549926 0.072459854 -0.021933936 -0.054344807 0.04657402 -0.041206714 0.11253142 -0.10639263
-0.09813419 -0.040044528 0.11875112 0.040837865 -0.00837678 -0.088644534 -0.008222207 0.08020045
0.038147796 0.05940746 0.11252761 0.102755114 0.068353266 0.071402706 -0.08197391 0.08221445
-0.052330792 0.03650535 -0.016757533 -0.09715735 0.11473442 0.08365498 -0.05057057 -0.0011286298
0.01458148 0.023904715 0.03959853 -0.03718076 0.09845046 -0.06378482 0.07352964 0.043578956
-0.048115794 -0.08231709 0.08788335 -0.09715398 0.0013537921 0.08920756 -0.028907958 -0.10385455
0.028886568 -0.061360855 -0.11342225 0.009050924 -0.037256096 -0.09635505 0.054114874 -0.013141018
0.05231763 0.05253041 0.030836308 0.072790466 0.096175976 -0.021748202 -0.0349724 0.06074529
0.009723559 -0.05665132 0.014024623 -0.03532499 -0.04637201 -0.100852564 0.0972388 0.030319475
0.07564091 0.11317163 -0.042225197 0.12066694 0.1098869 0.006498001 0.035871845 -0.09254774
0.027081115 0.11615182 -0.010958362 -0.094137825 -0.09529761 -0.03242809 0.0030457159 0.0075191236
0.11974865 -0.033648826 -0.008012869 0.10466472 0.0293578 0.037771888 -0.108862855 0.07946005
-0.116819024 0.006101936 0.07363898 0.01988978 0.089466535 -0.038984276 -0.08426054 -0.050987136
0.07291674 0.052304387 0.022806413 -0.07145306 -0.09873716 0.026109118 0.05642597 -0.10516774
0.060407862 -0.007628611 0.08125 -0.07792013 -0.03516562 -0.09064262 -0.10209468 -0.059879415
0.10954493 0.10105709 -0.043405216 -0.0047416394 0.06335814 0.026859269 0.07760992 0.020942545
0.011479683 0.098572366 0.078412145 -0.07971276 -0.022174535 0.08676331 0.02801903 0.106567085
-0.03939383 -0.029396556 0.05315473 0.048577465 -0.017072171 -0.010864377 -0.02006822 0.040017612
-0.08827652 -0.1012342 0.034975745 -0.03501842 -0.11054118 0.111702904 0.05455013 0.07963693
-0.05194141 -0.050436333 0.044725973 0.10143945 -0.103513785 0.071584 0.04203288 0.11026051
0.0008426818 -0.07224978 0.057685237 0.116997756 -0.053833663 -0.028917722 0.1090005 0.04353968
-0.015898637 0.041265525 0.06466099 0.046076573 0.00573498 -0.006144196 -0.010635496 -0.054560445
0.0047683325 0.09938128 0.099177375 0.0030402765 0.051382225 -0.054458223 0.037957422 0.021437654
-0.015038645 -0.112582885 -0.09650181 0.104509085 0.085797526 -0.08571425 0.00437935 0.02395973
0.10587989 0.09880449 -0.040871862 -0.105298944 -0.043864906 0.11574442 0.05157792 -0.07012077
0.041006867 -0.011062892 0.0592812 0.0888848 0.09635739 0.05652501 -0.05997813 -0.02019654
0.105451144 0.05350797 0.04026366 -0.003408961 0.09025941 0.080391996 0.054137744 0.047591962
0.0833294 -0.011561938 -0.052844815 0.056455817 -0.045226302 -0.07277257 -0.015291447 -0.10933608
0.07512199 0.06899413 -0.10744455 -0.08601435 0.021817945 -0.007794227 -0.10053167 -0.008485454

bias f4 [8]
00000000: 754b 19bd 21c9 8e3d cd35 b4bd ea14 063e
00000010: ef03 d33d 34c5 febc 55e6 023d 5e62 693d
-0.037425477 0.06971956 -0.08799324 0.13093916 0.10303485 -0.031099893 0.031957943 0.056978576

weight f4 [128, 192]
00000000: 4e49 3abd 1855 efbc c1f5 8ebd 2cf7 653d
00000010: 89ce 21bd cafc cbbc 0251 9abc 4e89 253d
00000020: 48c2 b0bc c424 28bd 5e65 63bd 3caa 833d
00000030: 8de6 63bd 9c7c c0bc 2051 84bd 1f22 1ebd
00000040: d85b 15bd ed83 27bd 7a93 003d 0a37 6fbd
00000050: d9e4 90bd ef96 88bd b0bb 603d bc02 863d
00000060: 7b1d 36bc ffe5 b23c ad29 ed3a d510 bfbb
00000070: cdc0 713d 81f6 12bd b5b6 bcbc 16c8 5bbd
00000080: a1d6 013d 8b43 833d 1aed 7bbc 3307 8ebc
00000090: c136 603d edf7 19bb 30c1 83bd 0e99 7e3d
000000a0: 5d45 03bd 557c b4bb e1a9 e8bc 9ba4 f93c
000000b0: c580 453c b622 153b cd00 833d 4b67 463d
000000c0: a00b 4cbb 02a8 31bd ec9b 5d3d f882 1abd
000000d0: bfc5 82bd a2be 9bbc 44a5 4cbd 00f9 4bbb
000000e0: ac92 743d 1eb5 4a3d 86f8 d8bc eebe 2e3d
000000f0: 00d1 8bba 2006 05bb 3681 8abd 083b c3bc
00000100: 6c63 673d bc10 8f3d 58dc 383d e8dc 0f3c
00000110: d0e7 d43c f461 eb3c 984b 623d fa27 523d
00000120: 7ce0 28bc ec0e 1cbc ff0b 78bc 385d 9c3b
00000130: 689a 69bd 249b cfbc 0123 5d3d 07d2 863d
00000140: 8994 5b3d 6f02 303d 24c7 94bc f6e7 9e3c
00000150: ce1f 5bbb 2cb9 32bd 9344 3bbd b73a 913d
00000160: b77c b2bc 7888 53b9 4a7a 0fbd e697 9c3a
00000170: 4fdb 54bc 0fe0 55bc e0f1 51bd c61b 8cbd
00000180: 4235 83bc 4715 37bc 22b1 bb3c ddd7 4c3d
00000190: 1bcb b03c d19f 713d f717 1b3d 9111 383d
000001a0: 97c6 913d 0631 bebc e3bb 3abd 2cb7 2239
000001b0: 3000 7ebd 1b01 d83b 179f 913d d673 a73c
000001c0: 7013 2b3b 35af 5e3d 2995 3bbb efb8 f4bc
000001d0: 7576 7d3d c60b b83c a191 a0bc 7256 533b
000001e0: 80be b43b 9204 9bbc 905b 833c 94af 5abd
000001f0: 8009 893d 587e 1dbc 9406 ca3c aca5 d03c
00000200: ba5a 153d 947e 6cbc 04a4 0e3d 8485 b2bc
00000210: c0ba 1d3d 0ab1 25bd 8234 84bd d048 8abd
00000220: f025 65bd 8cad 0b3d 6c8a 31bc b03b 91bb
00000230: f28d 1d3d 8af4 20bd e0c6 863d 28ac 383c
00000240: 6a9a 933d 7015 b33b 4c7a 7c3d 3813 fb3c
00000250: 9e4d 7cbd af27 16bd 6689 0abd d762 1ebd
00000260: c08d 88ba 585f 903d 3280 9ebc 1c81 7cbd
00000270: f85c 8abd 13a0 1fbd 002b 7a3b c0d7 0bbc
00000280: a284 04bd a3f4 72bd 7438 f23c c47d 623d
00000290: 9c21 98bc 93b3 24bd 405b c13b 88ac 623d
000002a0: 501e 933d 1af9 343d f247 1f3d fab2 233d
000002b0: f83d f4bc dca8 b63c c0c4 adba a895 363d
000002c0: 3066 863b 82e1 8d3d 00b6 f43c b8f0 993c
000002d0: 206f 0fbc d68f 193d 6035 503b b4b6 6b3d
000002e0: 887d 823d 417a 0bbd c036 753d 40cf 3e3b
000002f0: f896 42bd 3836 8cbd 3408 893c 2016 f03c
00000300: a2ca 82bd fad7 273d 8833 0fbd 56fd 893d
00000310: a4e7 aebc 2dc8 83bd 5a31 493d fcf0 a03c
00000320: e040 733d dab7 0dbd 6007 afbb cc75 debc
00000330: b0e8 653c ca6e 91bc 805e 2eba 7f7a 2ebd
00000340: 608d 9d3c b826 e1bc b594 67bd 7d85 90bd
00000350: 96e9 523d 7070 723d 9003 a93c 9c15 c73c
00000360: 0cbb 2d3d c355 07bd 50e0 d33c 2c76 863d
00000370: 20e3 f03b ac4d e43c 6830 fbbc bc84 6d3d
00000380: d024 273c c0d9 27bb 4489 893d e8c1 c03c
00000390: a0ce 2abb 6485 a03c 14d0 f5bc 34f8 dcbc
000003a0: b414 ebbc a87d 07bc b013 ef3b 4091 98bb
000003b0: cc68 083d acbc 6d3d 3600 dbbc aa91 423d
000003c0: 4627 823d 7ca5 7e3d b84c b53c 7d89 13bd
000003d0: 0405 61bd 08fc 5b3c a0b5 48bb 18d3 763d
000003e0: 294e 27bd 5276 033d 6018 003d 1806 1e3c
000003f0: aa83 3a3d b8cd ebbc fe8a 8abd 0bb2 86bd
-0.045480065 -0.02921538 -0.069804676 0.056143925 -0.039503608 -0.024900813 -0.018837456 0.040414147
-0.021577016 -0.041050687 -0.055516593 0.06428954 -0.055639792 -0.023496918 -0.06460786 -0.03860676
-0.036464542 -0.0408973 0.031390645 -0.0584021 -0.07074899 -0.06669413 0.054866493 0.0654349
-0.011115427 0.021838186 0.0018094085 -0.005830864 0.05902176 -0.035879616 -0.02303634 -0.053657614
0.031698827 0.06409367 -0.015376354 -0.017337417 0.054739717 -0.0023493723 -0.06433332 0.062157683
-0.03204857 -0.0055079856 -0.028401317 0.030473998 0.012054627 0.0022756285 0.06396637 0.04843835
-0.0031134859 -0.043373115 0.054103777 -0.037722558 -0.06385373 -0.0190118 -0.049962297 -0.0031123757
0.05971019 0.049489133 -0.026485693 0.042662553 -0.0010667145 -0.002029784 -0.06762926 -0.02383186
0.0564913 0.06985614 0.04513201 0.0087806955 0.025989443 0.028733231 0.055247873 0.051307656
-0.0103074275 -0.009525042 -0.015139579 0.0047718547 -0.05703202 -0.025342532 0.05398846 0.06583028
0.05360845 0.04297107 -0.018161364 0.019397717 -0.0033435705 -0.043633625 -0.045719694 0.07091277
-0.021787984 -0.00020173367 -0.035028733 0.0011947125 -0.01299174 -0.013053908 -0.05125606 -0.06841235
-0.016016606 -0.0111745065 0.022911612 0.05001055 0.021581223 0.058990303 0.03786465 0.044938628
0.07117956 -0.023216736 -0.04558934 0.00015517761 -0.062011898 0.0065919287 0.07110422 0.020440977
0.0026104115 0.05436631 -0.0028622842 -0.02987334 0.061880548 0.022466552 -0.019600691 0.003224757
0.0055158734 -0.018923078 0.016034871 -0.0533901 0.06691265 -0.009612642 0.02466134 0.025469624
0.036463477 -0.014434475 0.034824386 -0.02179218 0.038508177 -0.04045204 -0.064553276 -0.06752169
-0.055944383 0.034101054 -0.010836225 -0.004432164 0.038465448 -0.03929571 0.06580901 0.011271514
0.072071865 0.005465202 0.06164007 0.030648813 -0.06159746 -0.03665894 -0.03382244 -0.03866848
-0.0010418221 0.070494354 -0.019348238 -0.061646566 -0.06756014 -0.038971018 0.0038172603 -0.0085353255
-0.03235305 -0.059315335 0.029567935 0.05529572 -0.018570714 -0.040210318 0.0059007704 0.05534032
0.07183516 0.044182874 0.03888697 0.039965607 -0.029814705 0.022297315 -0.0013257489 0.044576317
0.004101537 0.06927778 0.02987194 0.018791541 -0.008754522 0.03749069 0.0031770095 0.057547286
0.063715994 -0.034052137 0.059866667 0.002911523 -0.047507256 -0.06846279 0.016727544 0.029307425
-0.063863054 0.040977456 -0.034961253 0.06737773 -0.02135069 -0.06434665 0.04911933 0.01964616
0.05938804 -0.034599163 -0.0053414553 -0.02715578 0.014032528 -0.017753024 -0.0006651655 -0.04259729
0.019232452 -0.027484283 -0.056538302 -0.07056711 0.051492296 0.05918926 0.020631582 0.024302296
0.04241471 -0.033040773 0.025863796 0.06565508 0.007351294 0.027869068 -0.03066273 0.057987913
0.010201648 -0.0025611967 0.067156345 0.023529962 -0.00260631 0.019594856 -0.030006446 -0.026973821
-0.028696395 -0.008269705 0.007296048 -0.004655987 0.033303067 0.05804126 -0.026733499 0.047502197
0.06355147 0.062169537 0.022131309 -0.03601979 -0.054936424 0.013426788 -0.0030625835 0.06025991
-0.040846024 0.03209526 0.031273246 0.009645008 0.04553572 -0.028784618 -0.06764792 -0.06576928

bias f4 [128]
00000000: 0a36 f5bc a2bc 82bd a490 86bd d2e7 35bd
00000010: e4f4 b53b f8aa 4a3c 9a9d 023d 7005 04bc
00000020: 2373 3e3d 4200 5d3c afc6 573d 64e1 fe3c
00000030: 7a10 583c cb2c 85bd edaa df39 4b19 82bd
00000040: 7c10 d5bc 8ced 94bc 801e 57bd 4f7d 833d
00000050: 3ddc 7bbd acfe 293d 4294 7cbd ed1a 1d3d
00000060: 30c5 adbc e63a bcbc 1301 683d c0c2 75bd
00000070: 0099 2b3d 49a4 583d beea b53d c4c4 293d
00000080: 302b c1bc bac4 b2bb 6e49 2cbd 4e26 7ebd
00000090: ec8b d63c 45f2 a53d af8a 943c ed2e 55bd
000000a0: 9684 b23d 1ebd 9abc f526 8e3d aae3 62bd
000000b0: 3aab 51bd b889 923d 88f6 0b3d 61d1 463c
000000c0: 1443 39bd ecf4 5d3d f22a 783d 53fc b43c
000000d0: f393 41bd e6a3 97bc 8b7d edbc cb23 a83d
000000e0: 6340 81bd a0a4 273d 9cb1 343d d702 533d
000000f0: 3ebd e5bc e2a9 2ebc 808a f1ba 8c6d 46bd
00000100: 68ef 283c 4000 873b 0073 383c c619 073d
00000110: 58fa 2b3d 10fb f6ba 80c9 103b 1ffd 4d3d
00000120: 4e46 bfbc f284 423d 9e22 8b3c 3efe 73bd
00000130: d62f b53c d1f1 d03c b828 903c 2fa0 fbbb
00000140: c85c 82bd 2e71 ab3c 155d d73c f2ee 72bd
00000150: f011 6bbc 0018 ae3a 90fc 8bbd b2ea 023d
00000160: 8334 62bd e93c 013d 2732 893d b588 00bb
00000170: c211 33bd 0c53 4cbd 2039 85bd 4c84 4fbd
00000180: d834 22bd f7c2 293d e3dd fc3c 560e 72bd
00000190: 63dd b93d 4a24 43bd 185e 803c c45e bb3c
000001a0: 3895 3f3d 07ee 4abd a48d 7a3d eaff e6bc
000001b0: 529f 47bd 3a9b 4ebd 0ed6 2bbd da3a d2bb
000001c0: 05ec 793d 71bb 963d 6acb 37bd f04d 1a3d
000001d0: c6f1 0bbd a75f a53d 667c 52bd f3b1 61bb
000001e0: fc7e 26bc 950f 833d 4103 003d 008e 6d3c
000001f0: 66f7 543d 9ab7 82bd 34fb 9bbc bf3a ce3c
-0.029932994 -0.06383635 -0.06570557 -0.044410534 0.005552875 0.012369864 0.03188858 -0.008057937
0.04649652 0.013488831 0.052679714 0.031113334 0.013187522 -0.06502684 0.00042661224 -0.063524805
-0.026008837 -0.018179677 -0.05251932 0.06420385 -0.061489332 0.04150264 -0.061664827 0.038355757
-0.02121219 -0.022977304 0.05664165 -0.06000018 0.04189396 0.05289105 0.08882664 0.041447416
-0.023580164 -0.0054555805 -0.042062216 -0.06204825 0.026189767 0.0810285 0.018132536 -0.052046705
0.08716695 -0.018889006 0.06941024 -0.0553929 -0.051188685 0.07155174 0.034170657 0.012134881
-0.045229986 0.054188654 0.06058783 0.022092974 -0.047260236 -0.01851077 -0.028990528 0.08209952
-0.06311109 0.040928483 0.044114694 0.05151638 -0.02804434 -0.01066062 -0.0018428117 -0.048444316
0.010310985 0.004119903 0.011257887 0.032983564 0.041986793 -0.0018843133 0.002209276 0.050290223
-0.023348954 0.047490068 0.01698428 -0.059568636 0.022117537 0.025505932 0.017597541 -0.0076790075
-0.06365353 0.020927992 0.026289502 -0.059309907 -0.014347538 0.0013282299 -0.06835282 0.031962104
-0.05522586 0.03155223 0.06699019 -0.0019612734 -0.043718107 -0.049883887 -0.06505036 -0.050663278
-0.039601177 0.0414457 0.030867523 -0.059095703 0.09075429 -0.04764203 0.015669867 0.022872336
0.046773165 -0.049543407 0.061170235 -0.028198201 -0.048735924 -0.050441004 -0.041952185 -0.006415707
0.0610161 0.0735997 -0.044871725 0.037671983 -0.03416612 0.08074885 -0.051388167 -0.0034438341
-0.010162111 0.063994564 0.031253103 0.0144991875 0.05199375 -0.063826755 -0.019040681 0.025174497

weight f4 [8, 128]
00000000: 3864 183c 81c7 ae3d a049 e0bb db62 71bd
00000010: fd86 573c fca6 c33c 122c 323c 1a5a 1f3d
00000020: 65fb cabd 7095 923d f51f 713d 489d 21bc
00000030: 5bd0 9fbd f333 813d 1f3e 2d3d 9dec 473d
00000040: 416e 953d 4789 e6bc c8d3 a7bc 9cf9 8dbd
00000050: 96d0 5c3d 3f01 5bbd 27d1 953d 0bb7 883d
00000060: 61c7 7a3d 84d8 91bc afad 78bd fe21 8fbd
00000070: e9b7 453b 3d2f 68bd 91e5 f33c 946e 18bd
00000080: 81ab 823d 6355 9d3b c072 7abb 08be 7dbd
00000090: 8969 4abd 5c39 5a3c 113d babc 49ad aa3d
000000a0: 47b0 363c 1f9e a13d a165 e0bc 3dd1 4cbd
000000b0: 170e a0bb 7859 f23c 6ea5 3f3d 5a75 863c
000000c0: 37a7 b33d e0f9 ebbc eca8 9d3d 46ac 993d
000000d0: 1d4e 953d 9463 42bd b1b1 943d 8794 bfbd
000000e0: 1f8b 943d b6bf 653d b119 3d3d fa1a 80bd
000000f0: 4555 44bd ad6a 473c ba9c 6e3d 14c7 93bc
00000100: d04e a73c 8877 35bc d1f7 63bc 8eee 8c3d
00000110: 66f7 183c 5977 8b3d 6d6e ab3d 998a 0bbd
00000120: 2429 57bd 12a2 a9bb db23 b0bd e883 cc3c
00000130: 7211 4ebd 3c6d 923d ffa7 923d bdcc 80bd
00000140: 8634 e8bc f020 8d3d f170 78bd 8603 753d
00000150: 716a 07bd 8422 44bd 6e09 60bd b08d bbbb
00000160: 9659 543d b0b6 3fbd 9a0c cabd 4fcc f7bc
00000170: 2089 e9bc 64fe 98bd 725f 91bd 0ac1 0dbd
00000180: 24a0 b2bd bb70 61ba 0101 96bd 7fb5 9f3d
00000190: 83c7 bcbd 3900 aa3d ea4d 1b3d 0047 233a
000001a0: 6008 18bb d4e4 68bc f93f 9ebd 3a1e 83bd
000001b0: 9a3b 703d 7eb6 75bd f45e cf3c d0df eebc
000001c0: 639c 4b3c 4a7f 9bbd b00f d6bb 15f7 123c
000001d0: 00ac d6bb d892 073d 26d8 283d ad50 593d
000001e0: b039 a2bb eed1 7a3c 7aba 623d 203d 8c3b
000001f0: 0884 5c3d ab2d 88bc 4848 f83c b18c ad3c
00000200: 129a b2bd e8d4 87bc 2027 f53c 0d0c b43d
00000210: 2942 a03c b80c cb3c e43d b8bd 0ebf 3c3d
00000220: fd79 5c3d 57a2 2cbd 5e37 893d 4bb3 a53d
00000230: b25b 9abc da41 e3bc bb64 d4bc 92e4 27bd
00000240: 0fe6 4dbd 2e62 dabc 08b0 55bc f4e6 9b3d
00000250: c7e4 16bd f96b 663d dc67 c2bc 6624 063d
00000260: c9b5 a2bd 2210 443d f8e9 c9bc ca3f 703d
00000270: 29af cc3c 5fc1 a53d 3407 863d a675 8dbc
00000280: d707 943d bd67 03bd a6dd 1dbd 62a8 aabd
00000290: 8bd3 8839 36b8 d1bc 05eb 133d c053 8abc
000002a0: c604 3d3d 67d7 3bbd 6595 e0bc 49c9 a23d
000002b0: ccf3 8cbc b0ef a3bd 71ac 50bd 28ec 733c
000002c0: 1583 a43d e930 aa3d c3ee 36bd d718 54bd
000002d0: 6871 bebc 66d7 733d 86ec b13d 4a2d 183d
000002e0: 68dd 763c 204d 8d3b ea92 4a3d 03e0 a23c
000002f0: 57dd 2ebd f863 8fbd 93b7 823d db06 b03d
00000300: 4c66 0f3d 1546 b23d 5577 9bbc 11cb 8abc
00000310: c682 d53c f636 9abc f0af da3c 9a03 8a3d
00000320: fc3a a6bc 551a 9ebc 3a0a e43b 9590 80bd
00000330: 4bb8 8abd 1859 653d b6c5 783d 3e22 a93b
00000340: c07f 503b 8ccd 2e3d 2e0c a2bd 4c61 65bd
00000350: efb6 69bd 8677 1f3d a564 903d 4b75 28bd
00000360: 86ce 733d a343 753d 3fab 85bc 5056 6b3d
00000370: f846 7ebd 703e 6bbd 601f 6ebd d0c1 a83b
00000380: 6ddc 60bd 67d2 99bd 7dc8 f4bb 0404 e4bc
00000390: 2ff1 b3bd 3013 753c 86d7 4f3d ba01 213d
000003a0: 1569 8b3d a189 b13d eafb 02bd 00e4 5dbc
000003b0: 9ac9 4d3d 1842 b83c 7e6f 9abd dde5 33bc
000003c0: 3de7 053c b0d2 123c aaf8 6bbd 17ad 98bd
000003d0: 6625 37bd f65a b4bd 50ec 52bc 39cc 41bd
000003e0: 122c 5f3d d3f2 9b3d 70ee c13c ab01 823d
000003f0: 3192 033c b318 8c3d 6ce7 fc3c 1736 9cbc
0.009301238 0.08534146 -0.0068447143 -0.058932167 0.013154742 0.023883335 0.010874765 0.038904287
-0.09911231 0.07157409 0.058868367 -0.009864159 -0.078034125 0.06308737 0.04229557 0.048809636
0.0729642 -0.02814163 -0.020486727 -0.06932375 0.05390986 -0.053467985 0.07315283 0.06675538
0.0612253 -0.017803438 -0.060712513 -0.06988905 0.0030169433 -0.056685675 0.029772552 -0.03721483
0.06380368 0.0048014387 -0.003821537 -0.061948806 -0.049417052 0.01331934 -0.022734197 0.08333833
0.011150426 0.07891487 -0.02739221 -0.050004233 -0.004884492 0.029583678 0.046788625 0.01641338
0.08772128 -0.028805673 0.07698235 0.07503562 0.072902896 -0.047458246 0.072604544 -0.09354501
0.07253098 0.056091033 0.04616708 -0.06255145 -0.04793288 0.01217143 0.058254935 -0.018039264
0.020423323 -0.011075862 -0.0139140645 0.06881438 0.009336328 0.06809873 0.083706714 -0.034067724
-0.05252947 -0.005176791 -0.08600589 0.024965242 -0.050309606 0.07149741 0.07160949 -0.06289051
-0.028345358 0.06891048 -0.060654584 0.059817813 -0.033060495 -0.04788448 -0.054696493 -0.0057236776
0.05184325 -0.046805084 -0.09865685 -0.03024879 -0.02850777 -0.07470396 -0.07098283 -0.034607925
-0.08721951 -0.0008599867 -0.0732441 0.077982895 -0.09217741 0.08300824 0.0379161 0.00062285364
-0.0023198351 -0.014214713 -0.077270456 -0.0640225 0.05865059 -0.05998849 0.025313832 -0.029159456
0.012427422 -0.07592638 -0.006532632 0.008970042 -0.0065512657 0.033099025 0.04122176 0.053055454
-0.0049507245 0.01530884 0.05535362 0.0042797476 0.053836852 -0.016623339 0.030307904 0.021185251
-0.08720793 -0.016581014 0.029925883 0.08791361 0.019562798 0.024786338 -0.0899618 0.04608064
0.053827275 -0.042147007 0.067000136 0.08090838 -0.018842552 -0.027741361 -0.025926938 -0.040989466
-0.05026823 -0.026658144 -0.013042457 0.0761241 -0.036839273 0.056255314 -0.023731165 0.032749556
-0.07944829 0.047866948 -0.024647698 0.058654584 0.024985867 0.08093523 0.06544343 -0.017268013
0.07228058 -0.032081354 -0.03854146 -0.08332898 0.00026097553 -0.025600534 0.036112804 -0.016885638
0.04614713 -0.04585972 -0.027414987 0.07948548 -0.017206095 -0.08004701 -0.050945703 0.014887847
0.080328144 0.0831011 -0.044661295 -0.0517815 -0.023247436 0.05953159 0.086876914 0.037152566
0.015067436 0.0043121725 0.049456514 0.019882208 -0.042691555 -0.070014894 0.0638267 0.085950576
0.035009667 0.08704773 -0.0189778 -0.016942533 0.026063334 -0.018825036 0.026695222 0.06738968
-0.020291798 -0.019299665 0.006959227 -0.06277577 -0.06773432 0.05599317 0.060735427 0.0051615527
0.0031814426 0.042676494 -0.07912479 -0.056000993 -0.057059225 0.038932346 0.070504464 -0.041127484
0.059523128 0.059878957 -0.016317008 0.05745536 -0.0620794 -0.057432592 -0.05813539 0.0051500574
-0.054897714 -0.07510834 -0.007470189 -0.027833946 -0.087862365 0.014958188 0.05074265 0.039308287
0.06807152 0.08668829 -0.031978525 -0.013543129 0.05024109 0.022492453 -0.07540797 -0.010980097
0.008172807 0.008961365 -0.05761019 -0.07454889 -0.0447134 -0.08806412 -0.012873724 -0.047313903
0.054485388 0.076146744 0.023673266 0.063479744 0.00803046 0.068406485 0.03087207 -0.01906876

bias f4 [8]
00000000: 8461 8dbe c70f 7bbd df51 0abe 2abb 29be
00000010: d6e7 15be 20bf 18be 338e 04be a9de 7e3c
-0.2761346 -0.061294343 -0.13507794 -0.16575304 -0.1463922 -0.14916658 -0.1294487 0.015556016
