model-doom.pth (torch, 172399 bytes, 8 tensors)

weight f4 [8, 1, 6, 6]
0	0xbb29c78e	-0.0025906297
1	0x3d8027e5	0.06257609
2	0x3e25fdbc	0.16210073
3	0xbc9db7c2	-0.019252662
4	0x3de3f598	0.11130828
5	0xbd9de66a	-0.077099636
6	0xbd32f449	-0.04369
7	0xbe0d1dda	-0.13780919
8	0x3e0f9bcd	0.14024277
9	0x3df1917f	0.11795329
10	0x3d99e827	0.07514983
11	0xbdbbfa62	-0.09178616
12	0x3d585f5d	0.05282532
13	0xbda3a025	-0.079895295
14	0x3e191701	0.14950182
15	0xbe1717a3	-0.1475511
16	0xbda1baf0	-0.078969836
17	0x3e009e78	0.12560451
18	0xbe1fd5fd	-0.15608974
19	0x3e09c79d	0.13455053
20	0x3d850fda	0.06497164
21	0x3d73ab94	0.0594898
22	0xbd8b40b5	-0.06799451
23	0x3de50106	0.11181836
24	0xbe09cb13	-0.13456373
25	0x3de90f82	0.11379911
26	0xbcf63eb7	-0.030059202
27	0xbd468f0d	-0.048476268
28	0xb9214653	-0.00015380354
29	0x3d84eaf9	0.0649013
30	0xbd677201	-0.056505207
31	0x3c849552	0.016184483
32	0x3e12b37e	0.14326283
33	0xbcf9d787	-0.03049828
34	0x3dd66b66	0.104697034
35	0x3e05aab3	0.13053398
36	0xbdbe6b00	-0.092977524
37	0x3d99adee	0.075038776
38	0x3d9843ee	0.074348316
39	0xbda0fc09	-0.07860572
40	0xbe018325	-0.12647684
41	0x3e049b9b	0.12949984
42	0x3e19e530	0.15028834
43	0x3c66b05e	0.014080135
44	0xbd9ab410	-0.075538754
45	0xbca613ea	-0.020273168
46	0x3d17cebc	0.03706239
47	0xbd4d5cad	-0.05013721
48	0x3d3f97a8	0.04677549
49	0xbd84842c	-0.06470522
50	0x3db9ee3a	0.09078641
51	0xbdb2e8ec	-0.087358326
52	0x3dd4e249	0.10394723
53	0x3e0d0262	0.1377044
54	0xbcec5e04	-0.028853424
55	0xbdc5e76e	-0.09663282
56	0xbd8df225	-0.06930951
57	0xbe05caae	-0.13065597
58	0x3cf9502c	0.030433737
59	0xbd8cb6c6	-0.06870799
60	0x3dd8f4cd	0.10593567
61	0x3e11c160	0.14233923
62	0xbbaa7d73	-0.005202943
63	0xbe01a2ba	-0.12659732
64	0x3cdd6770	0.027026862
65	0x3d81d8b0	0.06340158
66	0xbdf2695a	-0.118365005
67	0xbc6308c5	-0.013857071
68	0xbdd6e0ea	-0.10492118
69	0xbba974cc	-0.005171394
70	0xbd2bb03b	-0.041916113
71	0x3d6890de	0.05677878
72	0x3ca098ac	0.01960405
73	0x3e2a3479	0.16621579
74	0xbe237c32	-0.15965346
75	0x3ddd880d	0.10816965
76	0x3e1348f6	0.14383301
77	0x3d846962	0.06465413
78	0xbde51d23	-0.11187198
79	0xbda2260c	-0.07917413
80	0x3de17349	0.11008317
81	0x3e09c0db	0.13452475
82	0x3ceb78eb	0.028744182
83	0x3cd2d16d	0.025734628
84	0x3e28463b	0.16433041
85	0x3cbe9a6b	0.023266992
86	0x3c00b687	0.007856018
87	0xbe19cdd9	-0.15019931
88	0x3d297b67	0.04137745
89	0xbc83fb4f	-0.016111044
90	0xbd2ef633	-0.042715263
91	0x3db4da42	0.08830692
92	0xbe0d2541	-0.13783742
93	0xbe17dd5f	-0.1483054
94	0x3d0c9906	0.034325622
95	0x3cfd2685	0.030902157
96	0x3cab0dd2	0.020880613
97	0x3e248d49	0.16069521
98	0xbcf9a9db	-0.030476501
99	0x3d7c7db3	0.061643314
100	0x3d4c4980	0.049874783
101	0xbdfce7f3	-0.12348928
102	0x3e1fc53d	0.15602584
103	0xbd903041	-0.07040454
104	0x3c1bc7c6	0.009508079
105	0x3e19880e	0.14993307
106	0x3c646808	0.013940819
107	0x3e008e90	0.12554383
108	0xbdcc703e	-0.09982346
109	0xbd9206de	-0.07130216
110	0x3c59dc70	0.013297185
111	0xbdeaa2f6	-0.114568636
112	0xbdc48c18	-0.09597033
113	0xbd872360	-0.06598544
114	0x3d82c450	0.063851
115	0x3e1028a1	0.14077999
116	0xbd845f60	-0.06463504
117	0x3deef56e	0.11667906
118	0x3d95e01e	0.073181376
119	0x3e08fc55	0.13377507
120	0xbda4e048	-0.08050591
121	0x3c998278	0.01873897
122	0x3cd372e0	0.025811613
123	0x3d966776	0.07343952
124	0x3db1a6da	0.086744025
125	0xbe0860a4	-0.13318115
126	0x3de219d2	0.11040081
127	0x3c0520f0	0.008125529
128	0xbd7fbb96	-0.062434755
129	0x3e09f5c1	0.13472654
130	0xbe297b60	-0.1655097
131	0xbe1db7d2	-0.15402153
132	0xbe1559df	-0.14585064
133	0xbdc997e8	-0.09843427
134	0x3da48b70	0.08034408
135	0x3b96a100	0.0045968294
136	0xbded5aee	-0.11589609
137	0x3dcb9dce	0.09942208
138	0xbe2a8bf0	-0.16654944
139	0xbdf4e28e	-0.119572744
140	0xbd0690f4	-0.03285308
141	0xbdc26328	-0.09491569
142	0xbcaff6c0	-0.021479964
143	0xbc916a38	-0.017750844
144	0xbdd3dd20	-0.103449106
145	0xbc610339	-0.0137336785
146	0xbe0844f2	-0.1330755
147	0x3db4a178	0.0881986
148	0xbd5acc76	-0.053417645
149	0xbd05f367	-0.03270283
150	0x3ad3ee13	0.0016168974
151	0xbbc5ead1	-0.006039955
152	0x3d714a51	0.058908764
153	0xbe24d0eb	-0.16095321
154	0x3e04a15d	0.1295218
155	0x3d339d57	0.043851223
156	0xbe051396	-0.12995753
157	0x3d610355	0.05493482
158	0x3c39c8e2	0.011339398
159	0x3e11d26a	0.14240423
160	0x3c8f099f	0.017460642
161	0xbdcdeafa	-0.10054584
162	0xbde1b025	-0.11019925
163	0x3b9ff977	0.0048820334
164	0x3da5c582	0.08094312
165	0xbc803910	-0.01565221
166	0x3d78d477	0.060749497
167	0xbdf0925d	-0.117466666
168	0x3da1d360	0.07901645
169	0x3d4da6f6	0.050208054
170	0x3de3d139	0.111238904
171	0xbd1eb497	-0.038746443
172	0xbdc791a8	-0.097445786
173	0xbc0bfbd8	-0.008543931
174	0xbe1ffc5b	-0.1562361
175	0x3bcb9a6b	0.0062134764
176	0xbdfdd60d	-0.123943426
177	0xbcccd3e0	-0.025003374
178	0x3cccb39f	0.024987994
179	0xbbdce244	-0.00674084
180	0xbd4c5aaf	-0.04989117
181	0xbd324197	-0.043519583
182	0x3cd92320	0.026506007
183	0x3d805a23	0.06267192
184	0x3e1f20dc	0.15539879
185	0x3df079d4	0.11741987
186	0xbd7e7b72	-0.062129445
187	0x3d73f790	0.059562266
188	0xbe216e81	-0.1576481
189	0xbe0f9d66	-0.14024886
190	0xbe057fe1	-0.13037063
191	0x3d79ac84	0.06095554
192	0xbcb45a24	-0.022015639
193	0x3d67e10b	0.056611102
194	0x3b37a769	0.0028023368
195	0x3d480ff1	0.048843328
196	0x3de93435	0.11386911
197	0x3e2554a6	0.16145572
198	0x3e13dd7c	0.14439958
199	0x3dd87557	0.10569256
200	0xbd8d35e5	-0.06895045
201	0x3d5cf00a	0.053939857
202	0xbe1295a7	-0.143149
203	0xbe02f4dc	-0.12788719
204	0xbd2a44a3	-0.041569363
205	0x3e24379e	0.16036841
206	0xbdb5218c	-0.08844289
207	0xbd03f5e2	-0.032216914
208	0x3dc5892f	0.09645306
209	0xbe18488b	-0.14871423
210	0xbe0b67b9	-0.13613786
211	0x3e0ce9b7	0.1376103
212	0x3e297547	0.16548644
213	0x3dd8a491	0.105782636
214	0xbd065dbb	-0.032804232
215	0x3dc4400a	0.09582527
216	0xbcb2d466	-0.021829795
217	0x3d95dfd7	0.07318085
218	0xbca9dd06	-0.020735275
219	0x3dc15fe2	0.09442116
220	0xbccc194f	-0.024914412
221	0x3de5b2f5	0.11215774
222	0xbe2a3dce	-0.16625139
223	0xbe1a74d7	-0.15083633
224	0xbe0b7220	-0.13617754
225	0xbcd02d95	-0.02541236
226	0x3dcca371	0.099921115
227	0x3df26c13	0.1183702
228	0x3d70c1e3	0.058778655
229	0x3da5aa53	0.080891274
230	0x3c549625	0.01297525
231	0x3d875962	0.06608845
232	0x3d672574	0.056432202
233	0x3d923f0e	0.07140933
234	0x3e1f3f79	0.15551557
235	0x3de2c2d7	0.11072319
236	0x3d00a731	0.031409446
237	0x3e2864db	0.16444723
238	0x3e152e92	0.14568546
239	0xbe0a1a9b	-0.13486712
240	0xbd08d98f	-0.033410605
241	0x3e0008f7	0.1250342
242	0x3db16bbc	0.08663127
243	0xbd9b63c9	-0.07587392
244	0x3e26d267	0.162912
245	0xbdda1ee4	-0.10650423
246	0xbdc404d3	-0.09571233
247	0x3d45f1b3	0.048326205
248	0x3e226dc8	0.1586219
249	0xbb7ec15c	-0.0038872575
250	0xbe0ddf3f	-0.13854693
251	0xbdb9abb8	-0.09065956
252	0x3de14c74	0.110009104
253	0x3dd7b24c	0.10532054
254	0xbe0c3fd6	-0.13696226
255	0x3c888e3d	0.016669387

bias f4 [8]
0	0x3de738a8	0.11290103
1	0x3e2666d9	0.16250171
2	0x3dc4cb85	0.09609131
3	0xbdd5d58b	-0.10441121
4	0x3e222f28	0.15838301
5	0x3dd323b6	0.10309546
6	0x3e24d9ea	0.16098753
7	0x3df15aea	0.117849186

weight f4 [8, 8, 3, 3]
0	0xbd483793	-0.048881125
1	0xbd4cfb2b	-0.05004422
2	0x3d365ab8	0.04452011
3	0x3ddec1fa	0.10876842
4	0x3d10ec14	0.03538139
5	0x3d3fab50	0.046794236
6	0xbd8f1618	-0.06986636
7	0xbc6306a3	-0.013856563
8	0xbc4bcb51	-0.012438611
9	0xbbe200bf	-0.0068970616
10	0xbde9f7de	-0.1142423
11	0x3dd0a789	0.10188205
12	0xba8dfdc6	-0.0010833077
13	0x3ddc6375	0.107611574
14	0x3ddc9527	0.10770636
15	0x3d9f1a0c	0.0776864
16	0x3d9c3fa8	0.07629329
17	0xbd9ca58d	-0.07648764
18	0xbd77ad1e	-0.06046783
19	0x3db4cd1d	0.08828185
20	0x3def0f24	0.1167281
21	0xbd640605	-0.055669803
22	0x3c6c3f91	0.014419452
23	0x3ded8d91	0.11599267
24	0xbd7516bd	-0.059836138
25	0xbdadc6b0	-0.08485162
26	0x3dbda88e	0.09260665
27	0xbc811e54	-0.015761532
28	0x3dac884d	0.08424435
29	0xbdc4afa3	-0.096038125
30	0xbddc091f	-0.10743927
31	0x3d968755	0.07350031
32	0xbc545f08	-0.01296211
33	0xbbd33fc0	-0.0064468086
34	0xbc144708	-0.009050138
35	0xbdc9846f	-0.09839713
36	0x3d289298	0.041155428
37	0xbcf80859	-0.030277418
38	0xbdc77ee6	-0.09741001
39	0xbd5b5a32	-0.053552814
40	0x3d9f9e2c	0.07793841
41	0xbd98a6e1	-0.074537046
42	0x3df12139	0.11773915
43	0xbdb2d3b0	-0.087317824
44	0xbdc62e44	-0.09676793
45	0xbdcceb5c	-0.10005829
46	0xbd9befd7	-0.07614105
47	0xbc1c3fe4	-0.009536717
48	0xbd9bed14	-0.076135784
49	0x3d97b2ba	0.07407136
50	0x3dc61986	0.09672837
51	0x3d75ab99	0.0599781
52	0xbd9e2988	-0.07722765
53	0xbda1a16b	-0.07892116
54	0xbd2435ef	-0.040090498
55	0x3d81c21b	0.06335851
56	0x3d9e6286	0.077336356
57	0x3d86e5a2	0.06586768
58	0xbd8ea0b7	-0.06964248
59	0x3d59bcde	0.053158633
60	0x3ce1f244	0.027581342
61	0xbdd6be06	-0.10485463
62	0x3dadb1a1	0.08481146
63	0x3dba0fa7	0.09085017
64	0xbb9216b9	-0.004458275
65	0x3d0fbccf	0.03509217
66	0xbdb68da7	-0.08913737
67	0xbda13ee0	-0.078733206
68	0x3d5c385b	0.053764682
69	0xbde5f4ab	-0.11228307
70	0x3d8363d6	0.064155266
71	0xbd102508	-0.035191566
72	0xbd381760	-0.044944167
73	0xbd971dd3	-0.073787354
74	0xbccbe229	-0.024888115
75	0x3dee1b9c	0.1162636
76	0xbb03fbf3	-0.0020139187
77	0x3db126bf	0.08649968
78	0xbd75cc7e	-0.060009472
79	0x3d44bf95	0.04803427
80	0xbd191133	-0.037369918
81	0xbce1cd3d	-0.027563686
82	0x3de423ee	0.111396655
83	0xbd8b47ee	-0.06800829
84	0x3d0012fc	0.031268105
85	0x3d70cf09	0.058791194
86	0xbdd1ec86	-0.102501914
87	0x3d4a05e3	0.04932202
88	0xbcf161df	-0.029465614
89	0x3dc83204	0.09775165
90	0x3bad2aff	0.0052846665
91	0x3dba5f17	0.09100168
92	0x3db4c71c	0.088270396
93	0x3d365900	0.04451847
94	0x3daad8f2	0.0834216
95	0xbc1e95d6	-0.009679278
96	0xbc905c39	-0.0176221
97	0x3d90e15a	0.070742324
98	0xbd872206	-0.06598286
99	0xbddddeaf	-0.10833489
100	0xbd9e2ac1	-0.077229984
101	0x3d89e585	0.067332305
102	0xbd2d85d8	-0.04236397
103	0x3d234eda	0.03987012
104	0x3de69a19	0.112598605
105	0xbbb8d7f0	-0.005640976
106	0xbd90dbd2	-0.070731774
107	0x3dd36615	0.10322205
108	0xbda6f465	-0.08152083
109	0xbd39be3d	-0.04534744
110	0x3d9f15da	0.0776784
111	0xbd545510	-0.051838934
112	0x3d108067	0.035278704
113	0x3cc2635e	0.023729023
114	0xbc60df55	-0.0137251215
115	0x3d67eae1	0.056620482
116	0x3bb2a431	0.005451702
117	0x3d405c7f	0.04696321
118	0xbce94616	-0.028475802
119	0xbdbf614b	-0.09344729
120	0x3db2dd53	0.087336205
121	0x3db6f895	0.08934132
122	0xbdbd0ec4	-0.09231332
123	0x3d65378e	0.055961184
124	0x3db87180	0.090060234
125	0x3d2b7b09	0.041865382
126	0xbd884b31	-0.066549666
127	0x3da3df9c	0.080016345
128	0x3d583dac	0.05279319
129	0xbde770ec	-0.11300835
130	0xbdacff82	-0.08447172
131	0xbdb676ca	-0.08909376
132	0x3d95d0a8	0.07315189
133	0x3d81009c	0.06298944
134	0x3d8bad8d	0.068202116
135	0xbdaf1200	-0.08548355
136	0x3c861d55	0.016371408
137	0x3d4890df	0.048966285
138	0x3ce81719	0.028331326
139	0xba4f0c95	-0.0007898298
140	0xbb9ee390	-0.004848905
141	0xbdaba072	-0.08380212
142	0x3cd98727	0.026553703
143	0xbccecade	-0.025243219
144	0xbdc4ebda	-0.096152976
145	0xbd848250	-0.06470168
146	0x3d117519	0.035512064
147	0x3d9aa4bf	0.07550954
148	0x3d651b37	0.055934157
149	0x3d323753	0.043509793
150	0x3da09479	0.07840819
151	0x3d94a420	0.07257867
152	0xbda1a99b	-0.07893678
153	0x3d3e6ed5	0.046492416
154	0x3cf935e6	0.030421209
155	0xbda0c26d	-0.07849584
156	0xbc012e40	-0.007884562
157	0x3c22f6d2	0.009946542
158	0x3dec1756	0.115278885
159	0xba362a75	-0.00069490756
160	0xbcbf20bc	-0.023331039
161	0xbda636f9	-0.08115954
162	0x3de66bfd	0.11251066
163	0x3dad311e	0.08456634
164	0xbd1a9ed5	-0.03774913
165	0xbdb79f83	-0.08965971
166	0x3ccee617	0.0252562
167	0xbda8af17	-0.08236521
168	0xbcfa1497	-0.030527396
169	0xbdcdbb9d	-0.1004555
170	0x3d90ccb1	0.07070292
171	0xbdd64e7c	-0.104641885
172	0x3c523128	0.012829103
173	0x3d47a3a6	0.04874005
174	0x3de33769	0.11094553
175	0x3d029e66	0.03188934
176	0x3d5b40e2	0.053528674
177	0x3da79321	0.081823595
178	0x3c8e922c	0.017403685
179	0xbd08ea2e	-0.033426456
180	0xba86f011	-0.0010294934
181	0x3d3de9f5	0.046365697
182	0x3c43ec09	0.011958131
183	0x3d46abfd	0.048503865
184	0xbba9dcfe	-0.005183815
185	0x3de22180	0.11041546
186	0x3db7c19a	0.089724734
187	0x3db7ebbf	0.08980512
188	0xbddfd16b	-0.10928615
189	0xbbc3c137	-0.0059739607
190	0xbda8d35f	-0.08243441
191	0xbdf12123	-0.117738985
192	0x3d501e29	0.050810013
193	0x3ba25cf0	0.0049549267
194	0x3dbe2fb2	0.09286441
195	0x3d6f1e9a	0.058378793
196	0x3dd03276	0.10165875
197	0xbdcc7e6d	-0.09985051
198	0x3cafdec0	0.02146852
199	0x3be962e8	0.0071223862
200	0x3caf7c4d	0.021421576
201	0xbde11a18	-0.10991305
202	0xbdc0f308	-0.094213545
203	0x3b6b493d	0.0035901808
204	0x3db0017a	0.08594032
205	0xbdd688db	-0.10475322
206	0xbcda4fdf	-0.026649414
207	0xbdd5aa07	-0.10432821
208	0x3d476139	0.048676703
209	0xbd5eacc0	-0.054363966
210	0x3cbc1f2e	0.022964086
211	0xbdc1cda3	-0.0946305
212	0xbd34a540	-0.044102907
213	0x3dc3c3d5	0.09558836
214	0x3d5b5c84	0.053555027
215	0xbd8b2d2f	-0.067957275
216	0x3db4df81	0.088316925
217	0xbd1cc134	-0.03827019
218	0xbd78cf6d	-0.06074469
219	0xbd9a7705	-0.075422324
220	0xbdc7ec5c	-0.09761879
221	0xbdc2e05e	-0.09515451
222	0x3dc4aee7	0.096036725
223	0xbd4afffd	-0.049560536
224	0x3d825564	0.06363943
225	0xbd1acd6e	-0.03779357
226	0xbd88117a	-0.066439584
227	0x3ccb7ac3	0.02483881
228	0xbd16becc	-0.03680305
229	0x3d4671dc	0.04844843
230	0x3d82eae5	0.06392459
231	0xbd7e4004	-0.06207277
232	0xbdb746f3	-0.08949079
233	0xbda48846	-0.080338046
234	0x3d8da495	0.06916157
235	0x3cc3521f	0.02384287
236	0x3da9ec0c	0.082969755
237	0xbd8110dd	-0.063020445
238	0x3d3d8989	0.046273742
239	0x3dba424d	0.09094677
240	0x3d813528	0.06308967
241	0xbd199fd0	-0.037505925
242	0x3d85cb31	0.06532896
243	0xbd1ea284	-0.038729206
244	0x3d0d0366	0.03442707
245	0x3daf0d9f	0.0854752
246	0x3d0c2642	0.034216173
247	0x3dbd83f9	0.092536874
248	0x3d26b62e	0.040701084
249	0xbdc5dbdd	-0.09661076
250	0xbdb0c504	-0.08631328
251	0x3dbef367	0.09323769
252	0x3d892637	0.06696742
253	0xbdc21fcb	-0.0947872
254	0xbdee04d7	-0.11622017
255	0x3cbd3ca7	0.02310021

bias f4 [8]
0	0xbdab096c	-0.083514065
1	0xbd20c29a	-0.039248087
2	0x3d8d4b42	0.0689912
3	0xbddbac15	-0.107261814
4	0x3c0942a8	0.0083777085
5	0x3d98259d	0.07429049
6	0xb9f76e61	-0.0004719375
7	0x3dd8c2bb	0.10584017

weight f4 [128, 192]
0	0xbd3049d8	-0.043039173
1	0x3d92312c	0.07138285
2	0x3cca204c	0.024673603
3	0x3cf7d52c	0.030253015
4	0x3ce02144	0.027359612
5	0xbd79ced3	-0.06098826
6	0xbc90178e	-0.017589357
7	0x3d4e934e	0.05043345
8	0xbd26341b	-0.040577035
9	0x3ba5d870	0.0050612018
10	0xbc3097c0	-0.0107783675
11	0xbd649e5c	-0.055815086
12	0xbd875f52	-0.06609978
13	0xbb0fbfa0	-0.0021934286
14	0x3cc78ed8	0.024360105
15	0x3d2989a4	0.04139103
16	0xbcf19a32	-0.029492471
17	0x3d796fc0	0.06089759
18	0xbc1223f8	-0.008919708
19	0x3c020920	0.007936746
20	0x3d851f00	0.065000534
21	0xbd82e7b1	-0.06391848
22	0x3d04abb2	0.032390304
23	0xbd021ae7	-0.031763937
24	0x3c5a66e0	0.013330191
25	0xbd29ca76	-0.041452847
26	0x3d57021a	0.05249224
27	0x3d887e52	0.06664719
28	0x3d14ec7e	0.03635835
29	0x3d8605cc	0.065440744
30	0xbc99110c	-0.018684886
31	0xbd89a36a	-0.06720622
32	0xbcdf2bfc	-0.027242653
33	0xbd6f8c73	-0.058483552
34	0x3cd9127c	0.026498072
35	0xbd4d1b26	-0.05007472
36	0x3ccced0c	0.025015377
37	0xbd1c2ee0	-0.03813064
38	0xbd4dcd39	-0.050244544
39	0x3b0be940	0.0021348745
40	0xbd33758e	-0.04381328
41	0x3ce582d8	0.028016493
42	0xbd8d8db6	-0.06911795
43	0x3d47415a	0.04864631
44	0x3b808200	0.003921747
45	0x3c2751f8	0.010212414
46	0xbc5b8614	-0.013398666
47	0xbaf0e100	-0.0018377602
48	0x3d927700	0.07151604
49	0xbcdc87b6	-0.02692018
50	0x3d7ab9f0	0.06121248
51	0xbd36d2e2	-0.044634707
52	0xb9f20900	-0.00046164542
53	0x3d422acc	0.047404096
54	0x3cfe20ec	0.031021558
55	0xbcd5dc60	-0.02610606
56	0xbceae5c6	-0.028674018
57	0x3d7df8bc	0.06200479
58	0xbcf14026	-0.029449534
59	0x3ceaa4d8	0.028643057
60	0x3d704e5c	0.05866848
61	0xbd93c31c	-0.072149485
62	0x3c29b5a8	0.010358252
63	0xbc2df128	-0.010616578
64	0xbd237a8f	-0.039911803
65	0xbd5fa584	-0.054601207
66	0x3d513e24	0.051084653
67	0x3d198ba6	0.037486695
68	0x3d01f458	0.031727165
69	0xbb1d4dc0	-0.0024002641
70	0x3d71515c	0.05891548
71	0xbd90535e	-0.07047151
72	0xbd173982	-0.036920078
73	0xbc188718	-0.009309553
74	0xbd3597fb	-0.044334393
75	0xbd5facc2	-0.054608114
76	0xb969cc00	-0.00022296607
77	0x3a9718c0	0.0011527762
78	0xbcd5dc8a	-0.026106138
79	0x3cba95d8	0.02277653
80	0x3abc3b00	0.0014360845
81	0x3cdb485c	0.026767902
82	0xbd6b1356	-0.057391487
83	0xbd82fba4	-0.06395653
84	0x3ca7f35c	0.020501785
85	0x3d318974	0.043343976
86	0xbd48d24a	-0.049028672
87	0x3a8d1ac0	0.0010765418
88	0xbd851bbc	-0.064994305
89	0x3d51533c	0.05110477
90	0xbcfe55d0	-0.031046778
91	0xbc7e94b4	-0.015538383
92	0xbd91bcf5	-0.07116119
93	0x3d8e8478	0.0695886
94	0xbd54fc38	-0.051998347
95	0xbcf840ea	-0.030304391
96	0x3d3bc282	0.045839794
97	0x3d7d2d7c	0.061810955
98	0xbcc053cc	-0.023477457
99	0x3d79dd44	0.06100203
100	0xbd378a66	-0.04480972
101	0xba949840	-0.0011336878
102	0xbd44ff46	-0.04809501
103	0x3ca28a98	0.019841477
104	0xbd622d72	-0.05521912
105	0x3cb13914	0.021633662
106	0x3d02628e	0.03183227
107	0xbd349a6a	-0.044092573
108	0xbd058802	-0.03260041
109	0x3d7debac	0.061992332
110	0x3d161a26	0.03664603
111	0xbd8cbb82	-0.06871702
112	0x3c899fa8	0.016799763
113	0xbd899cc9	-0.067193575
114	0xbd520486	-0.051273845
115	0x3d7da3b4	0.061923698
116	0xbd1f22d4	-0.038851574
117	0x3c7bbdc0	0.015365064
118	0x3d711138	0.05885431
119	0xbc00b700	-0.007856131
120	0xbd08ff65	-0.03344669
121	0xbc4f0d84	-0.0126375
122	0x3c785100	0.015156031
123	0x3c41b438	0.011822753
124	0x3d816898	0.06318778
125	0xbd828cb3	-0.063744925
126	0x3d28e50c	0.04123406
127	0xbd83ac29	-0.06429321
128	0x3c104c10	0.008807197
129	0xbd821881	-0.0635233
130	0x3d16d4d8	0.036824077
131	0xbd45fadb	-0.048334938
132	0xbd83c326	-0.06433706
133	0xbd1e544e	-0.038654618
134	0x3d816216	0.063175365
135	0x3d8f87d2	0.070083275
136	0xbc1aa7f8	-0.009439461
137	0xbd5f567e	-0.054525845
138	0x3c595928	0.013265885
139	0xbc89dcc0	-0.016828895
140	0xbd71a221	-0.05899251
141	0x3d4454b0	0.047932327
142	0x3d55ed4c	0.052228257
143	0x3d4affac	0.049560234
144	0x3b38b560	0.002818428
145	0x3b319ba0	0.0027100816
146	0x3d1ed204	0.038774505
147	0x3ca14d84	0.019690283
148	0x3d3684d6	0.044560276
149	0xbd373a94	-0.0447336
150	0x3baffd20	0.005370751
151	0xbbb50040	-0.0055237114
152	0xbccb23de	-0.024797376
153	0xbd336c2c	-0.043804333
154	0xbd88ad16	-0.066736385
155	0x3be7eac0	0.007077545
156	0x3d39e9f8	0.045389146
157	0xbcabd546	-0.02097572
158	0xbd0322ed	-0.03201573
159	0x3b72eaa0	0.0037066117
160	0xbd80e00b	-0.06292733
161	0x3d58be48	0.05291584
162	0x3c4fcc38	0.012682967
163	0xbcba1c34	-0.022718526
164	0xbd77ee84	-0.0605302
165	0x3d847092	0.064667836
166	0x3cf8ae68	0.0303566
167	0xbd41d946	-0.04732635
168	0x3d23990e	0.039940886
169	0x3cc3d318	0.023904368
170	0xbb1f41e0	-0.002430074
171	0x3cedb7dc	0.029018335
172	0xbd49f31a	-0.049304105
173	0x3ce37820	0.027767241
174	0xbc5cc6cc	-0.013475131
175	0x3cf4088c	0.029789232
176	0xbd4923cc	-0.049106404
177	0x3d33451a	0.043767072
178	0xbbb1d580	-0.0054270625
179	0xbd1faf22	-0.03898538
180	0x3d8762c4	0.06610635
181	0x3cf1b390	0.029504567
182	0x3b335400	0.00273633
183	0x3cf80e34	0.03028021
184	0x3d124bc2	0.03571678
185	0xbc931b14	-0.017957248
186	0x3d0bd14c	0.034135148
187	0xbd8eb1ef	-0.06967532
188	0x3d3a999e	0.045556657
189	0xbc951d16	-0.018202346
190	0xbcd26216	-0.025681537
191	0xbd051117	-0.032487
192	0xbd8741b0	-0.06604326
193	0xbd3fb910	-0.04680735
194	0xbd48a6e1	-0.048987273
195	0xbd51cc2a	-0.051220097
196	0xbd6ae163	-0.05734385
197	0xbd5ba7a2	-0.053626664
198	0xbd028e03	-0.031873714
199	0x3d554a06	0.052072547
200	0x3c86dce0	0.016462743
201	0xbd5d2b19	-0.05399618
202	0x3ca79a1c	0.020459227
203	0x3d787fdc	0.06066881
204	0x3d686ee0	0.056746364
205	0xbd7d0432	-0.06177158
206	0x3d00a1c6	0.03140428
207	0xbc956242	-0.01823533
208	0x3d2e563c	0.04256271
209	0xbd906a28	-0.07051498
210	0x3cc80a44	0.024418958
211	0xbc3d314c	-0.011547398
212	0x3d06819c	0.03283845
213	0x3cb06a1c	0.021534972
214	0xbd40b31c	-0.047045812
215	0xbc047b18	-0.008085988
216	0xbccf7964	-0.025326438
217	0xbce36296	-0.02775697
218	0x3d32df20	0.04366982
219	0x3d83a0d0	0.06427157
220	0xbc290cb4	-0.01031797
221	0x3c8d8700	0.017276287
222	0x3cdd57b0	0.027019352
223	0x3befbc60	0.007316157
224	0xbd7a3450	-0.061085045
225	0x3cb07994	0.021542348
226	0x3d0abd76	0.03387209
227	0xbd5cec3d	-0.053936232
228	0x3d7c61a4	0.061616555
229	0xbc92eb56	-0.017934483
230	0x3d43fc86	0.047848247
231	0xbd88d93c	-0.06682059
232	0x3ac2fe80	0.0014876872
233	0x39a15400	0.00030770898
234	0xbc0a8b88	-0.008456118
235	0x3d050ff2	0.03248591
236	0x3d47788e	0.048698954
237	0xbab673c0	-0.0013919994
238	0xbcd40d00	-0.025885105
239	0xbd6f0a3d	-0.058359373
240	0xbd84aae9	-0.06477911
241	0x3d480d62	0.048840888
242	0x3d73bdf4	0.059507325
243	0xbb6a25a0	-0.0035727993
244	0x3be613a0	0.0070213825
245	0xbc5fd54c	-0.013661694
246	0x3d7cf5ac	0.06175773
247	0xbd23519b	-0.039872747
248	0xbd0f021b	-0.034914117
249	0xbd2f6d54	-0.042828873
250	0x3cac4ddc	0.02103322
251	0x3d559a86	0.05214932
252	0x3c309878	0.010778539
253	0x3d541140	0.051774263
254	0x3c543298	0.012951516
255	0x3cc45b94	0.02396945

bias f4 [128]
0	0xbcff01b8	-0.03112875
1	0xbd6ebf6d	-0.058288027
2	0xbcd95c4b	-0.026533267
3	0xbd8a7ed5	-0.067624725
4	0xbd619361	-0.055072192
5	0x3c348a19	0.011019253
6	0x3d7bba97	0.061457243
7	0x3d4b355a	0.049611427
8	0x3d171598	0.036885828
9	0x3d916c36	0.07100718
10	0x3d8f4725	0.069959916
11	0xbd7c1440	-0.06154275
12	0x3d942fbe	0.072356686
13	0xbd36599c	-0.044519052
14	0xbd330fde	-0.043716304
15	0x3d825617	0.063640766
16	0xbd268cee	-0.040661745
17	0x3c93caea	0.018041093
18	0xbd67baf0	-0.056574762
19	0xbcf57516	-0.029963057
20	0x3c2b6c6b	0.010462861
21	0xbc816647	-0.01579584
22	0xbd4c09e4	-0.04981412
23	0xbd6a1a48	-0.05715397
24	0x3c5a941a	0.013340974
25	0xbcad1ae7	-0.021130992
26	0xbce3213b	-0.027725806
27	0xbd2cd466	-0.042194746
28	0xbcbc4840	-0.02298367
29	0x3ce75d78	0.028242812
30	0x3d736c64	0.05942954
31	0xbcf71fd9	-0.030166553
32	0x3bfba1ff	0.0076792235
33	0xbd8a549a	-0.06754418
34	0xbbdfb006	-0.0068264036
35	0xbd05844d	-0.032596875
36	0xbb98d860	-0.004664466
37	0x3b83bf00	0.0040205717
38	0x3d953031	0.072845824
39	0x3d37fb05	0.044917125
40	0xbbaa33bc	-0.0051941555
41	0x3d68f607	0.056875255
42	0xbbef2e98	-0.0072992556
43	0xbd2de397	-0.042453375
44	0x3c5ea0e0	0.01358816
45	0x3c4c6073	0.012474167
46	0x3d56803a	0.05236838
47	0x3c9f30fe	0.019432541
48	0x3d02c460	0.03192556
49	0xbd0dd5f7	-0.03462788
50	0x3c9af4ec	0.018915616
51	0x3d528156	0.051392876
52	0x3cdd1b71	0.026990624
53	0xbcaacbfc	-0.02084922
54	0x3ca37e21	0.019957604
55	0xbba214b9	-0.004946318
56	0x3d4380f5	0.047730405
57	0xbd21c744	-0.039496675
58	0x3ca44a88	0.02005507
59	0x3b4cf17c	0.0031271866
60	0x3d10b9ca	0.035333432
61	0xbd8f6d93	-0.070033215
62	0xbd4cb686	-0.049978755
63	0xbd248fe1	-0.040176276
64	0xbd0ce5dc	-0.0343989
65	0x3d16c7f7	0.036811795
66	0xbba05b0e	-0.004893667
67	0xbd0245c9	-0.031804834
68	0x3d8d35e0	0.068950415
69	0xbd4a5a24	-0.04940237
70	0x3cf41d76	0.029799204
71	0x3c19ccbb	0.00938719
72	0x3d606c68	0.054790884
73	0xbd4677c4	-0.04845406
74	0xbcbcd738	-0.023051843
75	0x3b089e7b	0.0020846415
76	0xbcfdfa0d	-0.031003023
77	0xbd544baf	-0.05182999
78	0x3d793a7f	0.0608468
79	0xbcfa3514	-0.030542888
80	0x3d5089c0	0.05091262
81	0xbd8f1728	-0.069868386
82	0xbcc66f6e	-0.024223056
83	0xbcd68780	-0.026187658
84	0xbca4253a	-0.020037282
85	0xbc4468de	-0.011987893
86	0xbd272800	-0.04080963
87	0x3d8948e4	0.06703356
88	0x3ccb1cbc	0.024793975
89	0x3d359304	0.04432966
90	0x3cbf185f	0.02332705
91	0xbcd3b0a9	-0.025841074
92	0xbd8ab84c	-0.06773433
93	0xbd8eb7b4	-0.06968632
94	0x3be00a5a	0.0068371715
95	0x3d1be318	0.03805837
96	0x3c32405c	0.010879602
97	0xbd39180e	-0.045188956
98	0x3d7b808d	0.061401892
99	0x3d3efd53	0.046628308
100	0x3d54721c	0.051866636
101	0xbcd65366	-0.026162814
102	0x3d8ee1b2	0.06976642
103	0xbd236005	-0.039886493
104	0xbd52f12f	-0.05149954
105	0x3d400805	0.046882648
106	0x3b6c3320	0.0036041215
107	0xbd88e45d	-0.06684182
108	0xbd89a181	-0.067202576
109	0xbcdc345a	-0.026880432
110	0x3d2c1359	0.04201064
111	0xbd73a94a	-0.05948762
112	0x3d92badb	0.07164546
113	0x3c5c9937	0.013464264
114	0xbd5d9f8f	-0.054107245
115	0x3d5e22b5	0.054232318
116	0x3d0c6b6e	0.03428214
117	0x3d7b2c15	0.061321337
118	0x3ca947b2	0.02066407
119	0x3c854fa0	0.01627332
120	0x3d37234b	0.044711392
121	0xbd563f06	-0.052306198
122	0x3d93e8a4	0.07222107
123	0x3b851172	0.0040609175
124	0xbc6c4a20	-0.01442197
125	0x3be57e5a	0.0070035877
126	0xbc4c1428	-0.0124559775
127	0xbd01ed4e	-0.031720452

weight f4 [128, 128]
0	0xbd196f38	-0.037459582
1	0x3d960333	0.07324829
2	0xbc89fe2c	-0.016844831
3	0x3c8f8ee8	0.017524198
4	0x3c0165d4	0.007897813
5	0xbd2555da	-0.040365078
6	0xbd9cab5d	-0.076498725
7	0xbba6f81c	-0.005095495
8	0xbd1f5520	-0.03889954
9	0x3c86e9cb	0.016468903
10	0x3d9b7d0b	0.075922094
11	0xbd2d7f39	-0.042357657
12	0x3daed2ce	0.085363016
13	0x3d692952	0.05692417
14	0x3c466af0	0.012110457
15	0x3d240ace	0.040049367
16	0x3c47fbd8	0.01220604
17	0x3d4b3f16	0.04962071
18	0x3d315fb2	0.043304153
19	0xbd3a4496	-0.045475565
20	0xbc7b40cd	-0.015335274
21	0x3d3aa3ee	0.04556649
22	0x3da1dbb5	0.07903234
23	0x3a4e6300	0.00078730285
24	0xbd9f594b	-0.07780703
25	0xbd85dfc5	-0.06536821
26	0xbd336e7b	-0.043806534
27	0x3c4045c8	0.011735387
28	0x3c1fde98	0.00975766
29	0xbd88403f	-0.06652879
30	0xbd7b697c	-0.061379895
31	0x3cfd1ff9	0.030899035
32	0x3c5c6509	0.013451823
33	0x3d5975d2	0.053090878
34	0x3db071f1	0.086154826
35	0xbd0a3c32	-0.033748813
36	0xbb9ddc10	-0.0048174933
37	0xbd4abbca	-0.049495496
38	0xbc950681	-0.018191578
39	0xbd232a0a	-0.039835013
40	0x3d99a903	0.075029396
41	0x3d2b9f03	0.041899692
42	0x3c82da4e	0.015973236
43	0xbcede321	-0.029038968
44	0x3d64a2a2	0.05581916
45	0xbd5f0235	-0.054445464
46	0xba7b3bdf	-0.00095838116
47	0xbc299b63	-0.0103519885
48	0x3dab6f75	0.08370868
49	0xbd506abb	-0.050883036
50	0x3cb3cfdf	0.021949707
51	0xbcaa53b5	-0.020791868
52	0xbd930b37	-0.071798734
53	0x3d336515	0.04379757
54	0xbd48e2c9	-0.049044404
55	0xbd2b5f56	-0.041838966
56	0x3d397d7e	0.045285694
57	0xbd1b11c2	-0.037858732
58	0x3d9e9343	0.07742932
59	0x3d659397	0.056048956
60	0x3c5f3870	0.013624296
61	0x3cf5d06c	0.03000661
62	0xbd503922	-0.050835736
63	0x3daad197	0.08340757
64	0xbb95ee20	-0.004575506
65	0xbd38d4bd	-0.045124758
66	0xbdac6571	-0.08417786
67	0x3d67b78b	0.056571525
68	0xbd4baa7b	-0.04972313
69	0xbd4f3bef	-0.050594267
70	0xbc760ef3	-0.015018213
71	0xbd05bc3e	-0.032650225
72	0xbd8d07c1	-0.068862446
73	0x3cddf92c	0.027096353
74	0xbda5f112	-0.08102621
75	0xbd5f6512	-0.054539748
76	0x3ce19ccc	0.027540587
77	0xbbfecf20	-0.007776156
78	0xbda9ee7f	-0.08297443
79	0x3d9aaf15	0.075529255
80	0x3c4fd7ed	0.012685758
81	0x3cb40ab4	0.02197776
82	0x3c73ca50	0.014879778
83	0xbdadf63e	-0.084942326
84	0xbcfe0cda	-0.031011987
85	0xbd100234	-0.03515835
86	0x3daa82a9	0.08325703
87	0x3c84982e	0.016185846
88	0xbd2ad4b9	-0.041706774
89	0x3d870782	0.06593229
90	0x3d852b27	0.06502371
91	0xbbeeecd0	-0.007291414
92	0x3d3adf7a	0.04562328
93	0xbd987440	-0.07444048
94	0x3a1f202f	0.00060701644
95	0xbc1e0783	-0.009645346
96	0xbd894486	-0.06702523
97	0x3c56ba58	0.013105951
98	0x3da516eb	0.08061012
99	0x3d60f18e	0.054917865
100	0xbda7532b	-0.0817016
101	0xbdafc3d0	-0.0858227
102	0xbd7fc12d	-0.062440086
103	0xbda2d908	-0.07951552
104	0x3d64ae12	0.05583007
105	0xbd9001d1	-0.070315965
106	0xbc81774c	-0.015803955
107	0xbd811774	-0.063033015
108	0xbd0c5503	-0.03426076
109	0xbd49e089	-0.0492864
110	0xbda36897	-0.07978933
111	0xbd18c858	-0.037300438
112	0x3da1e0f0	0.079042315
113	0x3d85dc62	0.06536175
114	0xbd2c7abe	-0.042109244
115	0xbd6954f5	-0.056965787
116	0x3c7a8c96	0.015292307
117	0x3d19f107	0.037583377
118	0xbcc22b20	-0.023702204
119	0xbc2b36b3	-0.010450053
120	0x3d2739f3	0.04082675
121	0x3d999527	0.07499152
122	0x3d8868ec	0.06660637
123	0x3da25c79	0.07927794
124	0x3d9e22af	0.07721459
125	0x3c3fc8c3	0.01170558
126	0xbd93a32f	-0.07208859
127	0xbd9222fc	-0.07135579
128	0x3b99e650	0.004696645
129	0xbd100067	-0.035156634
130	0x3d312e2e	0.04325693
131	0x3c9895d0	0.018626124
132	0xbd6622d0	-0.056185544
133	0xbd5f97f9	-0.05458829
134	0xbd596c10	-0.053081572
135	0x3d393df2	0.04522509
136	0xbdad43ee	-0.08460222
137	0x3d9c9a21	0.07646585
138	0x3befb29f	0.0073149945
139	0x3d07c4cc	0.033146665
140	0xbd9cb8c7	-0.07652431
141	0x3d4e4b42	0.05036474
142	0x3d53e626	0.05173316
143	0xbd208928	-0.039193302
144	0xbcd40808	-0.025882736
145	0x3d2f961e	0.042867772
146	0x3daab0a9	0.083344765
147	0xbc104f00	-0.008807898
148	0xbd96ca27	-0.07362776
149	0x3ce0f808	0.02746202
150	0xbd9acbc4	-0.075583965
151	0x3da50691	0.08057893
152	0xbd9b71a5	-0.07590035
153	0x3c48feec	0.012267809
154	0xbc9010f5	-0.01758621
155	0x3b665ae0	0.003514938
156	0x3d1d65fa	0.03842733
157	0x3d22e866	0.039772414
158	0xbd95c5d9	-0.07313127
159	0x3dad40bc	0.08459613
160	0xbb4c665a	-0.0031188936
161	0x3d8a2ff1	0.06747425
162	0xbc0127c0	-0.007883012
163	0xbd939a43	-0.072071575
164	0x3d42ea22	0.047586568
165	0xbd8ecb1a	-0.06972332
166	0xbd685368	-0.056720167
167	0x3d886f3b	0.066618405
168	0x3d08c2b3	0.033388805
169	0xbdad9bf6	-0.08477013
170	0x3d71fdf2	0.05908007
171	0x3c8aacb8	0.016928062
172	0x3dade2d1	0.084905274
173	0xbd67f753	-0.05663235
174	0x3cfb184a	0.03065123
175	0x3d39a57b	0.04532383
176	0xbc03b526	-0.008038795
177	0x3d2d5bae	0.04232376
178	0xbda219dc	-0.079150885
179	0xbd8f17f0	-0.069869876
180	0x3d0dbf06	0.034606002
181	0x3cc3158e	0.023813989
182	0x3c73bc00	0.014876366
183	0x3d7856ce	0.06062966
184	0xbd502da0	-0.05082476
185	0x3da14df5	0.07876197
186	0xbd1a0c1d	-0.03760921
187	0xbd502a6d	-0.05082171
188	0x3d79071e	0.060797803
189	0x3b4924c0	0.003069207
190	0x3d3e230a	0.046420135
191	0x3d8b7803	0.0681
192	0x3d9bc913	0.07606711
193	0x3d923168	0.0713833
194	0x3da11560	0.07865405
195	0xbd3d4cc4	-0.046215788
196	0x3c6174d4	0.013760764
197	0xbd74e996	-0.059793077
198	0x3c95f065	0.018303106
199	0xbc940224	-0.018067427
200	0x3d83ba26	0.06431989
201	0x3d89998f	0.06718742
202	0x3d97bc50	0.07408965
203	0x3d4910e3	0.04908837
204	0x3d929838	0.0715794
205	0xbc1893d0	-0.009312585
206	0xbd60fc45	-0.054928083
207	0x3d3aa432	0.045566745
208	0xbd10cf37	-0.035353865
209	0xbd97b8cc	-0.07408294
210	0x3d97b629	0.07407791
211	0x3d58366a	0.05278627
212	0xbd7f302e	-0.062301807
213	0x3d8b2291	0.067937024
214	0xbcd511cc	-0.026009463
215	0x3d9d2dd8	0.076747596
216	0xbd38877b	-0.04505108
217	0x3d609089	0.05482534
218	0xbdac2e76	-0.08407299
219	0x3bb9f6f0	0.005675189
220	0xbcc2c63c	-0.023776166
221	0xbdb12358	-0.086493194
222	0x3d6ee08b	0.05831961
223	0x3c96e910	0.01842168
224	0x3a34c980	0.0006896481
225	0x3c2e33b0	0.01063244
226	0x3d25c7b3	0.04047365
227	0x3d0ab24f	0.033861455
228	0x3cdd597b	0.027020207
229	0xbc4e2360	-0.012581676
230	0xbd86bb15	-0.06578652
231	0x3d8070b7	0.06271499
232	0x3d090eca	0.03346137
233	0x3d70a0ba	0.05874703
234	0xbd914c9f	-0.070946924
235	0xbc7f4ac0	-0.015581787
236	0x3d9969d3	0.074908875
237	0x3d424cd6	0.047436558
238	0xbbc96e65	-0.0061471933
239	0xbc507527	-0.012723244
240	0xbceefc69	-0.029173093
241	0xbd8042c5	-0.06262735
242	0xbb5da9e0	-0.0033823177
243	0xbcf5b4c4	-0.029993422
244	0xbd48bfde	-0.049011104
245	0xbc2f2217	-0.01068928
246	0xbd8bfdb2	-0.06835498
247	0x3b593052	0.0033140373
248	0x3cfdccc5	0.03098143
249	0xbd7cba23	-0.06170095
250	0xbd10b4fa	-0.035328843
251	0xbb98b316	-0.0046600206
252	0xbd273df2	-0.04083056
253	0xbdb00604	-0.085948974
254	0xbd8fc8ca	-0.07020719
255	0xbd360d5a	-0.044446327

bias f4 [128]
0	0x3dabeeee	0.083951816
1	0x3d453cf5	0.048153836
2	0xbc673e02	-0.014113905
3	0xbd6ecc82	-0.058300503
4	0x3bf52d8b	0.007482236
5	0xbc91a2f2	-0.017777894
6	0x3c1fe27e	0.00975859
7	0x3d78c4bf	0.060734507
8	0xbd4b20ae	-0.049591713
9	0x3d979496	0.074013874
10	0xbcb17aa4	-0.021664925
11	0xbd0aa8fe	-0.03385257
12	0x3ca09bd6	0.019605558
13	0xbc458283	-0.012055042
14	0x3b946439	0.004528549
15	0x3cc2baea	0.023770768
16	0xbd30f250	-0.043199837
17	0x3c80dbf1	0.015729876
18	0x3d962e67	0.07333069
19	0xbd1ef34f	-0.038806256
20	0x3ce34c21	0.027746262
21	0xbd012c53	-0.03153641
22	0xbd6ad03d	-0.057327498
23	0x3c517ff7	0.012786857
24	0xbd70eddc	-0.05882059
25	0xbd8d2a02	-0.06892778
26	0xbc873dd4	-0.016508974
27	0xbd0a32ea	-0.03373996
28	0xbd2aab72	-0.04166741
29	0xbd4d4444	-0.05011393
30	0x3da5994b	0.08085879
31	0x3d8b12d1	0.06790698
32	0xbd516f5c	-0.05113159
33	0xbc52d327	-0.012867725
34	0xbd7348cb	-0.059395593
35	0x3d0b4c7a	0.03400848
36	0xbb9f9a1e	-0.004870667
37	0xbd101dea	-0.03518478
38	0x3d967d9e	0.07348178
39	0xbd32e286	-0.04367306
40	0xbda23f65	-0.07922248
41	0xbbced104	-0.0063115377
42	0x3d48d938	0.04903528
43	0xbd96aaea	-0.07356818
44	0x3d691712	0.056906767
45	0x3d30c4b7	0.043156352
46	0x3c5844f9	0.013200038
47	0xbd29cf43	-0.041457426
48	0xbd35f2cd	-0.044421006
49	0xbd38d2f0	-0.04512304
50	0xbb8d9825	-0.0043211156
51	0xbda230a9	-0.079194374
52	0x3b3af8ec	0.0028529717
53	0x3d1094ce	0.03529816
54	0xbc5fe3df	-0.013665169
55	0xbca1298c	-0.019673131
56	0xbcc687dc	-0.024234705
57	0xbd471b5e	-0.048610084
58	0x3d508753	0.050910305
59	0x3ca965f1	0.020678492
60	0xbd6e0bf5	-0.058116872
61	0xbd2f81d7	-0.042848434
62	0x3c9c17a3	0.01905424
63	0xbd5b733e	-0.0535767
64	0x3c31aa21	0.010843785
65	0xbd45aaaf	-0.04825848
66	0xbd1cc154	-0.03827031
67	0x3cb3dc18	0.021955535
68	0xbd38b69e	-0.045096032
69	0x3cee0201	0.02905369
70	0x3d5a711f	0.053330537
71	0x3d6eeecc	0.058333203
72	0x3d6293cc	0.05531673
73	0x3cf3aa7d	0.029744381
74	0x3a34ea07	0.0006901328
75	0x3d1ed858	0.03878054
76	0xbd6d5b92	-0.057948656
77	0xbda3dd9a	-0.080012515
78	0xbd276de4	-0.040876284
79	0x3d733488	0.05937627
80	0xbbff3c11	-0.007789143
81	0xbd14e453	-0.03635056
82	0xbc961118	-0.018318698
83	0xbb579379	-0.0032894297
84	0xbd1ddf6b	-0.038543146
85	0x3da6981a	0.0813448
86	0xbca68c79	-0.020330654
87	0xbd4d6de5	-0.05015363
88	0x3dc22b8f	0.094809644
89	0x3da22722	0.0791762
90	0x3d76903d	0.06019615
91	0xbd8907ed	-0.06690965
92	0x3da7e3bf	0.08197736
93	0x3d000fe4	0.031265154
94	0xbcf2d110	-0.029640704
95	0xbd65aa0c	-0.056070372
96	0x3d140651	0.036138836
97	0x3da66549	0.08124787
98	0x3d23a2f0	0.03995031
99	0xbd1d2772	-0.038367696
100	0xbd8dca9d	-0.06923411
101	0x3da07403	0.078346275
102	0x3d26fb74	0.040767148
103	0xbb4c05f8	-0.0031131487
104	0xbd0b3a0a	-0.033990897
105	0x3d9e65dc	0.07734272
106	0x3d38c01a	0.045105077
107	0x3dac9420	0.0842669
108	0xbc2e9bb9	-0.010657244
109	0x3d38aed1	0.045088593
110	0xbd2b8e13	-0.04188354
111	0xbd8520ee	-0.065004215
112	0x3d257618	0.040395826
113	0x3dad27be	0.08454846
114	0x3bfcb2f6	0.0077117635
115	0xbd4e8448	-0.050419122
116	0x3d4e1464	0.050312415
117	0x3d8d5922	0.06901766
118	0xbd3ff27a	-0.046862103
119	0xbd89eef9	-0.067350335
120	0x3d2bd06f	0.041946825
121	0xbc49bfe6	-0.012313819
122	0x3d0039b0	0.031305015
123	0xbd072118	-0.032990545
124	0x3d31b94a	0.043389596
125	0xbd78c906	-0.060738586
126	0x3c007cdc	0.007842269
127	0x3d84bf32	0.0648178
