examples/model-doom.pth (torch, 110383 bytes, 8 tensors)

weight f4 [8, 1, 6, 6]
0.15622534 0.21929632 0.059942953 0.2746511 0.17495018 -0.026704116 0.1306175 0.103866
0.23025434 0.31797042 0.36306122 0.19108173 0.19686496 0.34430447 0.14259169 0.22049217
0.13363868 0.28546104 0.19881284 0.11610703 0.06616584 0.14058624 0.28056604 0.27106938
0.1435929 -0.05451326 -0.012022235 0.15532798 0.14223939 0.11129379 -0.095699094 0.19857961
0.034412913 -0.08999133 -0.060689326 0.12288126 0.36812678 0.26057938 0.41937166 0.58174163
0.58204865 0.18376978 0.5130239 0.55978733 0.5402562 0.6422371 0.54680556 0.48433298
0.19753367 0.42852896 0.7434751 0.7627641 0.65200996 0.51426965 0.20583409 0.5601555
0.497224 0.5132071 0.45286027 0.118043385 0.1074931 0.18793358 0.22711448 0.23912936
0.38635477 0.32525435 0.09123556 0.29844227 -0.0070062163 0.22149028 0.031733457 0.045654073
0.08050782 -0.1051363 -0.010855206 -0.14502622 -0.0068715904 -0.09935226 0.08151026 0.19477512
-0.100085914 0.14208865 0.04009141 0.11281456 -0.05825776 0.21751593 0.14585124 0.1207078
0.16990535 0.17791837 0.24371903 0.32337302 0.18624236 0.05681494 0.273974 0.04415307
0.14345077 0.055837873 0.15580489 0.22751148 0.1767755 0.3169936 0.10778758 0.19250366
0.059203375 0.16406198 0.076811686 0.18190166 0.3380884 0.40760246 0.23477992 0.22853722
0.15247348 0.2962342 0.3988758 0.3689701 0.29100302 0.5039477 0.27776146 0.11122731
0.24657151 0.3080377 0.39838588 0.3778214 0.4008016 0.31662983 0.2971146 0.24043243
0.06946236 0.09724939 0.123315915 0.17803009 0.26627216 0.2110751 0.070559844 0.28684524
0.16914307 0.10321776 0.21091649 0.296903 0.27643138 0.1076193 0.008222751 -0.036228534
0.08481814 0.3337154 0.12896112 0.22073174 0.24125305 0.21012276 0.07442373 0.35917524
-0.0008654697 0.12557274 0.39675605 0.20812622 0.1919481 0.35208607 0.13159853 0.18053359
0.30255792 0.19011234 0.19544046 0.2927008 0.23168673 0.43550974 0.42817682 0.28791606
0.21445489 0.31281453 0.19910027 0.10199472 0.17233367 0.11972607 0.12597184 0.13781649
0.14598176 0.21952605 0.28962114 0.2550503 0.14454676 0.06583709 0.00056012307 -0.11853249
-0.1265954 0.072509944 -0.055159453 0.095119 -0.13313343 -0.03981009 -0.08472438 -0.15041141
0.055050943 -0.12956387 -0.09403262 0.1413457 0.042844985 0.0025461547 -0.0063798167 0.06953206
0.0059121125 0.062680535 0.09804483 -0.09164979 -0.0072193467 -0.007647202 0.15414228 0.1617183
0.10526494 -0.12750046 -0.08901152 -0.07648793 -0.0175234 -0.06842928 -0.15236257 0.034517728
0.066023394 -0.10689496 0.09110636 0.14843534 0.10625416 -0.053421658 0.03227466 -0.0589139
0.019304523 0.018257415 -0.12817492 0.1481429 -0.08200663 0.07977034 -0.0053305775 -0.103233315
-0.09619741 -0.14956792 -0.10632845 -0.15499434 -0.016167989 0.08952877 0.15338938 -0.114005245
-0.16536798 0.01920956 0.028727245 0.10015096 0.045096595 -0.08427695 -0.0010659456 0.1342743
0.082404755 -0.15096222 -0.014287855 -0.14990428 0.37174088 0.25658515 0.3021664 0.4663807
00000000: 89f9 1f3e 378f 603e be86 753d 129f 8c3e
00000010: 2426 333e 97c2 dabc 98c0 053e b3b7 d43d
00000020: cbc7 6b3e 05cd a23e 29e3 b93e eeaa 433e
00000030: f896 493e ad48 b03e 8e03 123e b3c8 613e
00000040: 94d8 083e f327 923e 9895 4b3e 86c9 ed3d
00000050: f581 873d d7f5 0f3e 5aa6 8f3e 9bc9 8a3e
00000060: 040a 133e 4c49 5fbd e9f8 44bc 4c0e 1f3e
00000070: 34a7 113e 00ee e33d e3fd c3bd 7458 4b3e
00000080: 8ef4 0c3d 604d b8bd 5f95 78bd 2ca9 fb3d
00000090: 1d7b bc3e a96a 853e e2b7 d63e 05ed 143f
000000a0: 2401 153f 252e 3c3e 8955 033f 394e 0f3f
000000b0: 3b4e 0a3f a769 243f 73fb 0b3f 7efa f73e
000000c0: 4446 4a3e 2668 db3e 6254 3e3f 8244 433f
000000d0: 20ea 263f 2da7 033f 2cc6 523e 5a66 0f3f
000000e0: 2594 fe3e 8a61 033f 4ddd e73e bbc0 f13d
000000f0: 5825 dc3d a971 403e b390 683e 54de 743e
00000100: 4bd0 c53e bd87 a63e b6d9 ba3d 6dcd 983e
00000110: 6794 e5bb 59ce 623e f1fa 013d c4ff 3a3d
00000120: 49e1 a43d b351 d7bd 09da 31bc c181 14be
00000130: 142b e1bb 3379 cbbd daee a63d 2173 473e
00000140: d8f9 ccbd b07f 113e e436 243d 520b e73d
00000150: b09f 6ebd 7fbc 5e3e 075a 153e a735 f73d
00000160: abfb 2d3e 3c30 363e 7b91 793e 2691 a53e
00000170: 51b6 3e3e c8b6 683d 5246 8c3e d9d9 343d
00000180: c2e4 123e 41b6 643d 518b 1f3e c5f8 683e
00000190: a304 353e fc4c a23e bcbf dc3d ae1f 453e
000001a0: 3d7f 723d ddff 273e 724f 9d3d 6e44 3a3e
000001b0: ec19 ad3e 45b1 d03e 266a 703e a905 6a3e
000001c0: 0222 1c3e 02ac 973e 7339 cc3e a6e9 bc3e
000001d0: 59fe 943e b702 013f c036 8e3e 25cb e33d
000001e0: 3e7d 7c3e 1eb7 9d3e 3cf9 cb3e ce71 c13e
000001f0: de35 cd3e 4e1d a23e 681f 983e eb33 763e
00000200: 4842 8e3d b02a c73d 0e8d fc3d 854d 363e
00000210: d354 883e 1224 583e ae81 903d 61dd 923e
00000220: d733 2d3e d563 d33d 7efa 573e ac03 983e
00000230: 6a88 8d3e 8267 dc3d b8b8 063c 5f64 14bd
00000240: 22b5 ad3d bfdc aa3e 620e 043e 8007 623e
00000250: 0a0b 773e 6c2a 573e 786b 983d d1e5 b73e
00000260: b0e0 62ba 2496 003e 9c23 cb3e 0a1f 553e
00000270: 0b8e 443e a044 b43e c4c1 063e ccdd 383e
00000280: dfe8 9a3e cfac 423e 8b21 483e e1dc 953e
00000290: 493f 6d3e 22fb de3e fe39 db3e bc69 933e
000002a0: 109a 5b3e 3a29 a03e f1e0 4b3e 9ce2 d03d
000002b0: 3d78 303e f132 f53d c3fe 003e c41f 0d3e
000002c0: 3e7c 153e 70cb 603e 3949 943e f495 823e
000002d0: 1104 143e 99d5 863d 39d5 123a 2ac1 f2bd
000002e0: 39a2 01be 1880 943d e1ee 61bd c0cd c23d
000002f0: 2154 08be e80f 23bd fa83 adbd 7305 1abe
00000300: 197d 613d 64ac 04be 2d94 c0bd edbc 103e
00000310: 397e 2f3d 63dd 263b c80d d1bb d366 8e3d
00000320: 65ba c13b a75e 803d bacb c83d e3b2 bbbd
00000330: 4590 ecbb 6195 fabb 79d7 1d3e 7b99 253e
00000340: 2595 d73d 7b8f 02be ac4b b6bd b4a5 9cbd
00000350: 3c8d 8fbc a624 8cbd ef04 1cbe 7662 0d3d
00000360: 4637 873d bfeb dabd f995 ba3d 6fff 173e
00000370: c89b d93d abd0 5abd 6f32 043d b44f 71bd
00000380: 8524 9e3c 9390 953c 4940 03be c6b2 173e
00000390: 18f3 a7bd a25e a33d 20ac aebb fd6b d3bd
000003a0: 2603 c5bd 5528 19be bbc2 d9bd d6b6 1ebe
000003b0: bb72 84bc dc5a b73d 1b12 1d3e 957b e9bd
000003c0: 3956 29be 5e5d 9d3c 6655 eb3c f21b cd3d
000003d0: 35b7 383d 6599 acbd 33b7 8bba 347f 093e
000003e0: d3c3 a83d d795 1abe 9b17 6abc 8280 19be
000003f0: d254 be3e 215f 833e 8eb5 9a3e 73c9 ee3e

bias f4 [8]
-0.49577913 -0.86847275 -0.06811697 -0.65055835 -0.5440532 -0.14559686 0.069343835 -0.78737086
00000000: c3d6 fdbe 3b54 5ebf e980 8bbd fe8a 26bf
00000010: 1247 0bbf 5817 15be 2404 8e3d 2391 49bf

weight f4 [8, 8, 3, 3]
-0.010098442 -0.15585467 -0.050755564 0.17847472 0.43832555 0.3143289 0.097661294 0.33548015
0.25212154 -0.13736545 -0.28435904 -0.24150433 0.6249461 0.7592175 0.88677233 0.59416795
0.748906 0.82349586 -0.12317965 -0.08836892 0.012047265 0.10030688 0.28973398 0.34479016
-0.111986324 0.017645614 -0.07140766 0.046272527 -0.0848648 -0.1433114 0.3594433 0.4859601
0.5701516 0.19300032 0.549888 0.507721 -0.07355215 -0.02289677 0.066114515 0.28342092
0.6631209 0.6422989 0.087440364 0.37086222 0.30854014 -0.027364423 -0.024337286 -0.034578737
-0.012012273 0.051927917 0.11704994 0.036467575 0.0298023 0.048357822 0.06803374 0.032210235
-0.00015368496 -0.010597037 0.11033203 -0.060212553 -0.060222775 0.117961966 0.088463284 -0.02838371
-0.04840671 0.05862733 0.5284806 0.82625115 0.75738215 0.33671057 0.41760498 0.54068387
-0.22797658 0.007040835 -0.09658574 0.3173378 0.1408611 0.046569444 0.28515792 0.28831172
0.052782163 -0.45280448 -0.31235322 0.025780234 0.782501 0.56297195 0.16932997 0.71100986
0.43791917 -0.023994729 -0.0860433 -0.058459967 0.10543313 0.3450634 0.16606489 0.15242636
-0.10905015 0.09925348 -0.0159073 -0.13593186 -0.10538752 0.016406775 0.45826894 0.48554534
0.12692323 0.329152 0.27096048 0.14556344 -0.1411519 -0.12389732 -0.13048132 0.51558137
0.45144162 0.0059249573 0.12702012 0.16901672 0.10778135 -0.036667544 0.10677747 -0.019145839
-0.034988865 -0.05067064 0.023157664 -0.08668726 -0.045533106 0.10411308 0.070059605 -0.0012039841
0.09692966 -0.036523946 0.062116534 -0.048286643 0.04042358 -0.045536246 0.07554569 -0.16436774
-0.22122604 0.019604078 0.708687 0.42955157 0.03749382 0.38799506 0.47401592 0.07585674
0.01830662 0.02433841 0.14393656 0.04706779 0.0322012 0.047227282 0.046563808 0.03276469
0.04527018 0.008216695 0.13522309 0.21676807 0.08269844 -0.05134567 -0.2400801 0.06387567
-0.13403788 -0.26208514 0.08804212 -0.053468417 0.06952088 0.09829599 0.0010094093 -0.03881744
0.029820153 -0.026842006 -0.11837888 0.050665345 0.15944129 0.2663134 -0.0121062985 0.05172407
-0.18538424 -0.07251537 0.004537618 -0.18224728 0.0009608294 0.076564565 0.20261276 -0.052174453
-0.115634546 -0.04657473 0.12157705 -0.0190661 -0.019890314 -0.07725195 -0.06264789 -0.094227724
0.046115406 -0.07184103 -0.05343268 0.030248009 0.013914071 0.059304945 0.09676142 -0.09630527
0.06232346 -0.07650971 -0.089424655 -0.026365764 -0.017003715 0.019258518 -0.10089927 -0.025773348
0.11767906 0.18713416 0.02996974 0.03118289 -0.16553308 0.09654845 0.081229284 -0.088485375
0.16497058 0.090084925 0.15221407 0.014776512 0.054247413 0.03691804 0.124308504 -0.084412865
-0.043708064 0.32190052 0.18327172 0.18670587 0.21573572 0.026587881 -0.0069651743 -0.02117445
-0.009373675 -0.19420616 -0.05231561 0.09667149 -0.049276363 0.07820085 0.09377337 -0.08625577
-0.05590012 -0.063714005 -0.124075405 0.13355486 0.13752131 -0.07123636 0.0129184965 0.19554085
-0.05302052 -0.057358406 -0.098477624 -0.02542367 0.18814933 -0.004804399 0.09140825 0.08025723
00000000: f073 25bc 5e98 1fbe 11e5 4fbd 14c2 363e
00000010: 356c e03e b8ef a03e a502 c83d 0ec4 ab3e
00000020: 1316 813e 87a9 0cbe 8297 91be e94c 77be
00000030: 78fc 1f3f 145c 423f 8303 633f 641b 183f
00000040: 4eb8 3f3f a0d0 523f 9d45 fcbd c4fa b4bd
00000050: e461 453c b26d cd3d 0358 943e 5688 b03e
00000060: 1659 e5bd 898d 903c 2e3e 92bd 4388 3d3d
00000070: 99cd adbd 39c0 12be f408 b83e c3cf f83e
00000080: 75f5 113f e0a1 453e 76c5 0c3f 01fa 013f
00000090: 82a2 96bd 0292 bbbc 0c67 873d 8c1c 913e
000000a0: 4bc2 293f b36d 243f ef13 b33d a7e1 bd3e
000000b0: f9f8 9d3e 5b2b e0bc fd5e c7bc 6fa2 0dbd
000000c0: 20cf 44bc 5eb2 543d e1b7 ef3d 065f 153d
000000d0: f423 f43c da12 463d 4655 8b3d e1ee 033d
000000e0: 7e26 21b9 329f 2dbc c2f5 e13d 70a1 76bd
000000f0: 28ac 76bd 0b96 f13d 3d2c b53d f484 e8bc
00000100: 1d46 46bd 3623 703d 814a 073f 3285 533f
00000110: cce3 413f 5465 ac3e 52d0 d53e 426a 0a3f
00000120: b172 69be ceb6 e63b bfce c5bd 1a7a a23e
00000130: e43d 103e 9abf 3e3d 3800 923e 989d 933e
00000140: 1c32 583d fdd5 e7be c3ec 9fbe 1231 d33c
00000150: fc51 483f ee1e 103f d664 2d3e be04 363f
00000160: f136 e03e 9890 c4bc 7837 b0bd b873 6fbd
00000170: 53ed d73d 26ac b03e ea0c 2a3e a815 1c3e
00000180: af55 dfbd 6945 cb3d 0750 82bc b931 0bbe
00000190: 69d5 d7bd 8067 863c 3aa2 ea3e 6699 f83e
000001a0: 2af8 013e 9c86 a83e 55bb 8a3e 950e 153e
000001b0: 208a 10be e1bd fdbd e59c 05be 24fd 033f
000001c0: 5b23 e73e 2526 c23b 9011 023e b812 2d3e
000001d0: 78bc dc3d b530 16bd 25ae da3d bcd7 9cbc
000001e0: 7c50 0fbd 048c 4fbd 24b5 bd3c 1789 b1bd
000001f0: ec80 3abd 3d39 d53d 697b 8f3d 01cf 9dba
00000200: 0f83 c63d 229a 15bd e86d 7e3d 37c8 45bd
00000210: 3293 253d 3784 3abd b3b7 9a3d 0450 28be
00000220: 1489 62be bb98 a03c 836c 353f 2fee db3e
00000230: 1f93 193d 4aa7 c63e 37b2 f23e c75a 9b3d
00000240: c4f7 953c 5861 c73c 1b64 133e 28ca 403d
00000250: 68e5 033d 6571 413d b1b9 3e3d 4534 063d
00000260: 396d 393d 519f 063c ec77 0a3e 73f8 5d3e
00000270: cd5d a93d d64f 52bd 8fd7 75be 3fd1 823d
00000280: 3a41 09be 0630 86be 6d4f b43d b301 5bbd
00000290: f760 8e3d 684f c93d 284e 843a 09ff 1ebd
000002a0: 6549 f43c c4e3 dbbc a070 f2bd 7786 4f3d
000002b0: 9444 233e 3b5a 883e 7f59 46bc 9edc 533d
000002c0: 5ed5 3dbe f082 94bd 4cb0 943b 089f 3abe
000002d0: 2be0 7b3a e2cd 9c3d b879 4f3e e1b4 55bd
000002e0: ced1 ecbd 25c5 3ebd 63fd f83d 8230 9cbc
000002f0: 03f1 a2bc 4536 9ebd 894d 80bd 77fa c0bd
00000300: 82e3 3c3d 6421 93bd 3adc 5abd acca f73c
00000310: d8f7 633c bee9 723d da2a c63d b33b c5bd
00000320: e246 7f3d 1fb1 9cbd 4624 b7bd 04fd d7bc
00000330: 604b 8bbc 0ac4 9d3c 47a4 cebd a122 d3bc
00000340: b801 f13d 19a0 3f3e 1a83 f53c 4373 ff3c
00000350: 8181 29be 32bb c53d 8a5b a63d d237 b5bd
00000360: 0cee 283e 727e b83d 01de 1b3e 2f19 723c
00000370: 8932 5e3d 5f37 173d 7595 fe3d a7e0 acbd
00000380: 3a07 33bd 25d0 a43e 95ab 3b3e d32f 3f3e
00000390: d3e9 5c3e d4ce d93c 1e3c e4bb 0a76 adbc
000003a0: 0b94 19bc fbdd 46be e548 56bd b4fb c53d
000003b0: 03d6 49bd c427 a03d 410c c03d dda6 b0bd
000003c0: 86f7 64bd 7d7c 82bd 3f1b febd 9bc2 083e
000003d0: 63d2 0c3e 5ee4 91bd 1aa8 533c dc3b 483e
000003e0: 0b2c 59bd a6f0 6abd a3ae c9bd 4d45 d0bc
000003f0: 38aa 403e 386e 9dbb 4034 bb3d e75d a43d

bias f4 [8]
0.07247605 -0.030169114 -0.15041567 0.11904281 0.015107152 -0.07787127 0.026881846 -0.05426838
00000000: 536e 943d 3825 f7bc 9106 1abe b7cc f33d
00000010: fd83 773c f97a 9fbd 5137 dc3c 8548 5ebd

weight f4 [128, 192]
-0.014549565 0.051165447 -0.019603059 0.012414228 -0.047655866 0.055055972 0.038103364 -0.14109595
0.040249694 -0.009526955 -0.05060149 -0.111130804 0.068936534 -0.05561894 0.044303387 0.038666688
-0.045471396 -0.022813145 0.039496507 -0.06843182 -0.037204873 -0.032344338 0.000985845 0.019174332
0.01590971 0.001807319 0.0057740323 -0.029531606 -0.0074507776 0.055700574 0.04269044 0.02343959
-0.08151355 0.057386264 -0.02399476 0.026136912 0.0107247885 -0.010253926 0.015873617 0.011628624
-0.02497894 0.07689893 -0.022862844 -0.009573979 -0.07421435 -0.040805623 0.031257574 -0.07336642
0.048565026 -0.06880459 -0.04960684 0.052330494 -0.06797184 -0.030637803 0.027460119 -0.06538315
-0.023853905 -0.06407353 -0.05814318 0.056854162 0.0057752063 -0.026688762 0.025046336 0.040863995
-0.010788701 0.03862833 0.01308408 0.052255128 -0.010738615 -0.011451901 -0.033546276 0.06462065
-0.015396675 0.07754329 -0.050430153 -0.05994098 -0.042433817 0.004628769 -0.050429784 -0.03858284
-0.015151292 0.05958663 -0.06392716 0.019682486 0.06373481 0.015726605 0.06674957 0.054267645
0.05864921 0.05980592 0.03661957 0.07231392 0.004624198 0.029842505 -0.033174142 -0.05589259
0.056245223 0.06503382 0.06042455 -0.01562217 -0.038293775 0.037091628 -0.016360942 0.019932128
0.0049402937 -0.03424135 -0.030167025 -0.06481568 0.042426713 -0.01741898 0.031086206 0.054283947
-0.0008866042 0.035553887 0.05819665 0.01223769 0.053176105 -0.033733707 0.05746059 -0.06664525
0.09627855 0.081215344 -0.03420853 0.008123502 0.062282525 -0.009464916 0.015371297 -0.038784184
0.039245628 0.034086183 -0.08785295 -0.092725724 -0.04214759 0.0677273 0.00450747 -0.012078451
0.033072747 0.07002517 0.05063059 0.0036433646 -0.07817902 0.010680931 0.05251831 -0.0783679
-0.014905911 -0.033798713 -0.013431964 -0.045706593 0.053277716 -0.051390193 -0.029351957 0.0412063
0.031122066 -0.015974797 -0.031123474 -0.015059523 0.06704497 0.022695817 0.02903524 0.06645645
0.06897159 -0.0017448291 -0.019813307 0.029465318 -0.007896408 0.029382229 0.009299926 -0.028591316
0.04964473 0.024288658 -0.0512752 0.022681016 0.013411975 0.0003780273 0.021383107 -0.037149645
0.03171943 0.0046888664 -0.03912412 -0.057621956 -0.013958174 -0.038476318 -0.0073137432 -0.05330939
-0.067833096 0.02186201 -0.0020216224 -0.067426406 -0.03443526 0.011615686 -0.0031847134 0.040021572
0.050010897 -0.062267065 -0.07387206 -0.031808086 -0.031689756 -0.030113855 -0.05797937 -0.04234726
-0.07656377 0.056235224 -0.05142189 -0.035857636 -0.050907977 0.046250194 0.05095175 0.011454089
-0.03532914 0.0129106995 0.0030050236 0.021266216 0.013622791 -0.015655525 0.03463601 -0.0057595875
0.048715837 -0.0042171134 0.0407327 -0.07118039 0.013416999 0.0062907785 -0.057389267 0.014097437
-0.051354155 0.049906436 -0.018478537 0.046402063 -0.02380444 0.011207744 0.069055684 0.04238185
0.0031072057 -0.06565997 0.04547308 -0.006833025 -0.014893873 -0.030984638 -0.04478792 -0.018180748
0.021499733 -0.018099392 0.028972117 0.07122159 -0.065338165 0.026482385 0.06413993 0.062543005
-0.047488526 -0.03247469 -0.028930655 0.0003049483 -0.07196642 -0.07168101 0.03107683 0.023429275
00000000: 4c61 6ebc dc92 513d 9896 a0bc 0c65 4b3c
00000010: cc32 43bd 5f82 613d 4612 1c3d 757b 10be
00000020: dddc 243d f216 1cbc 8243 4fbd 8c98 e3bd
00000030: 992e 8d3d b0d0 63bd 7877 353d f660 1e3d
00000040: 3740 3abd a2e2 babc 17c7 213d fb25 8cbd
00000050: 2364 18bd 7f7b 04bd 7837 813a 7d13 9d3c
00000060: 1555 823c 90e3 ec3a 1834 bd3b 44ec f1bc
00000070: a725 f4bb 4926 643d 2cdc 2e3d 6204 c03c
00000080: 93f0 a6bd dc0d 6b3d a990 c4bc 141d d63c
00000090: 06b7 2f3c 1500 28bc 6309 823c fc85 3e3c
000000a0: a2a0 ccbc 307d 9d3d dc4a bbbc 2edc 1cbc
000000b0: b1fd 97bd cc23 27bd f107 003d 2241 96bd
000000c0: 1fec 463d 6ce9 8cbd 8b30 4bbd 8058 563d
000000d0: d234 8bbd 21fc fabc 0bf4 e03c 9ae7 85bd
000000e0: 4469 c3bc fc38 83bd 8b27 6ebd e9df 683d
000000f0: f13d bd3b 64a2 dabc f92d cd3c 0161 273d
00000100: 17c3 30bc bd38 1e3d 9c5e 563c 7909 563d
00000110: 04f1 2fbc c1a0 3bbc d267 09bd d557 843d
00000120: 5642 7cbc 04cf 9e3d d98f 4ebd ac84 75bd
00000130: 15cf 2dbd eeac 973b 768f 4ebd 0a09 1ebd
00000140: 203d 78bc 1c11 743d 3eec 82bd 2a3d a13c
00000150: 6587 823d 15d5 803c 00b4 883d c047 5e3d
00000160: 273a 703d 0df7 743d 67fe 153d 5219 943d
00000170: 9686 973b 4578 f43c 9ce1 07bd a1ef 64bd
00000180: 6461 663d 7430 853d bc7f 773d 21f4 7fbc
00000190: efd9 1cbd 64ed 173d 6207 86bc b448 a33c
000001a0: 30e2 a13b a840 0cbd d620 f7bc 15be 84bd
000001b0: a2c7 2d3d 40b2 8ebc 80a8 fe3c d858 5e3d
000001c0: 006b 68ba f4a0 113d 9c5f 6e3d 9880 483c
000001d0: 30cf 593d 5b2c 0abd cc5b 6b3d 4e7d 88bd
000001e0: b02d c53d 3b54 a63d 3e1e 0cbd 7018 053c
000001f0: f61b 7f3d bc12 1bbc e4d7 7b3c 2adc 1ebd
00000200: 06c0 203d f49d 0b3d 3fec b3bd fce6 bdbd
00000210: f4a2 2cbd 9cb4 8a3d 66b3 933b b2e4 45bc
00000220: 4a77 073d 5b69 8f3d 0662 4f3d 84c5 6e3b
00000230: 521c a0bd 12ff 2e3c 701d 573d 597f a0bd
00000240: ec37 74bc 8570 0abd be11 5cbc d636 3bbd
00000250: bc39 5a3d 867e 52bd 8473 f0bc f0c7 283d
00000260: b4f3 fe3c 94dd 82bc a8f6 febc 38bc 76bc
00000270: e04e 893d 94ec b93c 50db ed3c 521a 883d
00000280: fa40 8d3d c0b2 e4ba 844f a2bc 4061 f13c
00000290: f05f 01bc 00b3 f03c b85e 183c 5638 eabc
000002a0: 4658 4b3d 02f9 c63c f205 52bd 8acd b93c
000002b0: e6bd 5b3c f731 c639 a02b af3c 3a2a 18bd
000002c0: 3cec 013d 10a5 993b 9d40 20bd 0005 6cbd
000002d0: d3b0 64bc 5899 1dbd 20a8 efbb f25a 5abd
000002e0: 14ec 8abd f517 b33c 327d 04bb db16 8abd
000002f0: fd0b 0dbd b84f 3e3c a0b6 50bb a9ed 233d
00000300: 3ad8 4c3d c00b 7fbd 3c4a 97bd 3249 02bd
00000310: 1ecd 01bd 55b1 f6bc c77b 6dbd 5274 2dbd
00000320: 77cd 9cbd e856 663d c29f 52bd 75df 12bd
00000330: e284 50bd d870 3d3d c8b2 503d eea9 3b3c
00000340: 4ab5 10bd 6687 533c eeef 443b 7d36 ae3c
00000350: 2032 5f3c 0440 80bc 7dde 0d3d ecba bcbb
00000360: 428a 473d b62f 8abb 55d7 263d 06c7 91bd
00000370: f9d2 5b3c e022 ce3b 0211 6bbd f0f8 663c
00000380: bc58 52bd b16a 4c3d 4d60 97bc 1710 3e3d
00000390: 8701 c3bc afa0 373c 116d 8d3d 9798 2d3d
000003a0: 43a2 4b3b bc78 86bd fb41 3a3d 91e7 dfbb
000003b0: 6e05 74bc 7fd3 fdbc 8a73 37bd cbef 94bc
000003c0: 3520 b03c 2d45 94bc ef56 ed3c a0dc 913d
000003d0: 04d0 85bd 96f1 d83c cc5b 833d 8c16 803d
000003e0: 5483 42bd 2e04 05bd fbff ecbc 78e1 9f39
000003f0: 2163 93bd 7ecd 92bd d694 fe3c c0ee bf3c

bias f4 [128]
-0.019130124 -0.032396317 -0.020549797 0.076759875 0.071694866 0.026087064 0.04492948 0.0015731156
0.07283369 0.05409268 -0.062998705 0.039385974 0.057503514 -0.0047149947 -0.057448488 0.04739914
-0.06542256 0.06762657 -0.037256524 -0.041985396 0.033965684 0.021783436 0.0044510067 0.0596336
-0.05474576 0.07301422 0.020942012 0.0025213743 0.02418425 0.10717037 0.052593652 -0.058302965
-0.070095904 -0.03463165 0.008471362 -0.06002674 0.037633575 -0.07091772 -0.016517725 -0.01675288
-0.055848088 0.081465684 0.076006405 0.06258166 -0.013571937 0.10612387 -0.04509828 -0.029222358
-0.05986289 -0.06666582 0.012874564 -0.05611403 -0.01385109 0.033094056 0.00020182878 -0.02178067
0.05942602 0.046841163 -0.0756844 -0.036983956 -0.054478716 0.00039019735 -0.00820981 0.057257697
0.028395727 -0.05083337 0.0003877857 -0.063368775 0.101650946 0.035202473 0.00365577 -0.068949096
0.07292889 -0.015884982 0.077485815 -0.058295798 -0.03531497 0.006335269 -0.048263215 -0.0041982383
0.020802557 0.02932637 -0.0014361232 -0.033388816 0.058995903 -0.035280306 0.05432221 -0.029043738
0.027039481 0.037223384 -0.066434324 -0.042933673 0.07299214 -0.009256409 0.04831651 -0.0128985895
-0.05030553 0.010031119 -0.021698644 0.051973518 -0.058174636 -0.04531163 0.016630778 -0.03489507
0.016294831 -0.073879376 -0.03547933 0.0045793653 -0.06543218 0.042206224 -0.06595811 -0.026287358
0.042061016 0.017070139 -0.010016116 0.0014397348 0.027071474 0.015630078 0.14779289 -0.040834468
-0.054821532 0.043325603 -0.0006221023 -0.022636335 0.08078385 0.025636593 -0.009372418 0.07373747
00000000: c7b6 9cbc 00b2 04bd 0c58 a8bc 4834 9d3d
00000010: c2d4 923d 8ab4 d53c f907 383d 0031 ce3a
00000020: d429 953d 4990 5d3d 7705 81bd 3053 213d
00000030: ce88 6b3d 3e80 9abb 1b4f 6bbd 9a25 423d
00000040: 43fc 85bd cd7f 8a3d 4c9a 18bd e1f8 2bbd
00000050: 9a1f 0b3d 2d73 b23c c0d9 913b 5d42 743d
00000060: 173d 60bd 7b88 953d 958e ab3c a43d 253b
00000070: 0c1e c63c 247c db3d 716c 573d 17cf 6ebd
00000080: 718e 8fbd ebd9 0dbd 78cb 0a3c 99de 75bd
00000090: aa25 1a3d 4f3d 91bd 2e50 87bc 563d 89bc
000000a0: f7c0 64bd 7bd7 a63d 3fa9 9b3d d02a 803d
000000b0: d45c 5ebc 7957 d93d f9b8 38bd ba63 efbc
000000c0: ca32 75bd 1788 88bd d6ef 523c d3d7 65bd
000000d0: afef 62bc a28d 073d 00a2 5339 606d b2bc
000000e0: b368 733d 85dc 3f3d 6c00 9bbd 7d7c 17bd
000000f0: 1325 5fbd 6793 cc39 7082 06bc 0c87 6a3d
00000100: 289e e83c a736 50bd b74f cb39 7dc7 81bd
00000110: 5f2e d03d 7830 103d a595 6f3b 2f35 8dbd
00000120: be5b 953d 3921 82bc e2b0 9e3d 93c7 6ebd
00000130: 6ea6 10bd 1798 cf3b a6af 45bd 6091 89bb
00000140: 206a aa3c db3d f03c 4c3c bcba b6c2 08bd
00000150: b0a5 713d 1582 10bd f780 5e3d 22ed edbc
00000160: e781 dd3c 8c77 183d b80e 88bd 38db 2fbd
00000170: e77c 953d 31a8 17bc 88e7 453d 9b54 53bc
00000180: 2c0d 4ebd 9059 243c 5bc1 b1bc 2fe2 543d
00000190: 8748 6ebd b098 39bd 453d 883c 22ee 0ebd
000001a0: bd7c 853c 124e 97bd c652 11bd 800e 963b
000001b0: 4f01 86bd 6fe0 2c3d 0c15 87bd 9658 d7bc
000001c0: 2c48 2c3d add6 8b3c a31a 24bc 7cb5 bc3a
000001d0: ffc4 dd3c a60a 803c 0557 173e 0b42 27bd
000001e0: 8b8c 60bd 3076 313d 9414 23ba d66f b9bc
000001f0: 0172 a53d d503 d23c c58e 19bc ac03 973d

weight f4 [8, 128]
-0.14479044 0.009642877 0.37575805 0.035571247 -0.29984426 0.02853497 -0.0028824427 0.06692623
0.014999989 0.04155791 0.040449925 -0.11332156 -0.18440184 -0.011439868 -0.079594456 -0.0038227525
-0.075428665 0.51261145 -0.01841575 0.022383213 0.0012490675 -0.08189188 -0.06744383 -0.043818045
-0.06875962 0.112250775 -0.003757579 -0.17209116 0.02475658 0.017756598 -0.06377545 0.07110715
0.07387788 -0.03927732 0.06747875 -0.0017397031 0.000119591066 0.032449983 -0.057706017 -0.004321113
-0.29498866 0.052650075 -0.0572895 -0.17090067 0.14096583 0.40360552 0.07067717 -0.042988878
-0.20190905 -0.005074881 0.018980099 0.06586603 -0.19804038 0.031946648 -0.0817396 -0.007376097
-0.052878913 0.05678597 -0.057857696 0.15349407 -0.14951435 -0.069421306 0.04837174 0.075723626
0.08355596 -0.08957085 -0.0447548 -0.011940084 -0.121521875 0.078881554 0.050181456 -0.0017442182
0.010005874 0.25376815 -0.052091535 -0.26100186 0.116125755 0.08456515 -0.04334346 0.048363782
-0.1908852 0.043704934 -0.2715516 0.08269554 0.025553903 0.056424156 0.036309183 -0.019293182
0.080288276 -0.052435547 -0.01617673 -0.24178036 0.01499699 0.026742078 -0.2932071 0.034160133
0.041736417 -0.29204983 -0.18377133 -0.12490517 -0.060977913 -0.030350883 -0.025613625 -0.23611483
0.08266288 -0.029877575 -0.38418302 -0.0010557994 -0.04300204 -0.07673729 -0.02456275 -0.01625473
-0.037244968 0.03850067 -0.008432719 -0.04227331 -0.18981655 -0.24534705 -0.10062666 -0.042956114
0.01780745 -0.048378207 -0.04342441 0.08161892 -0.19809222 0.053751692 0.30320027 0.038574122
-0.06664874 0.03703548 0.32016075 0.08775751 -0.4227001 0.138331 0.07207107 0.037404247
0.007821018 0.07404891 0.019556835 -0.15165113 -0.26268205 -0.055430133 -0.0066789757 0.019765891
0.03400401 0.65434194 -0.065654315 -0.06363866 -0.06410164 -0.13967572 -0.05912004 0.024505803
0.00165816 0.18045585 0.0318234 -0.13015202 -0.13998431 0.07868691 0.028899705 -0.042386316
0.045570083 0.08408969 -0.054628067 -0.061888218 -0.009164337 -0.021480963 -0.00017640406 0.028339013
-0.33237353 0.1668538 0.16743383 -0.081600964 0.29329163 0.6608408 -0.052944776 -0.023765586
-0.22413962 0.011321567 0.028141204 -0.0028191747 -0.14472649 0.058889836 0.04610402 0.007470846
0.06907904 -0.031476747 -0.031596333 0.17160828 -0.06695411 -0.09473752 -0.019225009 0.06814649
-0.0068310658 -0.13630265 0.039244533 0.008420324 -0.07115144 0.1953274 -0.013157218 0.025825903
0.085567586 0.14694963 0.069887675 -0.26463702 0.18599203 0.071412 -0.063534066 0.052704595
-0.12104207 -0.050047405 -0.41915852 -0.061925627 0.08682588 0.0062053124 0.083291024 0.021460965
-0.030783145 0.038259074 0.0763743 -0.42897275 0.20874844 0.07592001 -0.3019787 0.06414382
0.056566797 -0.4606688 -0.2193863 -0.008643021 0.073022105 0.0016934797 0.03826041 -0.24027319
-0.011120407 -0.060636424 -0.47998944 0.048409335 -0.08504428 -0.106651776 -0.07416994 -0.076690376
0.0063133165 0.016905587 0.034933906 -0.06551002 -0.2880631 -0.395675 -0.09424532 0.007315151
0.07472246 0.052184246 0.06648806 0.0837234 -0.13568799 0.044172533 0.32444882 0.054022998
00000000: f243 14be 28fd 1d3c 5c63 c03e 28b3 113d
00000010: 3085 99be 2bc2 e93c 5de7 3cbb 9f10 893d
00000020: 84c2 753c a138 2a3d d2ae 253d 2215 e8bd
00000030: d6d3 3cbe 496e 3bbc 6b02 a3bd 2587 7abb
00000040: 587a 9abd 813a 033f a0dc 96bc 005d b73c
00000050: c0b7 a33a eeb6 a7bd fe1f 8abd 8d7a 33bd
00000060: d8d1 8cbd bce3 e53d b741 76bb aa38 30be
00000070: 50ce ca3c 4976 913c b49c 82bd a0a0 913d
00000080: 494d 973d 41e1 20bd 4d32 8a3d c006 e4ba
00000090: f7cc fa38 46ea 043d 255d 6cbd 2098 8dbb
000000a0: c108 97be 9ba7 573d 65a8 6abd 9600 2fbe
000000b0: 5959 103e 62a5 ce3e 31bf 903d 1b15 30bd
000000c0: 3fc1 4ebe 304b a6bb 277c 9b3c c5e4 863d
000000d0: 19cb 4abe 7dda 023d 1767 a7bd 30b3 f1bb
000000e0: 8f97 58bd 6898 683d 31fc 6cbd 8d2d 1d3e
000000f0: 4a1a 19be c22c 8ebd 7221 463d fd14 9b3d
00000100: 631f ab3d ec70 b7bd cf50 37bd 58a0 43bc
00000110: 76e0 f8bd a78c a13d 128b 4d3d 409e e4ba
00000120: adef 233c e6ed 813e ef5d 55bd 09a2 85be
00000130: 57d3 ed3d 7e30 ad3d e988 31bd 1a19 463d
00000140: 6977 43be f203 333d d008 8bbe 475c a93d
00000150: 6b56 d13c 041d 673d f0b8 143d bc0c 9ebc
00000160: 2e6e a43d a8c6 56bd 1085 84bc 4595 77be
00000170: efb5 753c 3412 db3c 3e1f 96be 7feb 0b3d
00000180: cef3 2a3d 8e87 95be 8d2e 3cbe 48ce ffbd
00000190: fac3 79bd 6aa2 f8bc aad3 d1bc 16c8 71be
000001a0: 284b a93d d1c1 f4bc a3b3 c4be c062 8aba
000001b0: e822 30bd 7128 9dbd d237 c9bc a428 85bc
000001c0: 2e8e 18bd e1b2 1d3d 6329 0abc c726 2dbd
000001d0: 455f 42be 423c 7bbe 5a15 cebd c0f2 2fbd
000001e0: eee0 913c 3a28 46bd cbdd 31bd d227 a73d
000001f0: b0d8 4abe bc2a 5c3d 113d 9b3e e6ff 1d3d
00000200: 227f 88bd 84b2 173d 1cec a33e 36ba b33d
00000210: 266c d8be a4a6 0d3e ff99 933d 3235 193d
00000220: ba23 003c f4a6 973d a835 a03c 6f4a 1bbe
00000230: 437e 86be b50a 63bd 4fdb dabb 14ec a13c
00000240: ca47 0b3d f482 273f c575 86bd fc54 82bd
00000250: b847 83bd 2707 0fbe db27 72bd 65c0 c83c
00000260: 9e56 d93a 6bc9 383e 4159 023d 9246 05be
00000270: 0c58 0fbe 9a26 a13d 13bf ec3c 469d 2dbd
00000280: b2a7 3a3d 3737 ac3d aec1 5fbd 807e 7dbd
00000290: 0426 16bc d8f8 afbc 1bf9 38b9 3827 e83c
000002a0: dd2c aabe b9db 2a3e c673 2b3e 681e a7bd
000002b0: 522a 963e dd2c 293f 9fdc 58bd 0cb0 c2bc
000002c0: db84 65be 187e 393c 6288 e63c e7c1 38bb
000002d0: 2e33 14be 7836 713d 92d7 3c3d 00ce f43b
000002e0: 5079 8d3d c3ed 00bd 286b 01bd 15ba 2f3e
000002f0: 3d1f 89bd bf05 c2bd c47d 9dbc 6390 8b3d
00000300: 22d7 dfbb ec92 0bbe e0be 203d 66f5 093c
00000310: d9b7 91bd e803 483e 5f91 57bc d890 d33c
00000320: 0f3e af3d f779 163e 4521 8f3d 817e 87be
00000330: b274 3e3e 7440 923d 261e 82bd c6e0 573d
00000340: e8e4 f7bd 82fe 4cbd f29b d6be baa5 7dbd
00000350: c4d1 b13d ef55 cb3b 7c94 aa3d e8ce af3c
00000360: ef2c fcbc 8cb5 1c3d 216a 9c3d 51a2 dbbe
00000370: 27c2 553e f37b 9b3d f49c 9abe d65d 833d
00000380: 96b2 673d c8dc ebbe cda6 60be 759b 0dbc
00000390: 9d8c 953d c0f7 dd3a f3b6 1c3d 2d0a 76be
000003a0: 5e32 36bc e65d 78bd 2dc1 f5be de48 463d
000003b0: b22b aebd 3f6c dabd 69e6 97bd d80f 9dbd
000003c0: f0df ce3b 967d 8a3c db16 0f3d 1e2a 86bd
000003d0: 027d 93be ea95 cabe b103 c1bd efb3 ef3b
000003e0: 1708 993d 26bf 553d e42a 883d 2d77 ab3d
000003f0: cbf1 0abe 42ee 343d 281e a63e 3847 5d3d

bias f4 [8]
-0.265803 0.08658253 -0.25219733 -0.024542047 -0.13531792 0.23349252 -0.17588499 -0.03928649
00000000: 5517 88be 2e52 b13d 0220 81be 670c c9bc
00000010: c890 0abe aa18 6f3e 321b 34be dfea 20bd
